{"format": "layers-model", "generatedBy": "keras v2.8.0", "convertedBy": "TensorFlow.js Converter v3.20.0", "modelTopology": {"keras_version": "2.8.0", "backend": "tensorflow", "model_config": {"class_name": "Functional", "config": {"name": "face_descriptor_by_rebeca", "layers": [{"class_name": "InputLayer", "config": {"batch_input_shape": [null, 218, 218, 3], "dtype": "float32", "sparse": false, "ragged": false, "name": "input_6"}, "name": "input_6", "inbound_nodes": []}, {"class_name": "Conv2D", "config": {"name": "conv2d_124", "trainable": true, "dtype": "float32", "filters": 64, "kernel_size": [3, 3], "strides": [1, 1], "padding": "same", "data_format": "channels_last", "dilation_rate": [1, 1], "groups": 1, "activation": "linear", "use_bias": true, "kernel_initializer": {"class_name": "GlorotUniform", "config": {"seed": null}}, "bias_initializer": {"class_name": "Zeros", "config": {}}, "kernel_regularizer": null, "bias_regularizer": null, "activity_regularizer": null, "kernel_constraint": null, "bias_constraint": null}, "name": "conv2d_124", "inbound_nodes": [[["input_6", 0, 0, {}]]]}, {"class_name": "Activation", "config": {"name": "activation_138", "trainable": true, "dtype": "float32", "activation": "relu"}, "name": "activation_138", "inbound_nodes": [[["conv2d_124", 0, 0, {}]]]}, {"class_name": "Conv2D", "config": {"name": "conv2d_120", "trainable": true, "dtype": "float32", "filters": 64, "kernel_size": [3, 3], "strides": [1, 1], "padding": "same", "data_format": "channels_last", "dilation_rate": [1, 1], "groups": 1, "activation": "linear", "use_bias": true, "kernel_initializer": {"class_name": "GlorotUniform", "config": {"seed": null}}, "bias_initializer": {"class_name": "Zeros", "config": {}}, "kernel_regularizer": null, "bias_regularizer": null, "activity_regularizer": null, "kernel_constraint": null, "bias_constraint": null}, "name": "conv2d_120", "inbound_nodes": [[["input_6", 0, 0, {}]]]}, {"class_name": "MaxPooling2D", "config": {"name": "max_pooling2d_118", "trainable": true, "dtype": "float32", "pool_size": [3, 3], "padding": "valid", "strides": [3, 3], "data_format": "channels_last"}, "name": "max_pooling2d_118", "inbound_nodes": [[["activation_138", 0, 0, {}]]]}, {"class_name": "Conv2D", "config": {"name": "conv2d_129", "trainable": true, "dtype": "float32", "filters": 64, "kernel_size": [3, 3], "strides": [1, 1], "padding": "same", "data_format": "channels_last", "dilation_rate": [1, 1], "groups": 1, "activation": "linear", "use_bias": true, "kernel_initializer": {"class_name": "GlorotUniform", "config": {"seed": null}}, "bias_initializer": {"class_name": "Zeros", "config": {}}, "kernel_regularizer": null, "bias_regularizer": null, "activity_regularizer": null, "kernel_constraint": null, "bias_constraint": null}, "name": "conv2d_129", "inbound_nodes": [[["input_6", 0, 0, {}]]]}, {"class_name": "Activation", "config": {"name": "activation_133", "trainable": true, "dtype": "float32", "activation": "relu"}, "name": "activation_133", "inbound_nodes": [[["conv2d_120", 0, 0, {}]]]}, {"class_name": "Dropout", "config": {"name": "dropout_141", "trainable": true, "dtype": "float32", "rate": 0.25, "noise_shape": null, "seed": null}, "name": "dropout_141", "inbound_nodes": [[["max_pooling2d_118", 0, 0, {}]]]}, {"class_name": "Activation", "config": {"name": "activation_144", "trainable": true, "dtype": "float32", "activation": "relu"}, "name": "activation_144", "inbound_nodes": [[["conv2d_129", 0, 0, {}]]]}, {"class_name": "MaxPooling2D", "config": {"name": "max_pooling2d_114", "trainable": true, "dtype": "float32", "pool_size": [3, 3], "padding": "valid", "strides": [3, 3], "data_format": "channels_last"}, "name": "max_pooling2d_114", "inbound_nodes": [[["activation_133", 0, 0, {}]]]}, {"class_name": "Conv2D", "config": {"name": "conv2d_125", "trainable": true, "dtype": "float32", "filters": 128, "kernel_size": [3, 3], "strides": [1, 1], "padding": "same", "data_format": "channels_last", "dilation_rate": [1, 1], "groups": 1, "activation": "linear", "use_bias": true, "kernel_initializer": {"class_name": "GlorotUniform", "config": {"seed": null}}, "bias_initializer": {"class_name": "Zeros", "config": {}}, "kernel_regularizer": null, "bias_regularizer": null, "activity_regularizer": null, "kernel_constraint": null, "bias_constraint": null}, "name": "conv2d_125", "inbound_nodes": [[["dropout_141", 0, 0, {}]]]}, {"class_name": "MaxPooling2D", "config": {"name": "max_pooling2d_123", "trainable": true, "dtype": "float32", "pool_size": [3, 3], "padding": "valid", "strides": [3, 3], "data_format": "channels_last"}, "name": "max_pooling2d_123", "inbound_nodes": [[["activation_144", 0, 0, {}]]]}, {"class_name": "Dropout", "config": {"name": "dropout_135", "trainable": true, "dtype": "float32", "rate": 0.25, "noise_shape": null, "seed": null}, "name": "dropout_135", "inbound_nodes": [[["max_pooling2d_114", 0, 0, {}]]]}, {"class_name": "Activation", "config": {"name": "activation_139", "trainable": true, "dtype": "float32", "activation": "relu"}, "name": "activation_139", "inbound_nodes": [[["conv2d_125", 0, 0, {}]]]}, {"class_name": "Dropout", "config": {"name": "dropout_143", "trainable": true, "dtype": "float32", "rate": 0.25, "noise_shape": null, "seed": null}, "name": "dropout_143", "inbound_nodes": [[["max_pooling2d_123", 0, 0, {}]]]}, {"class_name": "Conv2D", "config": {"name": "conv2d_136", "trainable": true, "dtype": "float32", "filters": 64, "kernel_size": [3, 3], "strides": [1, 1], "padding": "same", "data_format": "channels_last", "dilation_rate": [1, 1], "groups": 1, "activation": "linear", "use_bias": true, "kernel_initializer": {"class_name": "GlorotUniform", "config": {"seed": null}}, "bias_initializer": {"class_name": "Zeros", "config": {}}, "kernel_regularizer": null, "bias_regularizer": null, "activity_regularizer": null, "kernel_constraint": null, "bias_constraint": null}, "name": "conv2d_136", "inbound_nodes": [[["input_6", 0, 0, {}]]]}, {"class_name": "Conv2D", "config": {"name": "conv2d_140", "trainable": true, "dtype": "float32", "filters": 64, "kernel_size": [3, 3], "strides": [1, 1], "padding": "same", "data_format": "channels_last", "dilation_rate": [1, 1], "groups": 1, "activation": "linear", "use_bias": true, "kernel_initializer": {"class_name": "GlorotUniform", "config": {"seed": null}}, "bias_initializer": {"class_name": "Zeros", "config": {}}, "kernel_regularizer": null, "bias_regularizer": null, "activity_regularizer": null, "kernel_constraint": null, "bias_constraint": null}, "name": "conv2d_140", "inbound_nodes": [[["input_6", 0, 0, {}]]]}, {"class_name": "Conv2D", "config": {"name": "conv2d_121", "trainable": true, "dtype": "float32", "filters": 128, "kernel_size": [3, 3], "strides": [1, 1], "padding": "same", "data_format": "channels_last", "dilation_rate": [1, 1], "groups": 1, "activation": "linear", "use_bias": true, "kernel_initializer": {"class_name": "GlorotUniform", "config": {"seed": null}}, "bias_initializer": {"class_name": "Zeros", "config": {}}, "kernel_regularizer": null, "bias_regularizer": null, "activity_regularizer": null, "kernel_constraint": null, "bias_constraint": null}, "name": "conv2d_121", "inbound_nodes": [[["dropout_135", 0, 0, {}]]]}, {"class_name": "BatchNormalization", "config": {"name": "batch_normalization_62", "trainable": true, "dtype": "float32", "axis": [3], "momentum": 0.99, "epsilon": 0.001, "center": true, "scale": true, "beta_initializer": {"class_name": "Zeros", "config": {}}, "gamma_initializer": {"class_name": "Ones", "config": {}}, "moving_mean_initializer": {"class_name": "Zeros", "config": {}}, "moving_variance_initializer": {"class_name": "Ones", "config": {}}, "beta_regularizer": null, "gamma_regularizer": null, "beta_constraint": null, "gamma_constraint": null}, "name": "batch_normalization_62", "inbound_nodes": [[["activation_139", 0, 0, {}]]]}, {"class_name": "Conv2D", "config": {"name": "conv2d_130", "trainable": true, "dtype": "float32", "filters": 128, "kernel_size": [3, 3], "strides": [1, 1], "padding": "same", "data_format": "channels_last", "dilation_rate": [1, 1], "groups": 1, "activation": "linear", "use_bias": true, "kernel_initializer": {"class_name": "GlorotUniform", "config": {"seed": null}}, "bias_initializer": {"class_name": "Zeros", "config": {}}, "kernel_regularizer": null, "bias_regularizer": null, "activity_regularizer": null, "kernel_constraint": null, "bias_constraint": null}, "name": "conv2d_130", "inbound_nodes": [[["dropout_143", 0, 0, {}]]]}, {"class_name": "Activation", "config": {"name": "activation_150", "trainable": true, "dtype": "float32", "activation": "relu"}, "name": "activation_150", "inbound_nodes": [[["conv2d_136", 0, 0, {}]]]}, {"class_name": "Activation", "config": {"name": "activation_155", "trainable": true, "dtype": "float32", "activation": "relu"}, "name": "activation_155", "inbound_nodes": [[["conv2d_140", 0, 0, {}]]]}, {"class_name": "Activation", "config": {"name": "activation_134", "trainable": true, "dtype": "float32", "activation": "relu"}, "name": "activation_134", "inbound_nodes": [[["conv2d_121", 0, 0, {}]]]}, {"class_name": "MaxPooling2D", "config": {"name": "max_pooling2d_119", "trainable": true, "dtype": "float32", "pool_size": [2, 2], "padding": "valid", "strides": [2, 2], "data_format": "channels_last"}, "name": "max_pooling2d_119", "inbound_nodes": [[["batch_normalization_62", 0, 0, {}]]]}, {"class_name": "Activation", "config": {"name": "activation_145", "trainable": true, "dtype": "float32", "activation": "relu"}, "name": "activation_145", "inbound_nodes": [[["conv2d_130", 0, 0, {}]]]}, {"class_name": "MaxPooling2D", "config": {"name": "max_pooling2d_129", "trainable": true, "dtype": "float32", "pool_size": [3, 3], "padding": "valid", "strides": [3, 3], "data_format": "channels_last"}, "name": "max_pooling2d_129", "inbound_nodes": [[["activation_150", 0, 0, {}]]]}, {"class_name": "MaxPooling2D", "config": {"name": "max_pooling2d_133", "trainable": true, "dtype": "float32", "pool_size": [3, 3], "padding": "valid", "strides": [3, 3], "data_format": "channels_last"}, "name": "max_pooling2d_133", "inbound_nodes": [[["activation_155", 0, 0, {}]]]}, {"class_name": "BatchNormalization", "config": {"name": "batch_normalization_60", "trainable": true, "dtype": "float32", "axis": [3], "momentum": 0.99, "epsilon": 0.001, "center": true, "scale": true, "beta_initializer": {"class_name": "Zeros", "config": {}}, "gamma_initializer": {"class_name": "Ones", "config": {}}, "moving_mean_initializer": {"class_name": "Zeros", "config": {}}, "moving_variance_initializer": {"class_name": "Ones", "config": {}}, "beta_regularizer": null, "gamma_regularizer": null, "beta_constraint": null, "gamma_constraint": null}, "name": "batch_normalization_60", "inbound_nodes": [[["activation_134", 0, 0, {}]]]}, {"class_name": "Conv2D", "config": {"name": "conv2d_126", "trainable": true, "dtype": "float32", "filters": 256, "kernel_size": [3, 3], "strides": [1, 1], "padding": "same", "data_format": "channels_last", "dilation_rate": [1, 1], "groups": 1, "activation": "linear", "use_bias": true, "kernel_initializer": {"class_name": "GlorotUniform", "config": {"seed": null}}, "bias_initializer": {"class_name": "Zeros", "config": {}}, "kernel_regularizer": null, "bias_regularizer": null, "activity_regularizer": null, "kernel_constraint": null, "bias_constraint": null}, "name": "conv2d_126", "inbound_nodes": [[["max_pooling2d_119", 0, 0, {}]]]}, {"class_name": "BatchNormalization", "config": {"name": "batch_normalization_67", "trainable": true, "dtype": "float32", "axis": [3], "momentum": 0.99, "epsilon": 0.001, "center": true, "scale": true, "beta_initializer": {"class_name": "Zeros", "config": {}}, "gamma_initializer": {"class_name": "Ones", "config": {}}, "moving_mean_initializer": {"class_name": "Zeros", "config": {}}, "moving_variance_initializer": {"class_name": "Ones", "config": {}}, "beta_regularizer": null, "gamma_regularizer": null, "beta_constraint": null, "gamma_constraint": null}, "name": "batch_normalization_67", "inbound_nodes": [[["activation_145", 0, 0, {}]]]}, {"class_name": "Dropout", "config": {"name": "dropout_151", "trainable": true, "dtype": "float32", "rate": 0.25, "noise_shape": null, "seed": null}, "name": "dropout_151", "inbound_nodes": [[["max_pooling2d_129", 0, 0, {}]]]}, {"class_name": "Dropout", "config": {"name": "dropout_156", "trainable": true, "dtype": "float32", "rate": 0.25, "noise_shape": null, "seed": null}, "name": "dropout_156", "inbound_nodes": [[["max_pooling2d_133", 0, 0, {}]]]}, {"class_name": "MaxPooling2D", "config": {"name": "max_pooling2d_115", "trainable": true, "dtype": "float32", "pool_size": [2, 2], "padding": "valid", "strides": [2, 2], "data_format": "channels_last"}, "name": "max_pooling2d_115", "inbound_nodes": [[["batch_normalization_60", 0, 0, {}]]]}, {"class_name": "Activation", "config": {"name": "activation_140", "trainable": true, "dtype": "float32", "activation": "relu"}, "name": "activation_140", "inbound_nodes": [[["conv2d_126", 0, 0, {}]]]}, {"class_name": "MaxPooling2D", "config": {"name": "max_pooling2d_124", "trainable": true, "dtype": "float32", "pool_size": [2, 2], "padding": "valid", "strides": [2, 2], "data_format": "channels_last"}, "name": "max_pooling2d_124", "inbound_nodes": [[["batch_normalization_67", 0, 0, {}]]]}, {"class_name": "Conv2D", "config": {"name": "conv2d_137", "trainable": true, "dtype": "float32", "filters": 256, "kernel_size": [3, 3], "strides": [1, 1], "padding": "same", "data_format": "channels_last", "dilation_rate": [1, 1], "groups": 1, "activation": "linear", "use_bias": true, "kernel_initializer": {"class_name": "GlorotUniform", "config": {"seed": null}}, "bias_initializer": {"class_name": "Zeros", "config": {}}, "kernel_regularizer": null, "bias_regularizer": null, "activity_regularizer": null, "kernel_constraint": null, "bias_constraint": null}, "name": "conv2d_137", "inbound_nodes": [[["dropout_151", 0, 0, {}]]]}, {"class_name": "Conv2D", "config": {"name": "conv2d_141", "trainable": true, "dtype": "float32", "filters": 256, "kernel_size": [3, 3], "strides": [1, 1], "padding": "same", "data_format": "channels_last", "dilation_rate": [1, 1], "groups": 1, "activation": "linear", "use_bias": true, "kernel_initializer": {"class_name": "GlorotUniform", "config": {"seed": null}}, "bias_initializer": {"class_name": "Zeros", "config": {}}, "kernel_regularizer": null, "bias_regularizer": null, "activity_regularizer": null, "kernel_constraint": null, "bias_constraint": null}, "name": "conv2d_141", "inbound_nodes": [[["dropout_156", 0, 0, {}]]]}, {"class_name": "Dropout", "config": {"name": "dropout_136", "trainable": true, "dtype": "float32", "rate": 0.25, "noise_shape": null, "seed": null}, "name": "dropout_136", "inbound_nodes": [[["max_pooling2d_115", 0, 0, {}]]]}, {"class_name": "BatchNormalization", "config": {"name": "batch_normalization_63", "trainable": true, "dtype": "float32", "axis": [3], "momentum": 0.99, "epsilon": 0.001, "center": true, "scale": true, "beta_initializer": {"class_name": "Zeros", "config": {}}, "gamma_initializer": {"class_name": "Ones", "config": {}}, "moving_mean_initializer": {"class_name": "Zeros", "config": {}}, "moving_variance_initializer": {"class_name": "Ones", "config": {}}, "beta_regularizer": null, "gamma_regularizer": null, "beta_constraint": null, "gamma_constraint": null}, "name": "batch_normalization_63", "inbound_nodes": [[["activation_140", 0, 0, {}]]]}, {"class_name": "Dropout", "config": {"name": "dropout_144", "trainable": true, "dtype": "float32", "rate": 0.25, "noise_shape": null, "seed": null}, "name": "dropout_144", "inbound_nodes": [[["max_pooling2d_124", 0, 0, {}]]]}, {"class_name": "Activation", "config": {"name": "activation_151", "trainable": true, "dtype": "float32", "activation": "relu"}, "name": "activation_151", "inbound_nodes": [[["conv2d_137", 0, 0, {}]]]}, {"class_name": "Activation", "config": {"name": "activation_156", "trainable": true, "dtype": "float32", "activation": "relu"}, "name": "activation_156", "inbound_nodes": [[["conv2d_141", 0, 0, {}]]]}, {"class_name": "Conv2D", "config": {"name": "conv2d_122", "trainable": true, "dtype": "float32", "filters": 256, "kernel_size": [3, 3], "strides": [1, 1], "padding": "same", "data_format": "channels_last", "dilation_rate": [1, 1], "groups": 1, "activation": "linear", "use_bias": true, "kernel_initializer": {"class_name": "GlorotUniform", "config": {"seed": null}}, "bias_initializer": {"class_name": "Zeros", "config": {}}, "kernel_regularizer": null, "bias_regularizer": null, "activity_regularizer": null, "kernel_constraint": null, "bias_constraint": null}, "name": "conv2d_122", "inbound_nodes": [[["dropout_136", 0, 0, {}]]]}, {"class_name": "MaxPooling2D", "config": {"name": "max_pooling2d_120", "trainable": true, "dtype": "float32", "pool_size": [2, 2], "padding": "valid", "strides": [2, 2], "data_format": "channels_last"}, "name": "max_pooling2d_120", "inbound_nodes": [[["batch_normalization_63", 0, 0, {}]]]}, {"class_name": "Conv2D", "config": {"name": "conv2d_131", "trainable": true, "dtype": "float32", "filters": 256, "kernel_size": [3, 3], "strides": [1, 1], "padding": "same", "data_format": "channels_last", "dilation_rate": [1, 1], "groups": 1, "activation": "linear", "use_bias": true, "kernel_initializer": {"class_name": "GlorotUniform", "config": {"seed": null}}, "bias_initializer": {"class_name": "Zeros", "config": {}}, "kernel_regularizer": null, "bias_regularizer": null, "activity_regularizer": null, "kernel_constraint": null, "bias_constraint": null}, "name": "conv2d_131", "inbound_nodes": [[["dropout_144", 0, 0, {}]]]}, {"class_name": "MaxPooling2D", "config": {"name": "max_pooling2d_130", "trainable": true, "dtype": "float32", "pool_size": [2, 2], "padding": "valid", "strides": [2, 2], "data_format": "channels_last"}, "name": "max_pooling2d_130", "inbound_nodes": [[["activation_151", 0, 0, {}]]]}, {"class_name": "MaxPooling2D", "config": {"name": "max_pooling2d_134", "trainable": true, "dtype": "float32", "pool_size": [2, 2], "padding": "valid", "strides": [2, 2], "data_format": "channels_last"}, "name": "max_pooling2d_134", "inbound_nodes": [[["activation_156", 0, 0, {}]]]}, {"class_name": "Activation", "config": {"name": "activation_135", "trainable": true, "dtype": "float32", "activation": "relu"}, "name": "activation_135", "inbound_nodes": [[["conv2d_122", 0, 0, {}]]]}, {"class_name": "Conv2D", "config": {"name": "conv2d_127", "trainable": true, "dtype": "float32", "filters": 512, "kernel_size": [3, 3], "strides": [1, 1], "padding": "same", "data_format": "channels_last", "dilation_rate": [1, 1], "groups": 1, "activation": "linear", "use_bias": true, "kernel_initializer": {"class_name": "GlorotUniform", "config": {"seed": null}}, "bias_initializer": {"class_name": "Zeros", "config": {}}, "kernel_regularizer": null, "bias_regularizer": null, "activity_regularizer": null, "kernel_constraint": null, "bias_constraint": null}, "name": "conv2d_127", "inbound_nodes": [[["max_pooling2d_120", 0, 0, {}]]]}, {"class_name": "Activation", "config": {"name": "activation_146", "trainable": true, "dtype": "float32", "activation": "relu"}, "name": "activation_146", "inbound_nodes": [[["conv2d_131", 0, 0, {}]]]}, {"class_name": "Conv2D", "config": {"name": "conv2d_133", "trainable": true, "dtype": "float32", "filters": 64, "kernel_size": [3, 3], "strides": [1, 1], "padding": "same", "data_format": "channels_last", "dilation_rate": [1, 1], "groups": 1, "activation": "linear", "use_bias": true, "kernel_initializer": {"class_name": "GlorotUniform", "config": {"seed": null}}, "bias_initializer": {"class_name": "Zeros", "config": {}}, "kernel_regularizer": null, "bias_regularizer": null, "activity_regularizer": null, "kernel_constraint": null, "bias_constraint": null}, "name": "conv2d_133", "inbound_nodes": [[["input_6", 0, 0, {}]]]}, {"class_name": "Dropout", "config": {"name": "dropout_152", "trainable": true, "dtype": "float32", "rate": 0.5, "noise_shape": null, "seed": null}, "name": "dropout_152", "inbound_nodes": [[["max_pooling2d_130", 0, 0, {}]]]}, {"class_name": "Dropout", "config": {"name": "dropout_157", "trainable": true, "dtype": "float32", "rate": 0.25, "noise_shape": null, "seed": null}, "name": "dropout_157", "inbound_nodes": [[["max_pooling2d_134", 0, 0, {}]]]}, {"class_name": "BatchNormalization", "config": {"name": "batch_normalization_61", "trainable": true, "dtype": "float32", "axis": [3], "momentum": 0.99, "epsilon": 0.001, "center": true, "scale": true, "beta_initializer": {"class_name": "Zeros", "config": {}}, "gamma_initializer": {"class_name": "Ones", "config": {}}, "moving_mean_initializer": {"class_name": "Zeros", "config": {}}, "moving_variance_initializer": {"class_name": "Ones", "config": {}}, "beta_regularizer": null, "gamma_regularizer": null, "beta_constraint": null, "gamma_constraint": null}, "name": "batch_normalization_61", "inbound_nodes": [[["activation_135", 0, 0, {}]]]}, {"class_name": "BatchNormalization", "config": {"name": "batch_normalization_64", "trainable": true, "dtype": "float32", "axis": [3], "momentum": 0.99, "epsilon": 0.001, "center": true, "scale": true, "beta_initializer": {"class_name": "Zeros", "config": {}}, "gamma_initializer": {"class_name": "Ones", "config": {}}, "moving_mean_initializer": {"class_name": "Zeros", "config": {}}, "moving_variance_initializer": {"class_name": "Ones", "config": {}}, "beta_regularizer": null, "gamma_regularizer": null, "beta_constraint": null, "gamma_constraint": null}, "name": "batch_normalization_64", "inbound_nodes": [[["conv2d_127", 0, 0, {}]]]}, {"class_name": "BatchNormalization", "config": {"name": "batch_normalization_68", "trainable": true, "dtype": "float32", "axis": [3], "momentum": 0.99, "epsilon": 0.001, "center": true, "scale": true, "beta_initializer": {"class_name": "Zeros", "config": {}}, "gamma_initializer": {"class_name": "Ones", "config": {}}, "moving_mean_initializer": {"class_name": "Zeros", "config": {}}, "moving_variance_initializer": {"class_name": "Ones", "config": {}}, "beta_regularizer": null, "gamma_regularizer": null, "beta_constraint": null, "gamma_constraint": null}, "name": "batch_normalization_68", "inbound_nodes": [[["activation_146", 0, 0, {}]]]}, {"class_name": "Activation", "config": {"name": "activation_148", "trainable": true, "dtype": "float32", "activation": "relu"}, "name": "activation_148", "inbound_nodes": [[["conv2d_133", 0, 0, {}]]]}, {"class_name": "Conv2D", "config": {"name": "conv2d_138", "trainable": true, "dtype": "float32", "filters": 256, "kernel_size": [3, 3], "strides": [1, 1], "padding": "same", "data_format": "channels_last", "dilation_rate": [1, 1], "groups": 1, "activation": "linear", "use_bias": true, "kernel_initializer": {"class_name": "GlorotUniform", "config": {"seed": null}}, "bias_initializer": {"class_name": "Zeros", "config": {}}, "kernel_regularizer": null, "bias_regularizer": null, "activity_regularizer": null, "kernel_constraint": null, "bias_constraint": null}, "name": "conv2d_138", "inbound_nodes": [[["dropout_152", 0, 0, {}]]]}, {"class_name": "Conv2D", "config": {"name": "conv2d_142", "trainable": true, "dtype": "float32", "filters": 256, "kernel_size": [3, 3], "strides": [1, 1], "padding": "same", "data_format": "channels_last", "dilation_rate": [1, 1], "groups": 1, "activation": "linear", "use_bias": true, "kernel_initializer": {"class_name": "GlorotUniform", "config": {"seed": null}}, "bias_initializer": {"class_name": "Zeros", "config": {}}, "kernel_regularizer": null, "bias_regularizer": null, "activity_regularizer": null, "kernel_constraint": null, "bias_constraint": null}, "name": "conv2d_142", "inbound_nodes": [[["dropout_157", 0, 0, {}]]]}, {"class_name": "MaxPooling2D", "config": {"name": "max_pooling2d_116", "trainable": true, "dtype": "float32", "pool_size": [2, 2], "padding": "valid", "strides": [2, 2], "data_format": "channels_last"}, "name": "max_pooling2d_116", "inbound_nodes": [[["batch_normalization_61", 0, 0, {}]]]}, {"class_name": "Activation", "config": {"name": "activation_141", "trainable": true, "dtype": "float32", "activation": "relu"}, "name": "activation_141", "inbound_nodes": [[["batch_normalization_64", 0, 0, {}]]]}, {"class_name": "MaxPooling2D", "config": {"name": "max_pooling2d_125", "trainable": true, "dtype": "float32", "pool_size": [2, 2], "padding": "valid", "strides": [2, 2], "data_format": "channels_last"}, "name": "max_pooling2d_125", "inbound_nodes": [[["batch_normalization_68", 0, 0, {}]]]}, {"class_name": "MaxPooling2D", "config": {"name": "max_pooling2d_127", "trainable": true, "dtype": "float32", "pool_size": [3, 3], "padding": "valid", "strides": [3, 3], "data_format": "channels_last"}, "name": "max_pooling2d_127", "inbound_nodes": [[["activation_148", 0, 0, {}]]]}, {"class_name": "Activation", "config": {"name": "activation_152", "trainable": true, "dtype": "float32", "activation": "relu"}, "name": "activation_152", "inbound_nodes": [[["conv2d_138", 0, 0, {}]]]}, {"class_name": "Activation", "config": {"name": "activation_157", "trainable": true, "dtype": "float32", "activation": "relu"}, "name": "activation_157", "inbound_nodes": [[["conv2d_142", 0, 0, {}]]]}, {"class_name": "Dropout", "config": {"name": "dropout_137", "trainable": true, "dtype": "float32", "rate": 0.25, "noise_shape": null, "seed": null}, "name": "dropout_137", "inbound_nodes": [[["max_pooling2d_116", 0, 0, {}]]]}, {"class_name": "MaxPooling2D", "config": {"name": "max_pooling2d_121", "trainable": true, "dtype": "float32", "pool_size": [2, 2], "padding": "valid", "strides": [2, 2], "data_format": "channels_last"}, "name": "max_pooling2d_121", "inbound_nodes": [[["activation_141", 0, 0, {}]]]}, {"class_name": "Dropout", "config": {"name": "dropout_145", "trainable": true, "dtype": "float32", "rate": 0.25, "noise_shape": null, "seed": null}, "name": "dropout_145", "inbound_nodes": [[["max_pooling2d_125", 0, 0, {}]]]}, {"class_name": "Dropout", "config": {"name": "dropout_148", "trainable": true, "dtype": "float32", "rate": 0.25, "noise_shape": null, "seed": null}, "name": "dropout_148", "inbound_nodes": [[["max_pooling2d_127", 0, 0, {}]]]}, {"class_name": "MaxPooling2D", "config": {"name": "max_pooling2d_131", "trainable": true, "dtype": "float32", "pool_size": [2, 2], "padding": "valid", "strides": [2, 2], "data_format": "channels_last"}, "name": "max_pooling2d_131", "inbound_nodes": [[["activation_152", 0, 0, {}]]]}, {"class_name": "MaxPooling2D", "config": {"name": "max_pooling2d_135", "trainable": true, "dtype": "float32", "pool_size": [2, 2], "padding": "valid", "strides": [2, 2], "data_format": "channels_last"}, "name": "max_pooling2d_135", "inbound_nodes": [[["activation_157", 0, 0, {}]]]}, {"class_name": "Conv2D", "config": {"name": "conv2d_123", "trainable": true, "dtype": "float32", "filters": 512, "kernel_size": [3, 3], "strides": [1, 1], "padding": "same", "data_format": "channels_last", "dilation_rate": [1, 1], "groups": 1, "activation": "relu", "use_bias": true, "kernel_initializer": {"class_name": "GlorotUniform", "config": {"seed": null}}, "bias_initializer": {"class_name": "Zeros", "config": {}}, "kernel_regularizer": null, "bias_regularizer": null, "activity_regularizer": null, "kernel_constraint": null, "bias_constraint": null}, "name": "conv2d_123", "inbound_nodes": [[["dropout_137", 0, 0, {}]]]}, {"class_name": "Conv2D", "config": {"name": "conv2d_128", "trainable": true, "dtype": "float32", "filters": 512, "kernel_size": [3, 3], "strides": [1, 1], "padding": "same", "data_format": "channels_last", "dilation_rate": [1, 1], "groups": 1, "activation": "linear", "use_bias": true, "kernel_initializer": {"class_name": "GlorotUniform", "config": {"seed": null}}, "bias_initializer": {"class_name": "Zeros", "config": {}}, "kernel_regularizer": null, "bias_regularizer": null, "activity_regularizer": null, "kernel_constraint": null, "bias_constraint": null}, "name": "conv2d_128", "inbound_nodes": [[["max_pooling2d_121", 0, 0, {}]]]}, {"class_name": "Conv2D", "config": {"name": "conv2d_132", "trainable": true, "dtype": "float32", "filters": 256, "kernel_size": [3, 3], "strides": [1, 1], "padding": "same", "data_format": "channels_last", "dilation_rate": [1, 1], "groups": 1, "activation": "relu", "use_bias": true, "kernel_initializer": {"class_name": "GlorotUniform", "config": {"seed": null}}, "bias_initializer": {"class_name": "Zeros", "config": {}}, "kernel_regularizer": null, "bias_regularizer": null, "activity_regularizer": null, "kernel_constraint": null, "bias_constraint": null}, "name": "conv2d_132", "inbound_nodes": [[["dropout_145", 0, 0, {}]]]}, {"class_name": "Conv2D", "config": {"name": "conv2d_134", "trainable": true, "dtype": "float32", "filters": 256, "kernel_size": [3, 3], "strides": [1, 1], "padding": "same", "data_format": "channels_last", "dilation_rate": [1, 1], "groups": 1, "activation": "relu", "use_bias": true, "kernel_initializer": {"class_name": "GlorotUniform", "config": {"seed": null}}, "bias_initializer": {"class_name": "Zeros", "config": {}}, "kernel_regularizer": null, "bias_regularizer": null, "activity_regularizer": null, "kernel_constraint": null, "bias_constraint": null}, "name": "conv2d_134", "inbound_nodes": [[["dropout_148", 0, 0, {}]]]}, {"class_name": "Dropout", "config": {"name": "dropout_153", "trainable": true, "dtype": "float32", "rate": 0.25, "noise_shape": null, "seed": null}, "name": "dropout_153", "inbound_nodes": [[["max_pooling2d_131", 0, 0, {}]]]}, {"class_name": "Dropout", "config": {"name": "dropout_158", "trainable": true, "dtype": "float32", "rate": 0.5, "noise_shape": null, "seed": null}, "name": "dropout_158", "inbound_nodes": [[["max_pooling2d_135", 0, 0, {}]]]}, {"class_name": "MaxPooling2D", "config": {"name": "max_pooling2d_117", "trainable": true, "dtype": "float32", "pool_size": [2, 2], "padding": "valid", "strides": [2, 2], "data_format": "channels_last"}, "name": "max_pooling2d_117", "inbound_nodes": [[["conv2d_123", 0, 0, {}]]]}, {"class_name": "BatchNormalization", "config": {"name": "batch_normalization_65", "trainable": true, "dtype": "float32", "axis": [3], "momentum": 0.99, "epsilon": 0.001, "center": true, "scale": true, "beta_initializer": {"class_name": "Zeros", "config": {}}, "gamma_initializer": {"class_name": "Ones", "config": {}}, "moving_mean_initializer": {"class_name": "Zeros", "config": {}}, "moving_variance_initializer": {"class_name": "Ones", "config": {}}, "beta_regularizer": null, "gamma_regularizer": null, "beta_constraint": null, "gamma_constraint": null}, "name": "batch_normalization_65", "inbound_nodes": [[["conv2d_128", 0, 0, {}]]]}, {"class_name": "BatchNormalization", "config": {"name": "batch_normalization_69", "trainable": true, "dtype": "float32", "axis": [3], "momentum": 0.99, "epsilon": 0.001, "center": true, "scale": true, "beta_initializer": {"class_name": "Zeros", "config": {}}, "gamma_initializer": {"class_name": "Ones", "config": {}}, "moving_mean_initializer": {"class_name": "Zeros", "config": {}}, "moving_variance_initializer": {"class_name": "Ones", "config": {}}, "beta_regularizer": null, "gamma_regularizer": null, "beta_constraint": null, "gamma_constraint": null}, "name": "batch_normalization_69", "inbound_nodes": [[["conv2d_132", 0, 0, {}]]]}, {"class_name": "Conv2D", "config": {"name": "conv2d_135", "trainable": true, "dtype": "float32", "filters": 256, "kernel_size": [3, 3], "strides": [1, 1], "padding": "same", "data_format": "channels_last", "dilation_rate": [1, 1], "groups": 1, "activation": "relu", "use_bias": true, "kernel_initializer": {"class_name": "GlorotUniform", "config": {"seed": null}}, "bias_initializer": {"class_name": "Zeros", "config": {}}, "kernel_regularizer": null, "bias_regularizer": null, "activity_regularizer": null, "kernel_constraint": null, "bias_constraint": null}, "name": "conv2d_135", "inbound_nodes": [[["conv2d_134", 0, 0, {}]]]}, {"class_name": "Conv2D", "config": {"name": "conv2d_139", "trainable": true, "dtype": "float32", "filters": 256, "kernel_size": [3, 3], "strides": [1, 1], "padding": "same", "data_format": "channels_last", "dilation_rate": [1, 1], "groups": 1, "activation": "linear", "use_bias": true, "kernel_initializer": {"class_name": "GlorotUniform", "config": {"seed": null}}, "bias_initializer": {"class_name": "Zeros", "config": {}}, "kernel_regularizer": null, "bias_regularizer": null, "activity_regularizer": null, "kernel_constraint": null, "bias_constraint": null}, "name": "conv2d_139", "inbound_nodes": [[["dropout_153", 0, 0, {}]]]}, {"class_name": "Conv2D", "config": {"name": "conv2d_143", "trainable": true, "dtype": "float32", "filters": 256, "kernel_size": [3, 3], "strides": [1, 1], "padding": "same", "data_format": "channels_last", "dilation_rate": [1, 1], "groups": 1, "activation": "linear", "use_bias": true, "kernel_initializer": {"class_name": "GlorotUniform", "config": {"seed": null}}, "bias_initializer": {"class_name": "Zeros", "config": {}}, "kernel_regularizer": null, "bias_regularizer": null, "activity_regularizer": null, "kernel_constraint": null, "bias_constraint": null}, "name": "conv2d_143", "inbound_nodes": [[["dropout_158", 0, 0, {}]]]}, {"class_name": "Dropout", "config": {"name": "dropout_138", "trainable": true, "dtype": "float32", "rate": 0.25, "noise_shape": null, "seed": null}, "name": "dropout_138", "inbound_nodes": [[["max_pooling2d_117", 0, 0, {}]]]}, {"class_name": "Activation", "config": {"name": "activation_142", "trainable": true, "dtype": "float32", "activation": "relu"}, "name": "activation_142", "inbound_nodes": [[["batch_normalization_65", 0, 0, {}]]]}, {"class_name": "MaxPooling2D", "config": {"name": "max_pooling2d_126", "trainable": true, "dtype": "float32", "pool_size": [2, 2], "padding": "valid", "strides": [2, 2], "data_format": "channels_last"}, "name": "max_pooling2d_126", "inbound_nodes": [[["batch_normalization_69", 0, 0, {}]]]}, {"class_name": "MaxPooling2D", "config": {"name": "max_pooling2d_128", "trainable": true, "dtype": "float32", "pool_size": [2, 2], "padding": "valid", "strides": [2, 2], "data_format": "channels_last"}, "name": "max_pooling2d_128", "inbound_nodes": [[["conv2d_135", 0, 0, {}]]]}, {"class_name": "Activation", "config": {"name": "activation_153", "trainable": true, "dtype": "float32", "activation": "relu"}, "name": "activation_153", "inbound_nodes": [[["conv2d_139", 0, 0, {}]]]}, {"class_name": "Activation", "config": {"name": "activation_158", "trainable": true, "dtype": "float32", "activation": "relu"}, "name": "activation_158", "inbound_nodes": [[["conv2d_143", 0, 0, {}]]]}, {"class_name": "Flatten", "config": {"name": "flatten_30", "trainable": true, "dtype": "float32", "data_format": "channels_last"}, "name": "flatten_30", "inbound_nodes": [[["dropout_138", 0, 0, {}]]]}, {"class_name": "MaxPooling2D", "config": {"name": "max_pooling2d_122", "trainable": true, "dtype": "float32", "pool_size": [2, 2], "padding": "valid", "strides": [2, 2], "data_format": "channels_last"}, "name": "max_pooling2d_122", "inbound_nodes": [[["activation_142", 0, 0, {}]]]}, {"class_name": "Dropout", "config": {"name": "dropout_146", "trainable": true, "dtype": "float32", "rate": 0.5, "noise_shape": null, "seed": null}, "name": "dropout_146", "inbound_nodes": [[["max_pooling2d_126", 0, 0, {}]]]}, {"class_name": "Dropout", "config": {"name": "dropout_149", "trainable": true, "dtype": "float32", "rate": 0.5, "noise_shape": null, "seed": null}, "name": "dropout_149", "inbound_nodes": [[["max_pooling2d_128", 0, 0, {}]]]}, {"class_name": "MaxPooling2D", "config": {"name": "max_pooling2d_132", "trainable": true, "dtype": "float32", "pool_size": [2, 2], "padding": "valid", "strides": [2, 2], "data_format": "channels_last"}, "name": "max_pooling2d_132", "inbound_nodes": [[["activation_153", 0, 0, {}]]]}, {"class_name": "MaxPooling2D", "config": {"name": "max_pooling2d_136", "trainable": true, "dtype": "float32", "pool_size": [2, 2], "padding": "valid", "strides": [2, 2], "data_format": "channels_last"}, "name": "max_pooling2d_136", "inbound_nodes": [[["activation_158", 0, 0, {}]]]}, {"class_name": "Dense", "config": {"name": "dense_62", "trainable": true, "dtype": "float32", "units": 128, "activation": "linear", "use_bias": true, "kernel_initializer": {"class_name": "GlorotUniform", "config": {"seed": null}}, "bias_initializer": {"class_name": "Zeros", "config": {}}, "kernel_regularizer": null, "bias_regularizer": null, "activity_regularizer": null, "kernel_constraint": null, "bias_constraint": null}, "name": "dense_62", "inbound_nodes": [[["flatten_30", 0, 0, {}]]]}, {"class_name": "Flatten", "config": {"name": "flatten_31", "trainable": true, "dtype": "float32", "data_format": "channels_last"}, "name": "flatten_31", "inbound_nodes": [[["max_pooling2d_122", 0, 0, {}]]]}, {"class_name": "Flatten", "config": {"name": "flatten_32", "trainable": true, "dtype": "float32", "data_format": "channels_last"}, "name": "flatten_32", "inbound_nodes": [[["dropout_146", 0, 0, {}]]]}, {"class_name": "Flatten", "config": {"name": "flatten_33", "trainable": true, "dtype": "float32", "data_format": "channels_last"}, "name": "flatten_33", "inbound_nodes": [[["dropout_149", 0, 0, {}]]]}, {"class_name": "Dropout", "config": {"name": "dropout_154", "trainable": true, "dtype": "float32", "rate": 0.25, "noise_shape": null, "seed": null}, "name": "dropout_154", "inbound_nodes": [[["max_pooling2d_132", 0, 0, {}]]]}, {"class_name": "Dropout", "config": {"name": "dropout_159", "trainable": true, "dtype": "float32", "rate": 0.5, "noise_shape": null, "seed": null}, "name": "dropout_159", "inbound_nodes": [[["max_pooling2d_136", 0, 0, {}]]]}, {"class_name": "Activation", "config": {"name": "activation_136", "trainable": true, "dtype": "float32", "activation": "relu"}, "name": "activation_136", "inbound_nodes": [[["dense_62", 0, 0, {}]]]}, {"class_name": "Dense", "config": {"name": "dense_64", "trainable": true, "dtype": "float32", "units": 512, "activation": "linear", "use_bias": true, "kernel_initializer": {"class_name": "GlorotUniform", "config": {"seed": null}}, "bias_initializer": {"class_name": "Zeros", "config": {}}, "kernel_regularizer": null, "bias_regularizer": null, "activity_regularizer": null, "kernel_constraint": null, "bias_constraint": null}, "name": "dense_64", "inbound_nodes": [[["flatten_31", 0, 0, {}]]]}, {"class_name": "Dense", "config": {"name": "dense_66", "trainable": true, "dtype": "float32", "units": 128, "activation": "linear", "use_bias": true, "kernel_initializer": {"class_name": "GlorotUniform", "config": {"seed": null}}, "bias_initializer": {"class_name": "Zeros", "config": {}}, "kernel_regularizer": null, "bias_regularizer": null, "activity_regularizer": null, "kernel_constraint": null, "bias_constraint": null}, "name": "dense_66", "inbound_nodes": [[["flatten_32", 0, 0, {}]]]}, {"class_name": "Dense", "config": {"name": "dense_68", "trainable": true, "dtype": "float32", "units": 256, "activation": "linear", "use_bias": true, "kernel_initializer": {"class_name": "GlorotUniform", "config": {"seed": null}}, "bias_initializer": {"class_name": "Zeros", "config": {}}, "kernel_regularizer": {"class_name": "L2", "config": {"l2": 0.009999999776482582}}, "bias_regularizer": null, "activity_regularizer": null, "kernel_constraint": null, "bias_constraint": null}, "name": "dense_68", "inbound_nodes": [[["flatten_33", 0, 0, {}]]]}, {"class_name": "Flatten", "config": {"name": "flatten_34", "trainable": true, "dtype": "float32", "data_format": "channels_last"}, "name": "flatten_34", "inbound_nodes": [[["dropout_154", 0, 0, {}]]]}, {"class_name": "Flatten", "config": {"name": "flatten_35", "trainable": true, "dtype": "float32", "data_format": "channels_last"}, "name": "flatten_35", "inbound_nodes": [[["dropout_159", 0, 0, {}]]]}, {"class_name": "Dropout", "config": {"name": "dropout_139", "trainable": true, "dtype": "float32", "rate": 0.25, "noise_shape": null, "seed": null}, "name": "dropout_139", "inbound_nodes": [[["activation_136", 0, 0, {}]]]}, {"class_name": "BatchNormalization", "config": {"name": "batch_normalization_66", "trainable": true, "dtype": "float32", "axis": [1], "momentum": 0.99, "epsilon": 0.001, "center": true, "scale": true, "beta_initializer": {"class_name": "Zeros", "config": {}}, "gamma_initializer": {"class_name": "Ones", "config": {}}, "moving_mean_initializer": {"class_name": "Zeros", "config": {}}, "moving_variance_initializer": {"class_name": "Ones", "config": {}}, "beta_regularizer": null, "gamma_regularizer": null, "beta_constraint": null, "gamma_constraint": null}, "name": "batch_normalization_66", "inbound_nodes": [[["dense_64", 0, 0, {}]]]}, {"class_name": "BatchNormalization", "config": {"name": "batch_normalization_70", "trainable": true, "dtype": "float32", "axis": [1], "momentum": 0.99, "epsilon": 0.001, "center": true, "scale": true, "beta_initializer": {"class_name": "Zeros", "config": {}}, "gamma_initializer": {"class_name": "Ones", "config": {}}, "moving_mean_initializer": {"class_name": "Zeros", "config": {}}, "moving_variance_initializer": {"class_name": "Ones", "config": {}}, "beta_regularizer": null, "gamma_regularizer": null, "beta_constraint": null, "gamma_constraint": null}, "name": "batch_normalization_70", "inbound_nodes": [[["dense_66", 0, 0, {}]]]}, {"class_name": "BatchNormalization", "config": {"name": "batch_normalization_71", "trainable": true, "dtype": "float32", "axis": [1], "momentum": 0.99, "epsilon": 0.001, "center": true, "scale": true, "beta_initializer": {"class_name": "Zeros", "config": {}}, "gamma_initializer": {"class_name": "Ones", "config": {}}, "moving_mean_initializer": {"class_name": "Zeros", "config": {}}, "moving_variance_initializer": {"class_name": "Ones", "config": {}}, "beta_regularizer": null, "gamma_regularizer": null, "beta_constraint": null, "gamma_constraint": null}, "name": "batch_normalization_71", "inbound_nodes": [[["dense_68", 0, 0, {}]]]}, {"class_name": "Dense", "config": {"name": "dense_70", "trainable": true, "dtype": "float32", "units": 256, "activation": "linear", "use_bias": true, "kernel_initializer": {"class_name": "GlorotUniform", "config": {"seed": null}}, "bias_initializer": {"class_name": "Zeros", "config": {}}, "kernel_regularizer": null, "bias_regularizer": null, "activity_regularizer": null, "kernel_constraint": null, "bias_constraint": null}, "name": "dense_70", "inbound_nodes": [[["flatten_34", 0, 0, {}]]]}, {"class_name": "Dense", "config": {"name": "dense_72", "trainable": true, "dtype": "float32", "units": 256, "activation": "linear", "use_bias": true, "kernel_initializer": {"class_name": "GlorotUniform", "config": {"seed": null}}, "bias_initializer": {"class_name": "Zeros", "config": {}}, "kernel_regularizer": null, "bias_regularizer": null, "activity_regularizer": null, "kernel_constraint": null, "bias_constraint": null}, "name": "dense_72", "inbound_nodes": [[["flatten_35", 0, 0, {}]]]}, {"class_name": "Activation", "config": {"name": "activation_137", "trainable": true, "dtype": "float32", "activation": "relu"}, "name": "activation_137", "inbound_nodes": [[["dropout_139", 0, 0, {}]]]}, {"class_name": "Activation", "config": {"name": "activation_143", "trainable": true, "dtype": "float32", "activation": "relu"}, "name": "activation_143", "inbound_nodes": [[["batch_normalization_66", 0, 0, {}]]]}, {"class_name": "Activation", "config": {"name": "activation_147", "trainable": true, "dtype": "float32", "activation": "relu"}, "name": "activation_147", "inbound_nodes": [[["batch_normalization_70", 0, 0, {}]]]}, {"class_name": "Activation", "config": {"name": "activation_149", "trainable": true, "dtype": "float32", "activation": "relu"}, "name": "activation_149", "inbound_nodes": [[["batch_normalization_71", 0, 0, {}]]]}, {"class_name": "Activation", "config": {"name": "activation_154", "trainable": true, "dtype": "float32", "activation": "relu"}, "name": "activation_154", "inbound_nodes": [[["dense_70", 0, 0, {}]]]}, {"class_name": "Activation", "config": {"name": "activation_159", "trainable": true, "dtype": "float32", "activation": "relu"}, "name": "activation_159", "inbound_nodes": [[["dense_72", 0, 0, {}]]]}, {"class_name": "Dropout", "config": {"name": "dropout_140", "trainable": true, "dtype": "float32", "rate": 0.25, "noise_shape": null, "seed": null}, "name": "dropout_140", "inbound_nodes": [[["activation_137", 0, 0, {}]]]}, {"class_name": "Dropout", "config": {"name": "dropout_142", "trainable": true, "dtype": "float32", "rate": 0.5, "noise_shape": null, "seed": null}, "name": "dropout_142", "inbound_nodes": [[["activation_143", 0, 0, {}]]]}, {"class_name": "Dropout", "config": {"name": "dropout_147", "trainable": true, "dtype": "float32", "rate": 0.5, "noise_shape": null, "seed": null}, "name": "dropout_147", "inbound_nodes": [[["activation_147", 0, 0, {}]]]}, {"class_name": "Dropout", "config": {"name": "dropout_150", "trainable": true, "dtype": "float32", "rate": 0.5, "noise_shape": null, "seed": null}, "name": "dropout_150", "inbound_nodes": [[["activation_149", 0, 0, {}]]]}, {"class_name": "Dropout", "config": {"name": "dropout_155", "trainable": true, "dtype": "float32", "rate": 0.5, "noise_shape": null, "seed": null}, "name": "dropout_155", "inbound_nodes": [[["activation_154", 0, 0, {}]]]}, {"class_name": "Dropout", "config": {"name": "dropout_160", "trainable": true, "dtype": "float32", "rate": 0.5, "noise_shape": null, "seed": null}, "name": "dropout_160", "inbound_nodes": [[["activation_159", 0, 0, {}]]]}, {"class_name": "Dense", "config": {"name": "dense_63", "trainable": true, "dtype": "float32", "units": 7, "activation": "linear", "use_bias": true, "kernel_initializer": {"class_name": "GlorotUniform", "config": {"seed": null}}, "bias_initializer": {"class_name": "Zeros", "config": {}}, "kernel_regularizer": null, "bias_regularizer": null, "activity_regularizer": null, "kernel_constraint": null, "bias_constraint": null}, "name": "dense_63", "inbound_nodes": [[["dropout_140", 0, 0, {}]]]}, {"class_name": "Dense", "config": {"name": "dense_65", "trainable": true, "dtype": "float32", "units": 5, "activation": "linear", "use_bias": true, "kernel_initializer": {"class_name": "GlorotUniform", "config": {"seed": null}}, "bias_initializer": {"class_name": "Zeros", "config": {}}, "kernel_regularizer": null, "bias_regularizer": null, "activity_regularizer": null, "kernel_constraint": null, "bias_constraint": null}, "name": "dense_65", "inbound_nodes": [[["dropout_142", 0, 0, {}]]]}, {"class_name": "Dense", "config": {"name": "dense_67", "trainable": true, "dtype": "float32", "units": 2, "activation": "linear", "use_bias": true, "kernel_initializer": {"class_name": "GlorotUniform", "config": {"seed": null}}, "bias_initializer": {"class_name": "Zeros", "config": {}}, "kernel_regularizer": null, "bias_regularizer": null, "activity_regularizer": null, "kernel_constraint": null, "bias_constraint": null}, "name": "dense_67", "inbound_nodes": [[["dropout_147", 0, 0, {}]]]}, {"class_name": "Dense", "config": {"name": "dense_69", "trainable": true, "dtype": "float32", "units": 4, "activation": "linear", "use_bias": true, "kernel_initializer": {"class_name": "GlorotUniform", "config": {"seed": null}}, "bias_initializer": {"class_name": "Zeros", "config": {}}, "kernel_regularizer": null, "bias_regularizer": null, "activity_regularizer": null, "kernel_constraint": null, "bias_constraint": null}, "name": "dense_69", "inbound_nodes": [[["dropout_150", 0, 0, {}]]]}, {"class_name": "Dense", "config": {"name": "dense_71", "trainable": true, "dtype": "float32", "units": 2, "activation": "linear", "use_bias": true, "kernel_initializer": {"class_name": "GlorotUniform", "config": {"seed": null}}, "bias_initializer": {"class_name": "Zeros", "config": {}}, "kernel_regularizer": null, "bias_regularizer": null, "activity_regularizer": null, "kernel_constraint": null, "bias_constraint": null}, "name": "dense_71", "inbound_nodes": [[["dropout_155", 0, 0, {}]]]}, {"class_name": "Dense", "config": {"name": "dense_73", "trainable": true, "dtype": "float32", "units": 2, "activation": "linear", "use_bias": true, "kernel_initializer": {"class_name": "GlorotUniform", "config": {"seed": null}}, "bias_initializer": {"class_name": "Zeros", "config": {}}, "kernel_regularizer": null, "bias_regularizer": null, "activity_regularizer": null, "kernel_constraint": null, "bias_constraint": null}, "name": "dense_73", "inbound_nodes": [[["dropout_160", 0, 0, {}]]]}, {"class_name": "Activation", "config": {"name": "age_output", "trainable": true, "dtype": "float32", "activation": "softmax"}, "name": "age_output", "inbound_nodes": [[["dense_63", 0, 0, {}]]]}, {"class_name": "Activation", "config": {"name": "expression_output", "trainable": true, "dtype": "float32", "activation": "softmax"}, "name": "expression_output", "inbound_nodes": [[["dense_65", 0, 0, {}]]]}, {"class_name": "Activation", "config": {"name": "gender_output", "trainable": true, "dtype": "float32", "activation": "sigmoid"}, "name": "gender_output", "inbound_nodes": [[["dense_67", 0, 0, {}]]]}, {"class_name": "Activation", "config": {"name": "hair_output", "trainable": true, "dtype": "float32", "activation": "softmax"}, "name": "hair_output", "inbound_nodes": [[["dense_69", 0, 0, {}]]]}, {"class_name": "Activation", "config": {"name": "bald_output", "trainable": true, "dtype": "float32", "activation": "sigmoid"}, "name": "bald_output", "inbound_nodes": [[["dense_71", 0, 0, {}]]]}, {"class_name": "Activation", "config": {"name": "eyeglasses_output", "trainable": true, "dtype": "float32", "activation": "sigmoid"}, "name": "eyeglasses_output", "inbound_nodes": [[["dense_73", 0, 0, {}]]]}], "input_layers": [["input_6", 0, 0]], "output_layers": [["age_output", 0, 0], ["expression_output", 0, 0], ["gender_output", 0, 0], ["hair_output", 0, 0], ["bald_output", 0, 0], ["eyeglasses_output", 0, 0]]}}, "training_config": {"loss": {"age_output": "categorical_crossentropy", "expression_output": "categorical_crossentropy", "gender_output": "binary_crossentropy", "hair_output": "categorical_crossentropy", "eyeglasses_output": "binary_crossentropy", "bald_output": "binary_crossentropy"}, "metrics": [[{"class_name": "MeanMetricWrapper", "config": {"name": "age_output_accuracy", "dtype": "float32", "fn": "categorical_accuracy"}}], [{"class_name": "MeanMetricWrapper", "config": {"name": "expression_output_accuracy", "dtype": "float32", "fn": "categorical_accuracy"}}], [{"class_name": "MeanMetricWrapper", "config": {"name": "gender_output_accuracy", "dtype": "float32", "fn": "categorical_accuracy"}}], [{"class_name": "MeanMetricWrapper", "config": {"name": "hair_output_accuracy", "dtype": "float32", "fn": "categorical_accuracy"}}], [{"class_name": "MeanMetricWrapper", "config": {"name": "bald_output_accuracy", "dtype": "float32", "fn": "categorical_accuracy"}}], [{"class_name": "MeanMetricWrapper", "config": {"name": "eyeglasses_output_accuracy", "dtype": "float32", "fn": "categorical_accuracy"}}]], "weighted_metrics": null, "loss_weights": {"age_output": 1, "expression_output": 1, "gender_output": 1, "hair_output": 1, "eyeglasses_output": 0.5, "bald_output": 0.5}, "optimizer_config": {"class_name": "Adam", "config": {"name": "Adam", "learning_rate": 0.0005000000237487257, "decay": 2.5e-06, "beta_1": 0.8999999761581421, "beta_2": 0.9990000128746033, "epsilon": 1e-07, "amsgrad": false}}}}, "weightsManifest": [{"paths": ["group1-shard1of57.bin", "group1-shard2of57.bin", "group1-shard3of57.bin", "group1-shard4of57.bin", "group1-shard5of57.bin", "group1-shard6of57.bin", "group1-shard7of57.bin", "group1-shard8of57.bin", "group1-shard9of57.bin", "group1-shard10of57.bin", "group1-shard11of57.bin", "group1-shard12of57.bin", "group1-shard13of57.bin", "group1-shard14of57.bin", "group1-shard15of57.bin", "group1-shard16of57.bin", "group1-shard17of57.bin", "group1-shard18of57.bin", "group1-shard19of57.bin", "group1-shard20of57.bin", "group1-shard21of57.bin", "group1-shard22of57.bin", "group1-shard23of57.bin", "group1-shard24of57.bin", "group1-shard25of57.bin", "group1-shard26of57.bin", "group1-shard27of57.bin", "group1-shard28of57.bin", "group1-shard29of57.bin", "group1-shard30of57.bin", "group1-shard31of57.bin", "group1-shard32of57.bin", "group1-shard33of57.bin", "group1-shard34of57.bin", "group1-shard35of57.bin", "group1-shard36of57.bin", "group1-shard37of57.bin", "group1-shard38of57.bin", "group1-shard39of57.bin", "group1-shard40of57.bin", "group1-shard41of57.bin", "group1-shard42of57.bin", "group1-shard43of57.bin", "group1-shard44of57.bin", "group1-shard45of57.bin", "group1-shard46of57.bin", "group1-shard47of57.bin", "group1-shard48of57.bin", "group1-shard49of57.bin", "group1-shard50of57.bin", "group1-shard51of57.bin", "group1-shard52of57.bin", "group1-shard53of57.bin", "group1-shard54of57.bin", "group1-shard55of57.bin", "group1-shard56of57.bin", "group1-shard57of57.bin"], "weights": [{"name": "batch_normalization_60/gamma", "shape": [128], "dtype": "float32", "quantization": {"dtype": "float16", "original_dtype": "float32"}}, {"name": "batch_normalization_60/beta", "shape": [128], "dtype": "float32", "quantization": {"dtype": "float16", "original_dtype": "float32"}}, {"name": "batch_normalization_60/moving_mean", "shape": [128], "dtype": "float32", "quantization": {"dtype": "float16", "original_dtype": "float32"}}, {"name": "batch_normalization_60/moving_variance", "shape": [128], "dtype": "float32", "quantization": {"dtype": "float16", "original_dtype": "float32"}}, {"name": "batch_normalization_61/gamma", "shape": [256], "dtype": "float32", "quantization": {"dtype": "float16", "original_dtype": "float32"}}, {"name": "batch_normalization_61/beta", "shape": [256], "dtype": "float32", "quantization": {"dtype": "float16", "original_dtype": "float32"}}, {"name": "batch_normalization_61/moving_mean", "shape": [256], "dtype": "float32", "quantization": {"dtype": "float16", "original_dtype": "float32"}}, {"name": "batch_normalization_61/moving_variance", "shape": [256], "dtype": "float32", "quantization": {"dtype": "float16", "original_dtype": "float32"}}, {"name": "batch_normalization_62/gamma", "shape": [128], "dtype": "float32", "quantization": {"dtype": "float16", "original_dtype": "float32"}}, {"name": "batch_normalization_62/beta", "shape": [128], "dtype": "float32", "quantization": {"dtype": "float16", "original_dtype": "float32"}}, {"name": "batch_normalization_62/moving_mean", "shape": [128], "dtype": "float32", "quantization": {"dtype": "float16", "original_dtype": "float32"}}, {"name": "batch_normalization_62/moving_variance", "shape": [128], "dtype": "float32", "quantization": {"dtype": "float16", "original_dtype": "float32"}}, {"name": "batch_normalization_63/gamma", "shape": [256], "dtype": "float32", "quantization": {"dtype": "float16", "original_dtype": "float32"}}, {"name": "batch_normalization_63/beta", "shape": [256], "dtype": "float32", "quantization": {"dtype": "float16", "original_dtype": "float32"}}, {"name": "batch_normalization_63/moving_mean", "shape": [256], "dtype": "float32", "quantization": {"dtype": "float16", "original_dtype": "float32"}}, {"name": "batch_normalization_63/moving_variance", "shape": [256], "dtype": "float32", "quantization": {"dtype": "float16", "original_dtype": "float32"}}, {"name": "batch_normalization_64/gamma", "shape": [512], "dtype": "float32", "quantization": {"dtype": "float16", "original_dtype": "float32"}}, {"name": "batch_normalization_64/beta", "shape": [512], "dtype": "float32", "quantization": {"dtype": "float16", "original_dtype": "float32"}}, {"name": "batch_normalization_64/moving_mean", "shape": [512], "dtype": "float32", "quantization": {"dtype": "float16", "original_dtype": "float32"}}, {"name": "batch_normalization_64/moving_variance", "shape": [512], "dtype": "float32", "quantization": {"dtype": "float16", "original_dtype": "float32"}}, {"name": "batch_normalization_65/gamma", "shape": [512], "dtype": "float32", "quantization": {"dtype": "float16", "original_dtype": "float32"}}, {"name": "batch_normalization_65/beta", "shape": [512], "dtype": "float32", "quantization": {"dtype": "float16", "original_dtype": "float32"}}, {"name": "batch_normalization_65/moving_mean", "shape": [512], "dtype": "float32", "quantization": {"dtype": "float16", "original_dtype": "float32"}}, {"name": "batch_normalization_65/moving_variance", "shape": [512], "dtype": "float32", "quantization": {"dtype": "float16", "original_dtype": "float32"}}, {"name": "batch_normalization_66/gamma", "shape": [512], "dtype": "float32", "quantization": {"dtype": "float16", "original_dtype": "float32"}}, {"name": "batch_normalization_66/beta", "shape": [512], "dtype": "float32", "quantization": {"dtype": "float16", "original_dtype": "float32"}}, {"name": "batch_normalization_66/moving_mean", "shape": [512], "dtype": "float32", "quantization": {"dtype": "float16", "original_dtype": "float32"}}, {"name": "batch_normalization_66/moving_variance", "shape": [512], "dtype": "float32", "quantization": {"dtype": "float16", "original_dtype": "float32"}}, {"name": "batch_normalization_67/gamma", "shape": [128], "dtype": "float32", "quantization": {"dtype": "float16", "original_dtype": "float32"}}, {"name": "batch_normalization_67/beta", "shape": [128], "dtype": "float32", "quantization": {"dtype": "float16", "original_dtype": "float32"}}, {"name": "batch_normalization_67/moving_mean", "shape": [128], "dtype": "float32", "quantization": {"dtype": "float16", "original_dtype": "float32"}}, {"name": "batch_normalization_67/moving_variance", "shape": [128], "dtype": "float32", "quantization": {"dtype": "float16", "original_dtype": "float32"}}, {"name": "batch_normalization_68/gamma", "shape": [256], "dtype": "float32", "quantization": {"dtype": "float16", "original_dtype": "float32"}}, {"name": "batch_normalization_68/beta", "shape": [256], "dtype": "float32", "quantization": {"dtype": "float16", "original_dtype": "float32"}}, {"name": "batch_normalization_68/moving_mean", "shape": [256], "dtype": "float32", "quantization": {"dtype": "float16", "original_dtype": "float32"}}, {"name": "batch_normalization_68/moving_variance", "shape": [256], "dtype": "float32", "quantization": {"dtype": "float16", "original_dtype": "float32"}}, {"name": "batch_normalization_69/gamma", "shape": [256], "dtype": "float32", "quantization": {"dtype": "float16", "original_dtype": "float32"}}, {"name": "batch_normalization_69/beta", "shape": [256], "dtype": "float32", "quantization": {"dtype": "float16", "original_dtype": "float32"}}, {"name": "batch_normalization_69/moving_mean", "shape": [256], "dtype": "float32", "quantization": {"dtype": "float16", "original_dtype": "float32"}}, {"name": "batch_normalization_69/moving_variance", "shape": [256], "dtype": "float32", "quantization": {"dtype": "float16", "original_dtype": "float32"}}, {"name": "batch_normalization_70/gamma", "shape": [128], "dtype": "float32", "quantization": {"dtype": "float16", "original_dtype": "float32"}}, {"name": "batch_normalization_70/beta", "shape": [128], "dtype": "float32", "quantization": {"dtype": "float16", "original_dtype": "float32"}}, {"name": "batch_normalization_70/moving_mean", "shape": [128], "dtype": "float32", "quantization": {"dtype": "float16", "original_dtype": "float32"}}, {"name": "batch_normalization_70/moving_variance", "shape": [128], "dtype": "float32", "quantization": {"dtype": "float16", "original_dtype": "float32"}}, {"name": "batch_normalization_71/gamma", "shape": [256], "dtype": "float32", "quantization": {"dtype": "float16", "original_dtype": "float32"}}, {"name": "batch_normalization_71/beta", "shape": [256], "dtype": "float32", "quantization": {"dtype": "float16", "original_dtype": "float32"}}, {"name": "batch_normalization_71/moving_mean", "shape": [256], "dtype": "float32", "quantization": {"dtype": "float16", "original_dtype": "float32"}}, {"name": "batch_normalization_71/moving_variance", "shape": [256], "dtype": "float32", "quantization": {"dtype": "float16", "original_dtype": "float32"}}, {"name": "conv2d_120/kernel", "shape": [3, 3, 3, 64], "dtype": "float32", "quantization": {"dtype": "float16", "original_dtype": "float32"}}, {"name": "conv2d_120/bias", "shape": [64], "dtype": "float32", "quantization": {"dtype": "float16", "original_dtype": "float32"}}, {"name": "conv2d_121/kernel", "shape": [3, 3, 64, 128], "dtype": "float32", "quantization": {"dtype": "float16", "original_dtype": "float32"}}, {"name": "conv2d_121/bias", "shape": [128], "dtype": "float32", "quantization": {"dtype": "float16", "original_dtype": "float32"}}, {"name": "conv2d_122/kernel", "shape": [3, 3, 128, 256], "dtype": "float32", "quantization": {"dtype": "float16", "original_dtype": "float32"}}, {"name": "conv2d_122/bias", "shape": [256], "dtype": "float32", "quantization": {"dtype": "float16", "original_dtype": "float32"}}, {"name": "conv2d_123/kernel", "shape": [3, 3, 256, 512], "dtype": "float32", "quantization": {"dtype": "float16", "original_dtype": "float32"}}, {"name": "conv2d_123/bias", "shape": [512], "dtype": "float32", "quantization": {"dtype": "float16", "original_dtype": "float32"}}, {"name": "conv2d_124/kernel", "shape": [3, 3, 3, 64], "dtype": "float32", "quantization": {"dtype": "float16", "original_dtype": "float32"}}, {"name": "conv2d_124/bias", "shape": [64], "dtype": "float32", "quantization": {"dtype": "float16", "original_dtype": "float32"}}, {"name": "conv2d_125/kernel", "shape": [3, 3, 64, 128], "dtype": "float32", "quantization": {"dtype": "float16", "original_dtype": "float32"}}, {"name": "conv2d_125/bias", "shape": [128], "dtype": "float32", "quantization": {"dtype": "float16", "original_dtype": "float32"}}, {"name": "conv2d_126/kernel", "shape": [3, 3, 128, 256], "dtype": "float32", "quantization": {"dtype": "float16", "original_dtype": "float32"}}, {"name": "conv2d_126/bias", "shape": [256], "dtype": "float32", "quantization": {"dtype": "float16", "original_dtype": "float32"}}, {"name": "conv2d_127/kernel", "shape": [3, 3, 256, 512], "dtype": "float32", "quantization": {"dtype": "float16", "original_dtype": "float32"}}, {"name": "conv2d_127/bias", "shape": [512], "dtype": "float32", "quantization": {"dtype": "float16", "original_dtype": "float32"}}, {"name": "conv2d_128/kernel", "shape": [3, 3, 512, 512], "dtype": "float32", "quantization": {"dtype": "float16", "original_dtype": "float32"}}, {"name": "conv2d_128/bias", "shape": [512], "dtype": "float32", "quantization": {"dtype": "float16", "original_dtype": "float32"}}, {"name": "conv2d_129/kernel", "shape": [3, 3, 3, 64], "dtype": "float32", "quantization": {"dtype": "float16", "original_dtype": "float32"}}, {"name": "conv2d_129/bias", "shape": [64], "dtype": "float32", "quantization": {"dtype": "float16", "original_dtype": "float32"}}, {"name": "conv2d_130/kernel", "shape": [3, 3, 64, 128], "dtype": "float32", "quantization": {"dtype": "float16", "original_dtype": "float32"}}, {"name": "conv2d_130/bias", "shape": [128], "dtype": "float32", "quantization": {"dtype": "float16", "original_dtype": "float32"}}, {"name": "conv2d_131/kernel", "shape": [3, 3, 128, 256], "dtype": "float32", "quantization": {"dtype": "float16", "original_dtype": "float32"}}, {"name": "conv2d_131/bias", "shape": [256], "dtype": "float32", "quantization": {"dtype": "float16", "original_dtype": "float32"}}, {"name": "conv2d_132/kernel", "shape": [3, 3, 256, 256], "dtype": "float32", "quantization": {"dtype": "float16", "original_dtype": "float32"}}, {"name": "conv2d_132/bias", "shape": [256], "dtype": "float32", "quantization": {"dtype": "float16", "original_dtype": "float32"}}, {"name": "conv2d_133/kernel", "shape": [3, 3, 3, 64], "dtype": "float32", "quantization": {"dtype": "float16", "original_dtype": "float32"}}, {"name": "conv2d_133/bias", "shape": [64], "dtype": "float32", "quantization": {"dtype": "float16", "original_dtype": "float32"}}, {"name": "conv2d_134/kernel", "shape": [3, 3, 64, 256], "dtype": "float32", "quantization": {"dtype": "float16", "original_dtype": "float32"}}, {"name": "conv2d_134/bias", "shape": [256], "dtype": "float32", "quantization": {"dtype": "float16", "original_dtype": "float32"}}, {"name": "conv2d_135/kernel", "shape": [3, 3, 256, 256], "dtype": "float32", "quantization": {"dtype": "float16", "original_dtype": "float32"}}, {"name": "conv2d_135/bias", "shape": [256], "dtype": "float32", "quantization": {"dtype": "float16", "original_dtype": "float32"}}, {"name": "conv2d_136/kernel", "shape": [3, 3, 3, 64], "dtype": "float32", "quantization": {"dtype": "float16", "original_dtype": "float32"}}, {"name": "conv2d_136/bias", "shape": [64], "dtype": "float32", "quantization": {"dtype": "float16", "original_dtype": "float32"}}, {"name": "conv2d_137/kernel", "shape": [3, 3, 64, 256], "dtype": "float32", "quantization": {"dtype": "float16", "original_dtype": "float32"}}, {"name": "conv2d_137/bias", "shape": [256], "dtype": "float32", "quantization": {"dtype": "float16", "original_dtype": "float32"}}, {"name": "conv2d_138/kernel", "shape": [3, 3, 256, 256], "dtype": "float32", "quantization": {"dtype": "float16", "original_dtype": "float32"}}, {"name": "conv2d_138/bias", "shape": [256], "dtype": "float32", "quantization": {"dtype": "float16", "original_dtype": "float32"}}, {"name": "conv2d_139/kernel", "shape": [3, 3, 256, 256], "dtype": "float32", "quantization": {"dtype": "float16", "original_dtype": "float32"}}, {"name": "conv2d_139/bias", "shape": [256], "dtype": "float32", "quantization": {"dtype": "float16", "original_dtype": "float32"}}, {"name": "conv2d_140/kernel", "shape": [3, 3, 3, 64], "dtype": "float32", "quantization": {"dtype": "float16", "original_dtype": "float32"}}, {"name": "conv2d_140/bias", "shape": [64], "dtype": "float32", "quantization": {"dtype": "float16", "original_dtype": "float32"}}, {"name": "conv2d_141/kernel", "shape": [3, 3, 64, 256], "dtype": "float32", "quantization": {"dtype": "float16", "original_dtype": "float32"}}, {"name": "conv2d_141/bias", "shape": [256], "dtype": "float32", "quantization": {"dtype": "float16", "original_dtype": "float32"}}, {"name": "conv2d_142/kernel", "shape": [3, 3, 256, 256], "dtype": "float32", "quantization": {"dtype": "float16", "original_dtype": "float32"}}, {"name": "conv2d_142/bias", "shape": [256], "dtype": "float32", "quantization": {"dtype": "float16", "original_dtype": "float32"}}, {"name": "conv2d_143/kernel", "shape": [3, 3, 256, 256], "dtype": "float32", "quantization": {"dtype": "float16", "original_dtype": "float32"}}, {"name": "conv2d_143/bias", "shape": [256], "dtype": "float32", "quantization": {"dtype": "float16", "original_dtype": "float32"}}, {"name": "dense_62/kernel", "shape": [41472, 128], "dtype": "float32", "quantization": {"dtype": "float16", "original_dtype": "float32"}}, {"name": "dense_62/bias", "shape": [128], "dtype": "float32", "quantization": {"dtype": "float16", "original_dtype": "float32"}}, {"name": "dense_63/kernel", "shape": [128, 7], "dtype": "float32", "quantization": {"dtype": "float16", "original_dtype": "float32"}}, {"name": "dense_63/bias", "shape": [7], "dtype": "float32", "quantization": {"dtype": "float16", "original_dtype": "float32"}}, {"name": "dense_64/kernel", "shape": [8192, 512], "dtype": "float32", "quantization": {"dtype": "float16", "original_dtype": "float32"}}, {"name": "dense_64/bias", "shape": [512], "dtype": "float32", "quantization": {"dtype": "float16", "original_dtype": "float32"}}, {"name": "dense_65/kernel", "shape": [512, 5], "dtype": "float32", "quantization": {"dtype": "float16", "original_dtype": "float32"}}, {"name": "dense_65/bias", "shape": [5], "dtype": "float32", "quantization": {"dtype": "float16", "original_dtype": "float32"}}, {"name": "dense_66/kernel", "shape": [20736, 128], "dtype": "float32", "quantization": {"dtype": "float16", "original_dtype": "float32"}}, {"name": "dense_66/bias", "shape": [128], "dtype": "float32", "quantization": {"dtype": "float16", "original_dtype": "float32"}}, {"name": "dense_67/kernel", "shape": [128, 2], "dtype": "float32", "quantization": {"dtype": "float16", "original_dtype": "float32"}}, {"name": "dense_67/bias", "shape": [2], "dtype": "float32", "quantization": {"dtype": "float16", "original_dtype": "float32"}}, {"name": "dense_68/kernel", "shape": [331776, 256], "dtype": "float32", "quantization": {"dtype": "float16", "original_dtype": "float32"}}, {"name": "dense_68/bias", "shape": [256], "dtype": "float32", "quantization": {"dtype": "float16", "original_dtype": "float32"}}, {"name": "dense_69/kernel", "shape": [256, 4], "dtype": "float32", "quantization": {"dtype": "float16", "original_dtype": "float32"}}, {"name": "dense_69/bias", "shape": [4], "dtype": "float32", "quantization": {"dtype": "float16", "original_dtype": "float32"}}, {"name": "dense_70/kernel", "shape": [20736, 256], "dtype": "float32", "quantization": {"dtype": "float16", "original_dtype": "float32"}}, {"name": "dense_70/bias", "shape": [256], "dtype": "float32", "quantization": {"dtype": "float16", "original_dtype": "float32"}}, {"name": "dense_71/kernel", "shape": [256, 2], "dtype": "float32", "quantization": {"dtype": "float16", "original_dtype": "float32"}}, {"name": "dense_71/bias", "shape": [2], "dtype": "float32", "quantization": {"dtype": "float16", "original_dtype": "float32"}}, {"name": "dense_72/kernel", "shape": [20736, 256], "dtype": "float32", "quantization": {"dtype": "float16", "original_dtype": "float32"}}, {"name": "dense_72/bias", "shape": [256], "dtype": "float32", "quantization": {"dtype": "float16", "original_dtype": "float32"}}, {"name": "dense_73/kernel", "shape": [256, 2], "dtype": "float32", "quantization": {"dtype": "float16", "original_dtype": "float32"}}, {"name": "dense_73/bias", "shape": [2], "dtype": "float32", "quantization": {"dtype": "float16", "original_dtype": "float32"}}]}]}