{"format": "layers-model", "generatedBy": "keras v2.8.0", "convertedBy": "TensorFlow.js Converter v3.20.0", "modelTopology": {"keras_version": "2.8.0", "backend": "tensorflow", "model_config": {"class_name": "Model", "config": {"name": "face_descriptor_by_rebeca", "layers": [{"class_name": "InputLayer", "config": {"batch_input_shape": [null, 218, 218, 3], "dtype": "float32", "sparse": false, "ragged": false, "name": "input_3"}, "name": "input_3", "inbound_nodes": []}, {"class_name": "Conv2D", "config": {"name": "conv2d_53", "trainable": true, "dtype": "float32", "filters": 32, "kernel_size": [3, 3], "strides": [1, 1], "padding": "same", "data_format": "channels_last", "dilation_rate": [1, 1], "groups": 1, "activation": "linear", "use_bias": true, "kernel_initializer": {"class_name": "HeNormal", "config": {"seed": null}}, "bias_initializer": {"class_name": "Zeros", "config": {}}, "kernel_regularizer": null, "bias_regularizer": null, "activity_regularizer": null, "kernel_constraint": null, "bias_constraint": null}, "name": "conv2d_53", "inbound_nodes": [[["input_3", 0, 0, {}]]]}, {"class_name": "Activation", "config": {"name": "activation_35", "trainable": true, "dtype": "float32", "activation": "relu"}, "name": "activation_35", "inbound_nodes": [[["conv2d_53", 0, 0, {}]]]}, {"class_name": "BatchNormalization", "config": {"name": "batch_normalization_35", "trainable": true, "dtype": "float32", "axis": [3], "momentum": 0.99, "epsilon": 0.001, "center": true, "scale": true, "beta_initializer": {"class_name": "Zeros", "config": {}}, "gamma_initializer": {"class_name": "Ones", "config": {}}, "moving_mean_initializer": {"class_name": "Zeros", "config": {}}, "moving_variance_initializer": {"class_name": "Ones", "config": {}}, "beta_regularizer": null, "gamma_regularizer": null, "beta_constraint": null, "gamma_constraint": null}, "name": "batch_normalization_35", "inbound_nodes": [[["activation_35", 0, 0, {}]]]}, {"class_name": "MaxPooling2D", "config": {"name": "max_pooling2d_37", "trainable": true, "dtype": "float32", "pool_size": [3, 3], "padding": "valid", "strides": [3, 3], "data_format": "channels_last"}, "name": "max_pooling2d_37", "inbound_nodes": [[["batch_normalization_35", 0, 0, {}]]]}, {"class_name": "Dropout", "config": {"name": "dropout_47", "trainable": true, "dtype": "float32", "rate": 0.25, "noise_shape": null, "seed": null}, "name": "dropout_47", "inbound_nodes": [[["max_pooling2d_37", 0, 0, {}]]]}, {"class_name": "Conv2D", "config": {"name": "conv2d_54", "trainable": true, "dtype": "float32", "filters": 64, "kernel_size": [3, 3], "strides": [1, 1], "padding": "same", "data_format": "channels_last", "dilation_rate": [1, 1], "groups": 1, "activation": "linear", "use_bias": true, "kernel_initializer": {"class_name": "GlorotUniform", "config": {"seed": null}}, "bias_initializer": {"class_name": "Zeros", "config": {}}, "kernel_regularizer": null, "bias_regularizer": null, "activity_regularizer": null, "kernel_constraint": null, "bias_constraint": null}, "name": "conv2d_54", "inbound_nodes": [[["dropout_47", 0, 0, {}]]]}, {"class_name": "Activation", "config": {"name": "activation_36", "trainable": true, "dtype": "float32", "activation": "relu"}, "name": "activation_36", "inbound_nodes": [[["conv2d_54", 0, 0, {}]]]}, {"class_name": "BatchNormalization", "config": {"name": "batch_normalization_36", "trainable": true, "dtype": "float32", "axis": [3], "momentum": 0.99, "epsilon": 0.001, "center": true, "scale": true, "beta_initializer": {"class_name": "Zeros", "config": {}}, "gamma_initializer": {"class_name": "Ones", "config": {}}, "moving_mean_initializer": {"class_name": "Zeros", "config": {}}, "moving_variance_initializer": {"class_name": "Ones", "config": {}}, "beta_regularizer": null, "gamma_regularizer": null, "beta_constraint": null, "gamma_constraint": null}, "name": "batch_normalization_36", "inbound_nodes": [[["activation_36", 0, 0, {}]]]}, {"class_name": "MaxPooling2D", "config": {"name": "max_pooling2d_38", "trainable": true, "dtype": "float32", "pool_size": [2, 2], "padding": "valid", "strides": [2, 2], "data_format": "channels_last"}, "name": "max_pooling2d_38", "inbound_nodes": [[["batch_normalization_36", 0, 0, {}]]]}, {"class_name": "Dropout", "config": {"name": "dropout_48", "trainable": true, "dtype": "float32", "rate": 0.25, "noise_shape": null, "seed": null}, "name": "dropout_48", "inbound_nodes": [[["max_pooling2d_38", 0, 0, {}]]]}, {"class_name": "Conv2D", "config": {"name": "conv2d_55", "trainable": true, "dtype": "float32", "filters": 128, "kernel_size": [3, 3], "strides": [1, 1], "padding": "same", "data_format": "channels_last", "dilation_rate": [1, 1], "groups": 1, "activation": "linear", "use_bias": true, "kernel_initializer": {"class_name": "GlorotUniform", "config": {"seed": null}}, "bias_initializer": {"class_name": "Zeros", "config": {}}, "kernel_regularizer": null, "bias_regularizer": null, "activity_regularizer": null, "kernel_constraint": null, "bias_constraint": null}, "name": "conv2d_55", "inbound_nodes": [[["dropout_48", 0, 0, {}]]]}, {"class_name": "Conv2D", "config": {"name": "conv2d_49", "trainable": true, "dtype": "float32", "filters": 32, "kernel_size": [3, 3], "strides": [1, 1], "padding": "same", "data_format": "channels_last", "dilation_rate": [1, 1], "groups": 1, "activation": "linear", "use_bias": true, "kernel_initializer": {"class_name": "HeNormal", "config": {"seed": null}}, "bias_initializer": {"class_name": "Zeros", "config": {}}, "kernel_regularizer": null, "bias_regularizer": null, "activity_regularizer": null, "kernel_constraint": null, "bias_constraint": null}, "name": "conv2d_49", "inbound_nodes": [[["input_3", 0, 0, {}]]]}, {"class_name": "Activation", "config": {"name": "activation_37", "trainable": true, "dtype": "float32", "activation": "relu"}, "name": "activation_37", "inbound_nodes": [[["conv2d_55", 0, 0, {}]]]}, {"class_name": "Activation", "config": {"name": "activation_30", "trainable": true, "dtype": "float32", "activation": "relu"}, "name": "activation_30", "inbound_nodes": [[["conv2d_49", 0, 0, {}]]]}, {"class_name": "BatchNormalization", "config": {"name": "batch_normalization_37", "trainable": true, "dtype": "float32", "axis": [3], "momentum": 0.99, "epsilon": 0.001, "center": true, "scale": true, "beta_initializer": {"class_name": "Zeros", "config": {}}, "gamma_initializer": {"class_name": "Ones", "config": {}}, "moving_mean_initializer": {"class_name": "Zeros", "config": {}}, "moving_variance_initializer": {"class_name": "Ones", "config": {}}, "beta_regularizer": null, "gamma_regularizer": null, "beta_constraint": null, "gamma_constraint": null}, "name": "batch_normalization_37", "inbound_nodes": [[["activation_37", 0, 0, {}]]]}, {"class_name": "BatchNormalization", "config": {"name": "batch_normalization_30", "trainable": true, "dtype": "float32", "axis": [3], "momentum": 0.99, "epsilon": 0.001, "center": true, "scale": true, "beta_initializer": {"class_name": "Zeros", "config": {}}, "gamma_initializer": {"class_name": "Ones", "config": {}}, "moving_mean_initializer": {"class_name": "Zeros", "config": {}}, "moving_variance_initializer": {"class_name": "Ones", "config": {}}, "beta_regularizer": null, "gamma_regularizer": null, "beta_constraint": null, "gamma_constraint": null}, "name": "batch_normalization_30", "inbound_nodes": [[["activation_30", 0, 0, {}]]]}, {"class_name": "MaxPooling2D", "config": {"name": "max_pooling2d_39", "trainable": true, "dtype": "float32", "pool_size": [2, 2], "padding": "valid", "strides": [2, 2], "data_format": "channels_last"}, "name": "max_pooling2d_39", "inbound_nodes": [[["batch_normalization_37", 0, 0, {}]]]}, {"class_name": "MaxPooling2D", "config": {"name": "max_pooling2d_33", "trainable": true, "dtype": "float32", "pool_size": [3, 3], "padding": "valid", "strides": [3, 3], "data_format": "channels_last"}, "name": "max_pooling2d_33", "inbound_nodes": [[["batch_normalization_30", 0, 0, {}]]]}, {"class_name": "Dropout", "config": {"name": "dropout_49", "trainable": true, "dtype": "float32", "rate": 0.25, "noise_shape": null, "seed": null}, "name": "dropout_49", "inbound_nodes": [[["max_pooling2d_39", 0, 0, {}]]]}, {"class_name": "Conv2D", "config": {"name": "conv2d_64", "trainable": true, "dtype": "float32", "filters": 32, "kernel_size": [3, 3], "strides": [1, 1], "padding": "same", "data_format": "channels_last", "dilation_rate": [1, 1], "groups": 1, "activation": "linear", "use_bias": true, "kernel_initializer": {"class_name": "HeNormal", "config": {"seed": null}}, "bias_initializer": {"class_name": "Zeros", "config": {}}, "kernel_regularizer": null, "bias_regularizer": null, "activity_regularizer": null, "kernel_constraint": null, "bias_constraint": null}, "name": "conv2d_64", "inbound_nodes": [[["input_3", 0, 0, {}]]]}, {"class_name": "Conv2D", "config": {"name": "conv2d_69", "trainable": true, "dtype": "float32", "filters": 32, "kernel_size": [3, 3], "strides": [1, 1], "padding": "same", "data_format": "channels_last", "dilation_rate": [1, 1], "groups": 1, "activation": "linear", "use_bias": true, "kernel_initializer": {"class_name": "HeNormal", "config": {"seed": null}}, "bias_initializer": {"class_name": "Zeros", "config": {}}, "kernel_regularizer": null, "bias_regularizer": null, "activity_regularizer": null, "kernel_constraint": null, "bias_constraint": null}, "name": "conv2d_69", "inbound_nodes": [[["input_3", 0, 0, {}]]]}, {"class_name": "Conv2D", "config": {"name": "conv2d_74", "trainable": true, "dtype": "float32", "filters": 32, "kernel_size": [3, 3], "strides": [1, 1], "padding": "same", "data_format": "channels_last", "dilation_rate": [1, 1], "groups": 1, "activation": "linear", "use_bias": true, "kernel_initializer": {"class_name": "HeNormal", "config": {"seed": null}}, "bias_initializer": {"class_name": "Zeros", "config": {}}, "kernel_regularizer": null, "bias_regularizer": null, "activity_regularizer": null, "kernel_constraint": null, "bias_constraint": null}, "name": "conv2d_74", "inbound_nodes": [[["input_3", 0, 0, {}]]]}, {"class_name": "Conv2D", "config": {"name": "conv2d_79", "trainable": true, "dtype": "float32", "filters": 32, "kernel_size": [3, 3], "strides": [1, 1], "padding": "same", "data_format": "channels_last", "dilation_rate": [1, 1], "groups": 1, "activation": "linear", "use_bias": true, "kernel_initializer": {"class_name": "HeNormal", "config": {"seed": null}}, "bias_initializer": {"class_name": "Zeros", "config": {}}, "kernel_regularizer": null, "bias_regularizer": null, "activity_regularizer": null, "kernel_constraint": null, "bias_constraint": null}, "name": "conv2d_79", "inbound_nodes": [[["input_3", 0, 0, {}]]]}, {"class_name": "Dropout", "config": {"name": "dropout_41", "trainable": true, "dtype": "float32", "rate": 0.25, "noise_shape": null, "seed": null}, "name": "dropout_41", "inbound_nodes": [[["max_pooling2d_33", 0, 0, {}]]]}, {"class_name": "Conv2D", "config": {"name": "conv2d_56", "trainable": true, "dtype": "float32", "filters": 512, "kernel_size": [3, 3], "strides": [1, 1], "padding": "same", "data_format": "channels_last", "dilation_rate": [1, 1], "groups": 1, "activation": "relu", "use_bias": true, "kernel_initializer": {"class_name": "GlorotUniform", "config": {"seed": null}}, "bias_initializer": {"class_name": "Zeros", "config": {}}, "kernel_regularizer": null, "bias_regularizer": null, "activity_regularizer": null, "kernel_constraint": null, "bias_constraint": null}, "name": "conv2d_56", "inbound_nodes": [[["dropout_49", 0, 0, {}]]]}, {"class_name": "Activation", "config": {"name": "activation_40", "trainable": true, "dtype": "float32", "activation": "relu"}, "name": "activation_40", "inbound_nodes": [[["conv2d_64", 0, 0, {}]]]}, {"class_name": "Activation", "config": {"name": "activation_44", "trainable": true, "dtype": "float32", "activation": "relu"}, "name": "activation_44", "inbound_nodes": [[["conv2d_69", 0, 0, {}]]]}, {"class_name": "Activation", "config": {"name": "activation_48", "trainable": true, "dtype": "float32", "activation": "relu"}, "name": "activation_48", "inbound_nodes": [[["conv2d_74", 0, 0, {}]]]}, {"class_name": "Activation", "config": {"name": "activation_52", "trainable": true, "dtype": "float32", "activation": "relu"}, "name": "activation_52", "inbound_nodes": [[["conv2d_79", 0, 0, {}]]]}, {"class_name": "Conv2D", "config": {"name": "conv2d_50", "trainable": true, "dtype": "float32", "filters": 64, "kernel_size": [3, 3], "strides": [1, 1], "padding": "same", "data_format": "channels_last", "dilation_rate": [1, 1], "groups": 1, "activation": "linear", "use_bias": true, "kernel_initializer": {"class_name": "GlorotUniform", "config": {"seed": null}}, "bias_initializer": {"class_name": "Zeros", "config": {}}, "kernel_regularizer": null, "bias_regularizer": null, "activity_regularizer": null, "kernel_constraint": null, "bias_constraint": null}, "name": "conv2d_50", "inbound_nodes": [[["dropout_41", 0, 0, {}]]]}, {"class_name": "Conv2D", "config": {"name": "conv2d_57", "trainable": true, "dtype": "float32", "filters": 512, "kernel_size": [3, 3], "strides": [1, 1], "padding": "same", "data_format": "channels_last", "dilation_rate": [1, 1], "groups": 1, "activation": "relu", "use_bias": true, "kernel_initializer": {"class_name": "GlorotUniform", "config": {"seed": null}}, "bias_initializer": {"class_name": "Zeros", "config": {}}, "kernel_regularizer": null, "bias_regularizer": null, "activity_regularizer": null, "kernel_constraint": null, "bias_constraint": null}, "name": "conv2d_57", "inbound_nodes": [[["conv2d_56", 0, 0, {}]]]}, {"class_name": "BatchNormalization", "config": {"name": "batch_normalization_40", "trainable": true, "dtype": "float32", "axis": [3], "momentum": 0.99, "epsilon": 0.001, "center": true, "scale": true, "beta_initializer": {"class_name": "Zeros", "config": {}}, "gamma_initializer": {"class_name": "Ones", "config": {}}, "moving_mean_initializer": {"class_name": "Zeros", "config": {}}, "moving_variance_initializer": {"class_name": "Ones", "config": {}}, "beta_regularizer": null, "gamma_regularizer": null, "beta_constraint": null, "gamma_constraint": null}, "name": "batch_normalization_40", "inbound_nodes": [[["activation_40", 0, 0, {}]]]}, {"class_name": "BatchNormalization", "config": {"name": "batch_normalization_44", "trainable": true, "dtype": "float32", "axis": [3], "momentum": 0.99, "epsilon": 0.001, "center": true, "scale": true, "beta_initializer": {"class_name": "Zeros", "config": {}}, "gamma_initializer": {"class_name": "Ones", "config": {}}, "moving_mean_initializer": {"class_name": "Zeros", "config": {}}, "moving_variance_initializer": {"class_name": "Ones", "config": {}}, "beta_regularizer": null, "gamma_regularizer": null, "beta_constraint": null, "gamma_constraint": null}, "name": "batch_normalization_44", "inbound_nodes": [[["activation_44", 0, 0, {}]]]}, {"class_name": "BatchNormalization", "config": {"name": "batch_normalization_48", "trainable": true, "dtype": "float32", "axis": [3], "momentum": 0.99, "epsilon": 0.001, "center": true, "scale": true, "beta_initializer": {"class_name": "Zeros", "config": {}}, "gamma_initializer": {"class_name": "Ones", "config": {}}, "moving_mean_initializer": {"class_name": "Zeros", "config": {}}, "moving_variance_initializer": {"class_name": "Ones", "config": {}}, "beta_regularizer": null, "gamma_regularizer": null, "beta_constraint": null, "gamma_constraint": null}, "name": "batch_normalization_48", "inbound_nodes": [[["activation_48", 0, 0, {}]]]}, {"class_name": "BatchNormalization", "config": {"name": "batch_normalization_52", "trainable": true, "dtype": "float32", "axis": [3], "momentum": 0.99, "epsilon": 0.001, "center": true, "scale": true, "beta_initializer": {"class_name": "Zeros", "config": {}}, "gamma_initializer": {"class_name": "Ones", "config": {}}, "moving_mean_initializer": {"class_name": "Zeros", "config": {}}, "moving_variance_initializer": {"class_name": "Ones", "config": {}}, "beta_regularizer": null, "gamma_regularizer": null, "beta_constraint": null, "gamma_constraint": null}, "name": "batch_normalization_52", "inbound_nodes": [[["activation_52", 0, 0, {}]]]}, {"class_name": "Activation", "config": {"name": "activation_31", "trainable": true, "dtype": "float32", "activation": "relu"}, "name": "activation_31", "inbound_nodes": [[["conv2d_50", 0, 0, {}]]]}, {"class_name": "MaxPooling2D", "config": {"name": "max_pooling2d_40", "trainable": true, "dtype": "float32", "pool_size": [2, 2], "padding": "valid", "strides": [2, 2], "data_format": "channels_last"}, "name": "max_pooling2d_40", "inbound_nodes": [[["conv2d_57", 0, 0, {}]]]}, {"class_name": "MaxPooling2D", "config": {"name": "max_pooling2d_44", "trainable": true, "dtype": "float32", "pool_size": [3, 3], "padding": "valid", "strides": [3, 3], "data_format": "channels_last"}, "name": "max_pooling2d_44", "inbound_nodes": [[["batch_normalization_40", 0, 0, {}]]]}, {"class_name": "MaxPooling2D", "config": {"name": "max_pooling2d_48", "trainable": true, "dtype": "float32", "pool_size": [3, 3], "padding": "valid", "strides": [3, 3], "data_format": "channels_last"}, "name": "max_pooling2d_48", "inbound_nodes": [[["batch_normalization_44", 0, 0, {}]]]}, {"class_name": "MaxPooling2D", "config": {"name": "max_pooling2d_52", "trainable": true, "dtype": "float32", "pool_size": [3, 3], "padding": "valid", "strides": [3, 3], "data_format": "channels_last"}, "name": "max_pooling2d_52", "inbound_nodes": [[["batch_normalization_48", 0, 0, {}]]]}, {"class_name": "MaxPooling2D", "config": {"name": "max_pooling2d_56", "trainable": true, "dtype": "float32", "pool_size": [3, 3], "padding": "valid", "strides": [3, 3], "data_format": "channels_last"}, "name": "max_pooling2d_56", "inbound_nodes": [[["batch_normalization_52", 0, 0, {}]]]}, {"class_name": "BatchNormalization", "config": {"name": "batch_normalization_31", "trainable": true, "dtype": "float32", "axis": [3], "momentum": 0.99, "epsilon": 0.001, "center": true, "scale": true, "beta_initializer": {"class_name": "Zeros", "config": {}}, "gamma_initializer": {"class_name": "Ones", "config": {}}, "moving_mean_initializer": {"class_name": "Zeros", "config": {}}, "moving_variance_initializer": {"class_name": "Ones", "config": {}}, "beta_regularizer": null, "gamma_regularizer": null, "beta_constraint": null, "gamma_constraint": null}, "name": "batch_normalization_31", "inbound_nodes": [[["activation_31", 0, 0, {}]]]}, {"class_name": "Conv2D", "config": {"name": "conv2d_58", "trainable": true, "dtype": "float32", "filters": 512, "kernel_size": [3, 3], "strides": [1, 1], "padding": "same", "data_format": "channels_last", "dilation_rate": [1, 1], "groups": 1, "activation": "relu", "use_bias": true, "kernel_initializer": {"class_name": "GlorotUniform", "config": {"seed": null}}, "bias_initializer": {"class_name": "Zeros", "config": {}}, "kernel_regularizer": null, "bias_regularizer": null, "activity_regularizer": null, "kernel_constraint": null, "bias_constraint": null}, "name": "conv2d_58", "inbound_nodes": [[["max_pooling2d_40", 0, 0, {}]]]}, {"class_name": "Dropout", "config": {"name": "dropout_54", "trainable": true, "dtype": "float32", "rate": 0.25, "noise_shape": null, "seed": null}, "name": "dropout_54", "inbound_nodes": [[["max_pooling2d_44", 0, 0, {}]]]}, {"class_name": "Dropout", "config": {"name": "dropout_59", "trainable": true, "dtype": "float32", "rate": 0.25, "noise_shape": null, "seed": null}, "name": "dropout_59", "inbound_nodes": [[["max_pooling2d_48", 0, 0, {}]]]}, {"class_name": "Dropout", "config": {"name": "dropout_64", "trainable": true, "dtype": "float32", "rate": 0.25, "noise_shape": null, "seed": null}, "name": "dropout_64", "inbound_nodes": [[["max_pooling2d_52", 0, 0, {}]]]}, {"class_name": "Dropout", "config": {"name": "dropout_69", "trainable": true, "dtype": "float32", "rate": 0.25, "noise_shape": null, "seed": null}, "name": "dropout_69", "inbound_nodes": [[["max_pooling2d_56", 0, 0, {}]]]}, {"class_name": "MaxPooling2D", "config": {"name": "max_pooling2d_34", "trainable": true, "dtype": "float32", "pool_size": [2, 2], "padding": "valid", "strides": [2, 2], "data_format": "channels_last"}, "name": "max_pooling2d_34", "inbound_nodes": [[["batch_normalization_31", 0, 0, {}]]]}, {"class_name": "Conv2D", "config": {"name": "conv2d_59", "trainable": true, "dtype": "float32", "filters": 512, "kernel_size": [3, 3], "strides": [1, 1], "padding": "same", "data_format": "channels_last", "dilation_rate": [1, 1], "groups": 1, "activation": "relu", "use_bias": true, "kernel_initializer": {"class_name": "GlorotUniform", "config": {"seed": null}}, "bias_initializer": {"class_name": "Zeros", "config": {}}, "kernel_regularizer": null, "bias_regularizer": null, "activity_regularizer": null, "kernel_constraint": null, "bias_constraint": null}, "name": "conv2d_59", "inbound_nodes": [[["conv2d_58", 0, 0, {}]]]}, {"class_name": "Conv2D", "config": {"name": "conv2d_65", "trainable": true, "dtype": "float32", "filters": 64, "kernel_size": [3, 3], "strides": [1, 1], "padding": "same", "data_format": "channels_last", "dilation_rate": [1, 1], "groups": 1, "activation": "linear", "use_bias": true, "kernel_initializer": {"class_name": "GlorotUniform", "config": {"seed": null}}, "bias_initializer": {"class_name": "Zeros", "config": {}}, "kernel_regularizer": null, "bias_regularizer": null, "activity_regularizer": null, "kernel_constraint": null, "bias_constraint": null}, "name": "conv2d_65", "inbound_nodes": [[["dropout_54", 0, 0, {}]]]}, {"class_name": "Conv2D", "config": {"name": "conv2d_70", "trainable": true, "dtype": "float32", "filters": 64, "kernel_size": [3, 3], "strides": [1, 1], "padding": "same", "data_format": "channels_last", "dilation_rate": [1, 1], "groups": 1, "activation": "linear", "use_bias": true, "kernel_initializer": {"class_name": "GlorotUniform", "config": {"seed": null}}, "bias_initializer": {"class_name": "Zeros", "config": {}}, "kernel_regularizer": null, "bias_regularizer": null, "activity_regularizer": null, "kernel_constraint": null, "bias_constraint": null}, "name": "conv2d_70", "inbound_nodes": [[["dropout_59", 0, 0, {}]]]}, {"class_name": "Conv2D", "config": {"name": "conv2d_75", "trainable": true, "dtype": "float32", "filters": 64, "kernel_size": [3, 3], "strides": [1, 1], "padding": "same", "data_format": "channels_last", "dilation_rate": [1, 1], "groups": 1, "activation": "linear", "use_bias": true, "kernel_initializer": {"class_name": "GlorotUniform", "config": {"seed": null}}, "bias_initializer": {"class_name": "Zeros", "config": {}}, "kernel_regularizer": null, "bias_regularizer": null, "activity_regularizer": null, "kernel_constraint": null, "bias_constraint": null}, "name": "conv2d_75", "inbound_nodes": [[["dropout_64", 0, 0, {}]]]}, {"class_name": "Conv2D", "config": {"name": "conv2d_80", "trainable": true, "dtype": "float32", "filters": 64, "kernel_size": [3, 3], "strides": [1, 1], "padding": "same", "data_format": "channels_last", "dilation_rate": [1, 1], "groups": 1, "activation": "linear", "use_bias": true, "kernel_initializer": {"class_name": "GlorotUniform", "config": {"seed": null}}, "bias_initializer": {"class_name": "Zeros", "config": {}}, "kernel_regularizer": null, "bias_regularizer": null, "activity_regularizer": null, "kernel_constraint": null, "bias_constraint": null}, "name": "conv2d_80", "inbound_nodes": [[["dropout_69", 0, 0, {}]]]}, {"class_name": "Dropout", "config": {"name": "dropout_42", "trainable": true, "dtype": "float32", "rate": 0.25, "noise_shape": null, "seed": null}, "name": "dropout_42", "inbound_nodes": [[["max_pooling2d_34", 0, 0, {}]]]}, {"class_name": "MaxPooling2D", "config": {"name": "max_pooling2d_41", "trainable": true, "dtype": "float32", "pool_size": [2, 2], "padding": "valid", "strides": [2, 2], "data_format": "channels_last"}, "name": "max_pooling2d_41", "inbound_nodes": [[["conv2d_59", 0, 0, {}]]]}, {"class_name": "Activation", "config": {"name": "activation_41", "trainable": true, "dtype": "float32", "activation": "relu"}, "name": "activation_41", "inbound_nodes": [[["conv2d_65", 0, 0, {}]]]}, {"class_name": "Activation", "config": {"name": "activation_45", "trainable": true, "dtype": "float32", "activation": "relu"}, "name": "activation_45", "inbound_nodes": [[["conv2d_70", 0, 0, {}]]]}, {"class_name": "Activation", "config": {"name": "activation_49", "trainable": true, "dtype": "float32", "activation": "relu"}, "name": "activation_49", "inbound_nodes": [[["conv2d_75", 0, 0, {}]]]}, {"class_name": "Activation", "config": {"name": "activation_53", "trainable": true, "dtype": "float32", "activation": "relu"}, "name": "activation_53", "inbound_nodes": [[["conv2d_80", 0, 0, {}]]]}, {"class_name": "Conv2D", "config": {"name": "conv2d_51", "trainable": true, "dtype": "float32", "filters": 128, "kernel_size": [3, 3], "strides": [1, 1], "padding": "same", "data_format": "channels_last", "dilation_rate": [1, 1], "groups": 1, "activation": "linear", "use_bias": true, "kernel_initializer": {"class_name": "GlorotUniform", "config": {"seed": null}}, "bias_initializer": {"class_name": "Zeros", "config": {}}, "kernel_regularizer": null, "bias_regularizer": null, "activity_regularizer": null, "kernel_constraint": null, "bias_constraint": null}, "name": "conv2d_51", "inbound_nodes": [[["dropout_42", 0, 0, {}]]]}, {"class_name": "Dropout", "config": {"name": "dropout_50", "trainable": true, "dtype": "float32", "rate": 0.2, "noise_shape": null, "seed": null}, "name": "dropout_50", "inbound_nodes": [[["max_pooling2d_41", 0, 0, {}]]]}, {"class_name": "BatchNormalization", "config": {"name": "batch_normalization_41", "trainable": true, "dtype": "float32", "axis": [3], "momentum": 0.99, "epsilon": 0.001, "center": true, "scale": true, "beta_initializer": {"class_name": "Zeros", "config": {}}, "gamma_initializer": {"class_name": "Ones", "config": {}}, "moving_mean_initializer": {"class_name": "Zeros", "config": {}}, "moving_variance_initializer": {"class_name": "Ones", "config": {}}, "beta_regularizer": null, "gamma_regularizer": null, "beta_constraint": null, "gamma_constraint": null}, "name": "batch_normalization_41", "inbound_nodes": [[["activation_41", 0, 0, {}]]]}, {"class_name": "BatchNormalization", "config": {"name": "batch_normalization_45", "trainable": true, "dtype": "float32", "axis": [3], "momentum": 0.99, "epsilon": 0.001, "center": true, "scale": true, "beta_initializer": {"class_name": "Zeros", "config": {}}, "gamma_initializer": {"class_name": "Ones", "config": {}}, "moving_mean_initializer": {"class_name": "Zeros", "config": {}}, "moving_variance_initializer": {"class_name": "Ones", "config": {}}, "beta_regularizer": null, "gamma_regularizer": null, "beta_constraint": null, "gamma_constraint": null}, "name": "batch_normalization_45", "inbound_nodes": [[["activation_45", 0, 0, {}]]]}, {"class_name": "BatchNormalization", "config": {"name": "batch_normalization_49", "trainable": true, "dtype": "float32", "axis": [3], "momentum": 0.99, "epsilon": 0.001, "center": true, "scale": true, "beta_initializer": {"class_name": "Zeros", "config": {}}, "gamma_initializer": {"class_name": "Ones", "config": {}}, "moving_mean_initializer": {"class_name": "Zeros", "config": {}}, "moving_variance_initializer": {"class_name": "Ones", "config": {}}, "beta_regularizer": null, "gamma_regularizer": null, "beta_constraint": null, "gamma_constraint": null}, "name": "batch_normalization_49", "inbound_nodes": [[["activation_49", 0, 0, {}]]]}, {"class_name": "BatchNormalization", "config": {"name": "batch_normalization_53", "trainable": true, "dtype": "float32", "axis": [3], "momentum": 0.99, "epsilon": 0.001, "center": true, "scale": true, "beta_initializer": {"class_name": "Zeros", "config": {}}, "gamma_initializer": {"class_name": "Ones", "config": {}}, "moving_mean_initializer": {"class_name": "Zeros", "config": {}}, "moving_variance_initializer": {"class_name": "Ones", "config": {}}, "beta_regularizer": null, "gamma_regularizer": null, "beta_constraint": null, "gamma_constraint": null}, "name": "batch_normalization_53", "inbound_nodes": [[["activation_53", 0, 0, {}]]]}, {"class_name": "Activation", "config": {"name": "activation_32", "trainable": true, "dtype": "float32", "activation": "relu"}, "name": "activation_32", "inbound_nodes": [[["conv2d_51", 0, 0, {}]]]}, {"class_name": "Conv2D", "config": {"name": "conv2d_60", "trainable": true, "dtype": "float32", "filters": 512, "kernel_size": [3, 3], "strides": [1, 1], "padding": "same", "data_format": "channels_last", "dilation_rate": [1, 1], "groups": 1, "activation": "relu", "use_bias": true, "kernel_initializer": {"class_name": "GlorotUniform", "config": {"seed": null}}, "bias_initializer": {"class_name": "Zeros", "config": {}}, "kernel_regularizer": null, "bias_regularizer": null, "activity_regularizer": null, "kernel_constraint": null, "bias_constraint": null}, "name": "conv2d_60", "inbound_nodes": [[["dropout_50", 0, 0, {}]]]}, {"class_name": "MaxPooling2D", "config": {"name": "max_pooling2d_45", "trainable": true, "dtype": "float32", "pool_size": [2, 2], "padding": "valid", "strides": [2, 2], "data_format": "channels_last"}, "name": "max_pooling2d_45", "inbound_nodes": [[["batch_normalization_41", 0, 0, {}]]]}, {"class_name": "MaxPooling2D", "config": {"name": "max_pooling2d_49", "trainable": true, "dtype": "float32", "pool_size": [2, 2], "padding": "valid", "strides": [2, 2], "data_format": "channels_last"}, "name": "max_pooling2d_49", "inbound_nodes": [[["batch_normalization_45", 0, 0, {}]]]}, {"class_name": "MaxPooling2D", "config": {"name": "max_pooling2d_53", "trainable": true, "dtype": "float32", "pool_size": [2, 2], "padding": "valid", "strides": [2, 2], "data_format": "channels_last"}, "name": "max_pooling2d_53", "inbound_nodes": [[["batch_normalization_49", 0, 0, {}]]]}, {"class_name": "MaxPooling2D", "config": {"name": "max_pooling2d_57", "trainable": true, "dtype": "float32", "pool_size": [2, 2], "padding": "valid", "strides": [2, 2], "data_format": "channels_last"}, "name": "max_pooling2d_57", "inbound_nodes": [[["batch_normalization_53", 0, 0, {}]]]}, {"class_name": "BatchNormalization", "config": {"name": "batch_normalization_32", "trainable": true, "dtype": "float32", "axis": [3], "momentum": 0.99, "epsilon": 0.001, "center": true, "scale": true, "beta_initializer": {"class_name": "Zeros", "config": {}}, "gamma_initializer": {"class_name": "Ones", "config": {}}, "moving_mean_initializer": {"class_name": "Zeros", "config": {}}, "moving_variance_initializer": {"class_name": "Ones", "config": {}}, "beta_regularizer": null, "gamma_regularizer": null, "beta_constraint": null, "gamma_constraint": null}, "name": "batch_normalization_32", "inbound_nodes": [[["activation_32", 0, 0, {}]]]}, {"class_name": "Conv2D", "config": {"name": "conv2d_61", "trainable": true, "dtype": "float32", "filters": 512, "kernel_size": [3, 3], "strides": [1, 1], "padding": "same", "data_format": "channels_last", "dilation_rate": [1, 1], "groups": 1, "activation": "relu", "use_bias": true, "kernel_initializer": {"class_name": "GlorotUniform", "config": {"seed": null}}, "bias_initializer": {"class_name": "Zeros", "config": {}}, "kernel_regularizer": null, "bias_regularizer": null, "activity_regularizer": null, "kernel_constraint": null, "bias_constraint": null}, "name": "conv2d_61", "inbound_nodes": [[["conv2d_60", 0, 0, {}]]]}, {"class_name": "Dropout", "config": {"name": "dropout_55", "trainable": true, "dtype": "float32", "rate": 0.25, "noise_shape": null, "seed": null}, "name": "dropout_55", "inbound_nodes": [[["max_pooling2d_45", 0, 0, {}]]]}, {"class_name": "Dropout", "config": {"name": "dropout_60", "trainable": true, "dtype": "float32", "rate": 0.25, "noise_shape": null, "seed": null}, "name": "dropout_60", "inbound_nodes": [[["max_pooling2d_49", 0, 0, {}]]]}, {"class_name": "Dropout", "config": {"name": "dropout_65", "trainable": true, "dtype": "float32", "rate": 0.25, "noise_shape": null, "seed": null}, "name": "dropout_65", "inbound_nodes": [[["max_pooling2d_53", 0, 0, {}]]]}, {"class_name": "Dropout", "config": {"name": "dropout_70", "trainable": true, "dtype": "float32", "rate": 0.25, "noise_shape": null, "seed": null}, "name": "dropout_70", "inbound_nodes": [[["max_pooling2d_57", 0, 0, {}]]]}, {"class_name": "MaxPooling2D", "config": {"name": "max_pooling2d_35", "trainable": true, "dtype": "float32", "pool_size": [2, 2], "padding": "valid", "strides": [2, 2], "data_format": "channels_last"}, "name": "max_pooling2d_35", "inbound_nodes": [[["batch_normalization_32", 0, 0, {}]]]}, {"class_name": "MaxPooling2D", "config": {"name": "max_pooling2d_42", "trainable": true, "dtype": "float32", "pool_size": [2, 2], "padding": "valid", "strides": [2, 2], "data_format": "channels_last"}, "name": "max_pooling2d_42", "inbound_nodes": [[["conv2d_61", 0, 0, {}]]]}, {"class_name": "Conv2D", "config": {"name": "conv2d_66", "trainable": true, "dtype": "float32", "filters": 128, "kernel_size": [3, 3], "strides": [1, 1], "padding": "same", "data_format": "channels_last", "dilation_rate": [1, 1], "groups": 1, "activation": "linear", "use_bias": true, "kernel_initializer": {"class_name": "GlorotUniform", "config": {"seed": null}}, "bias_initializer": {"class_name": "Zeros", "config": {}}, "kernel_regularizer": null, "bias_regularizer": null, "activity_regularizer": null, "kernel_constraint": null, "bias_constraint": null}, "name": "conv2d_66", "inbound_nodes": [[["dropout_55", 0, 0, {}]]]}, {"class_name": "Conv2D", "config": {"name": "conv2d_71", "trainable": true, "dtype": "float32", "filters": 128, "kernel_size": [3, 3], "strides": [1, 1], "padding": "same", "data_format": "channels_last", "dilation_rate": [1, 1], "groups": 1, "activation": "linear", "use_bias": true, "kernel_initializer": {"class_name": "GlorotUniform", "config": {"seed": null}}, "bias_initializer": {"class_name": "Zeros", "config": {}}, "kernel_regularizer": null, "bias_regularizer": null, "activity_regularizer": null, "kernel_constraint": null, "bias_constraint": null}, "name": "conv2d_71", "inbound_nodes": [[["dropout_60", 0, 0, {}]]]}, {"class_name": "Conv2D", "config": {"name": "conv2d_76", "trainable": true, "dtype": "float32", "filters": 128, "kernel_size": [3, 3], "strides": [1, 1], "padding": "same", "data_format": "channels_last", "dilation_rate": [1, 1], "groups": 1, "activation": "linear", "use_bias": true, "kernel_initializer": {"class_name": "GlorotUniform", "config": {"seed": null}}, "bias_initializer": {"class_name": "Zeros", "config": {}}, "kernel_regularizer": null, "bias_regularizer": null, "activity_regularizer": null, "kernel_constraint": null, "bias_constraint": null}, "name": "conv2d_76", "inbound_nodes": [[["dropout_65", 0, 0, {}]]]}, {"class_name": "Conv2D", "config": {"name": "conv2d_81", "trainable": true, "dtype": "float32", "filters": 128, "kernel_size": [3, 3], "strides": [1, 1], "padding": "same", "data_format": "channels_last", "dilation_rate": [1, 1], "groups": 1, "activation": "linear", "use_bias": true, "kernel_initializer": {"class_name": "GlorotUniform", "config": {"seed": null}}, "bias_initializer": {"class_name": "Zeros", "config": {}}, "kernel_regularizer": null, "bias_regularizer": null, "activity_regularizer": null, "kernel_constraint": null, "bias_constraint": null}, "name": "conv2d_81", "inbound_nodes": [[["dropout_70", 0, 0, {}]]]}, {"class_name": "Dropout", "config": {"name": "dropout_43", "trainable": true, "dtype": "float32", "rate": 0.25, "noise_shape": null, "seed": null}, "name": "dropout_43", "inbound_nodes": [[["max_pooling2d_35", 0, 0, {}]]]}, {"class_name": "Conv2D", "config": {"name": "conv2d_62", "trainable": true, "dtype": "float32", "filters": 512, "kernel_size": [3, 3], "strides": [1, 1], "padding": "same", "data_format": "channels_last", "dilation_rate": [1, 1], "groups": 1, "activation": "relu", "use_bias": true, "kernel_initializer": {"class_name": "GlorotUniform", "config": {"seed": null}}, "bias_initializer": {"class_name": "Zeros", "config": {}}, "kernel_regularizer": null, "bias_regularizer": null, "activity_regularizer": null, "kernel_constraint": null, "bias_constraint": null}, "name": "conv2d_62", "inbound_nodes": [[["max_pooling2d_42", 0, 0, {}]]]}, {"class_name": "Activation", "config": {"name": "activation_42", "trainable": true, "dtype": "float32", "activation": "relu"}, "name": "activation_42", "inbound_nodes": [[["conv2d_66", 0, 0, {}]]]}, {"class_name": "Activation", "config": {"name": "activation_46", "trainable": true, "dtype": "float32", "activation": "relu"}, "name": "activation_46", "inbound_nodes": [[["conv2d_71", 0, 0, {}]]]}, {"class_name": "Activation", "config": {"name": "activation_50", "trainable": true, "dtype": "float32", "activation": "relu"}, "name": "activation_50", "inbound_nodes": [[["conv2d_76", 0, 0, {}]]]}, {"class_name": "Activation", "config": {"name": "activation_54", "trainable": true, "dtype": "float32", "activation": "relu"}, "name": "activation_54", "inbound_nodes": [[["conv2d_81", 0, 0, {}]]]}, {"class_name": "Conv2D", "config": {"name": "conv2d_52", "trainable": true, "dtype": "float32", "filters": 512, "kernel_size": [3, 3], "strides": [1, 1], "padding": "same", "data_format": "channels_last", "dilation_rate": [1, 1], "groups": 1, "activation": "relu", "use_bias": true, "kernel_initializer": {"class_name": "GlorotUniform", "config": {"seed": null}}, "bias_initializer": {"class_name": "Zeros", "config": {}}, "kernel_regularizer": null, "bias_regularizer": null, "activity_regularizer": null, "kernel_constraint": null, "bias_constraint": null}, "name": "conv2d_52", "inbound_nodes": [[["dropout_43", 0, 0, {}]]]}, {"class_name": "Conv2D", "config": {"name": "conv2d_63", "trainable": true, "dtype": "float32", "filters": 512, "kernel_size": [3, 3], "strides": [1, 1], "padding": "same", "data_format": "channels_last", "dilation_rate": [1, 1], "groups": 1, "activation": "relu", "use_bias": true, "kernel_initializer": {"class_name": "GlorotUniform", "config": {"seed": null}}, "bias_initializer": {"class_name": "Zeros", "config": {}}, "kernel_regularizer": null, "bias_regularizer": null, "activity_regularizer": null, "kernel_constraint": null, "bias_constraint": null}, "name": "conv2d_63", "inbound_nodes": [[["conv2d_62", 0, 0, {}]]]}, {"class_name": "BatchNormalization", "config": {"name": "batch_normalization_42", "trainable": true, "dtype": "float32", "axis": [3], "momentum": 0.99, "epsilon": 0.001, "center": true, "scale": true, "beta_initializer": {"class_name": "Zeros", "config": {}}, "gamma_initializer": {"class_name": "Ones", "config": {}}, "moving_mean_initializer": {"class_name": "Zeros", "config": {}}, "moving_variance_initializer": {"class_name": "Ones", "config": {}}, "beta_regularizer": null, "gamma_regularizer": null, "beta_constraint": null, "gamma_constraint": null}, "name": "batch_normalization_42", "inbound_nodes": [[["activation_42", 0, 0, {}]]]}, {"class_name": "BatchNormalization", "config": {"name": "batch_normalization_46", "trainable": true, "dtype": "float32", "axis": [3], "momentum": 0.99, "epsilon": 0.001, "center": true, "scale": true, "beta_initializer": {"class_name": "Zeros", "config": {}}, "gamma_initializer": {"class_name": "Ones", "config": {}}, "moving_mean_initializer": {"class_name": "Zeros", "config": {}}, "moving_variance_initializer": {"class_name": "Ones", "config": {}}, "beta_regularizer": null, "gamma_regularizer": null, "beta_constraint": null, "gamma_constraint": null}, "name": "batch_normalization_46", "inbound_nodes": [[["activation_46", 0, 0, {}]]]}, {"class_name": "BatchNormalization", "config": {"name": "batch_normalization_50", "trainable": true, "dtype": "float32", "axis": [3], "momentum": 0.99, "epsilon": 0.001, "center": true, "scale": true, "beta_initializer": {"class_name": "Zeros", "config": {}}, "gamma_initializer": {"class_name": "Ones", "config": {}}, "moving_mean_initializer": {"class_name": "Zeros", "config": {}}, "moving_variance_initializer": {"class_name": "Ones", "config": {}}, "beta_regularizer": null, "gamma_regularizer": null, "beta_constraint": null, "gamma_constraint": null}, "name": "batch_normalization_50", "inbound_nodes": [[["activation_50", 0, 0, {}]]]}, {"class_name": "BatchNormalization", "config": {"name": "batch_normalization_54", "trainable": true, "dtype": "float32", "axis": [3], "momentum": 0.99, "epsilon": 0.001, "center": true, "scale": true, "beta_initializer": {"class_name": "Zeros", "config": {}}, "gamma_initializer": {"class_name": "Ones", "config": {}}, "moving_mean_initializer": {"class_name": "Zeros", "config": {}}, "moving_variance_initializer": {"class_name": "Ones", "config": {}}, "beta_regularizer": null, "gamma_regularizer": null, "beta_constraint": null, "gamma_constraint": null}, "name": "batch_normalization_54", "inbound_nodes": [[["activation_54", 0, 0, {}]]]}, {"class_name": "MaxPooling2D", "config": {"name": "max_pooling2d_36", "trainable": true, "dtype": "float32", "pool_size": [2, 2], "padding": "valid", "strides": [2, 2], "data_format": "channels_last"}, "name": "max_pooling2d_36", "inbound_nodes": [[["conv2d_52", 0, 0, {}]]]}, {"class_name": "MaxPooling2D", "config": {"name": "max_pooling2d_43", "trainable": true, "dtype": "float32", "pool_size": [2, 2], "padding": "valid", "strides": [2, 2], "data_format": "channels_last"}, "name": "max_pooling2d_43", "inbound_nodes": [[["conv2d_63", 0, 0, {}]]]}, {"class_name": "MaxPooling2D", "config": {"name": "max_pooling2d_46", "trainable": true, "dtype": "float32", "pool_size": [2, 2], "padding": "valid", "strides": [2, 2], "data_format": "channels_last"}, "name": "max_pooling2d_46", "inbound_nodes": [[["batch_normalization_42", 0, 0, {}]]]}, {"class_name": "MaxPooling2D", "config": {"name": "max_pooling2d_50", "trainable": true, "dtype": "float32", "pool_size": [2, 2], "padding": "valid", "strides": [2, 2], "data_format": "channels_last"}, "name": "max_pooling2d_50", "inbound_nodes": [[["batch_normalization_46", 0, 0, {}]]]}, {"class_name": "MaxPooling2D", "config": {"name": "max_pooling2d_54", "trainable": true, "dtype": "float32", "pool_size": [2, 2], "padding": "valid", "strides": [2, 2], "data_format": "channels_last"}, "name": "max_pooling2d_54", "inbound_nodes": [[["batch_normalization_50", 0, 0, {}]]]}, {"class_name": "MaxPooling2D", "config": {"name": "max_pooling2d_58", "trainable": true, "dtype": "float32", "pool_size": [2, 2], "padding": "valid", "strides": [2, 2], "data_format": "channels_last"}, "name": "max_pooling2d_58", "inbound_nodes": [[["batch_normalization_54", 0, 0, {}]]]}, {"class_name": "Dropout", "config": {"name": "dropout_44", "trainable": true, "dtype": "float32", "rate": 0.2, "noise_shape": null, "seed": null}, "name": "dropout_44", "inbound_nodes": [[["max_pooling2d_36", 0, 0, {}]]]}, {"class_name": "Dropout", "config": {"name": "dropout_51", "trainable": true, "dtype": "float32", "rate": 0.2, "noise_shape": null, "seed": null}, "name": "dropout_51", "inbound_nodes": [[["max_pooling2d_43", 0, 0, {}]]]}, {"class_name": "Dropout", "config": {"name": "dropout_56", "trainable": true, "dtype": "float32", "rate": 0.25, "noise_shape": null, "seed": null}, "name": "dropout_56", "inbound_nodes": [[["max_pooling2d_46", 0, 0, {}]]]}, {"class_name": "Dropout", "config": {"name": "dropout_61", "trainable": true, "dtype": "float32", "rate": 0.25, "noise_shape": null, "seed": null}, "name": "dropout_61", "inbound_nodes": [[["max_pooling2d_50", 0, 0, {}]]]}, {"class_name": "Dropout", "config": {"name": "dropout_66", "trainable": true, "dtype": "float32", "rate": 0.25, "noise_shape": null, "seed": null}, "name": "dropout_66", "inbound_nodes": [[["max_pooling2d_54", 0, 0, {}]]]}, {"class_name": "Dropout", "config": {"name": "dropout_71", "trainable": true, "dtype": "float32", "rate": 0.25, "noise_shape": null, "seed": null}, "name": "dropout_71", "inbound_nodes": [[["max_pooling2d_58", 0, 0, {}]]]}, {"class_name": "Flatten", "config": {"name": "flatten_9", "trainable": true, "dtype": "float32", "data_format": "channels_last"}, "name": "flatten_9", "inbound_nodes": [[["dropout_44", 0, 0, {}]]]}, {"class_name": "Flatten", "config": {"name": "flatten_10", "trainable": true, "dtype": "float32", "data_format": "channels_last"}, "name": "flatten_10", "inbound_nodes": [[["dropout_51", 0, 0, {}]]]}, {"class_name": "Conv2D", "config": {"name": "conv2d_67", "trainable": true, "dtype": "float32", "filters": 512, "kernel_size": [3, 3], "strides": [1, 1], "padding": "same", "data_format": "channels_last", "dilation_rate": [1, 1], "groups": 1, "activation": "relu", "use_bias": true, "kernel_initializer": {"class_name": "GlorotUniform", "config": {"seed": null}}, "bias_initializer": {"class_name": "Zeros", "config": {}}, "kernel_regularizer": null, "bias_regularizer": null, "activity_regularizer": null, "kernel_constraint": null, "bias_constraint": null}, "name": "conv2d_67", "inbound_nodes": [[["dropout_56", 0, 0, {}]]]}, {"class_name": "Conv2D", "config": {"name": "conv2d_72", "trainable": true, "dtype": "float32", "filters": 512, "kernel_size": [3, 3], "strides": [1, 1], "padding": "same", "data_format": "channels_last", "dilation_rate": [1, 1], "groups": 1, "activation": "relu", "use_bias": true, "kernel_initializer": {"class_name": "GlorotUniform", "config": {"seed": null}}, "bias_initializer": {"class_name": "Zeros", "config": {}}, "kernel_regularizer": null, "bias_regularizer": null, "activity_regularizer": null, "kernel_constraint": null, "bias_constraint": null}, "name": "conv2d_72", "inbound_nodes": [[["dropout_61", 0, 0, {}]]]}, {"class_name": "Conv2D", "config": {"name": "conv2d_77", "trainable": true, "dtype": "float32", "filters": 512, "kernel_size": [3, 3], "strides": [1, 1], "padding": "same", "data_format": "channels_last", "dilation_rate": [1, 1], "groups": 1, "activation": "relu", "use_bias": true, "kernel_initializer": {"class_name": "GlorotUniform", "config": {"seed": null}}, "bias_initializer": {"class_name": "Zeros", "config": {}}, "kernel_regularizer": null, "bias_regularizer": null, "activity_regularizer": null, "kernel_constraint": null, "bias_constraint": null}, "name": "conv2d_77", "inbound_nodes": [[["dropout_66", 0, 0, {}]]]}, {"class_name": "Conv2D", "config": {"name": "conv2d_82", "trainable": true, "dtype": "float32", "filters": 512, "kernel_size": [3, 3], "strides": [1, 1], "padding": "same", "data_format": "channels_last", "dilation_rate": [1, 1], "groups": 1, "activation": "relu", "use_bias": true, "kernel_initializer": {"class_name": "GlorotUniform", "config": {"seed": null}}, "bias_initializer": {"class_name": "Zeros", "config": {}}, "kernel_regularizer": null, "bias_regularizer": null, "activity_regularizer": null, "kernel_constraint": null, "bias_constraint": null}, "name": "conv2d_82", "inbound_nodes": [[["dropout_71", 0, 0, {}]]]}, {"class_name": "Dense", "config": {"name": "dense_21", "trainable": true, "dtype": "float32", "units": 128, "activation": "linear", "use_bias": true, "kernel_initializer": {"class_name": "GlorotUniform", "config": {"seed": null}}, "bias_initializer": {"class_name": "Zeros", "config": {}}, "kernel_regularizer": null, "bias_regularizer": null, "activity_regularizer": null, "kernel_constraint": null, "bias_constraint": null}, "name": "dense_21", "inbound_nodes": [[["flatten_9", 0, 0, {}]]]}, {"class_name": "Dense", "config": {"name": "dense_24", "trainable": true, "dtype": "float32", "units": 512, "activation": "linear", "use_bias": true, "kernel_initializer": {"class_name": "GlorotUniform", "config": {"seed": null}}, "bias_initializer": {"class_name": "Zeros", "config": {}}, "kernel_regularizer": null, "bias_regularizer": null, "activity_regularizer": null, "kernel_constraint": null, "bias_constraint": null}, "name": "dense_24", "inbound_nodes": [[["flatten_10", 0, 0, {}]]]}, {"class_name": "Conv2D", "config": {"name": "conv2d_68", "trainable": true, "dtype": "float32", "filters": 512, "kernel_size": [3, 3], "strides": [1, 1], "padding": "same", "data_format": "channels_last", "dilation_rate": [1, 1], "groups": 1, "activation": "relu", "use_bias": true, "kernel_initializer": {"class_name": "GlorotUniform", "config": {"seed": null}}, "bias_initializer": {"class_name": "Zeros", "config": {}}, "kernel_regularizer": null, "bias_regularizer": null, "activity_regularizer": null, "kernel_constraint": null, "bias_constraint": null}, "name": "conv2d_68", "inbound_nodes": [[["conv2d_67", 0, 0, {}]]]}, {"class_name": "Conv2D", "config": {"name": "conv2d_73", "trainable": true, "dtype": "float32", "filters": 512, "kernel_size": [3, 3], "strides": [1, 1], "padding": "same", "data_format": "channels_last", "dilation_rate": [1, 1], "groups": 1, "activation": "relu", "use_bias": true, "kernel_initializer": {"class_name": "GlorotUniform", "config": {"seed": null}}, "bias_initializer": {"class_name": "Zeros", "config": {}}, "kernel_regularizer": null, "bias_regularizer": null, "activity_regularizer": null, "kernel_constraint": null, "bias_constraint": null}, "name": "conv2d_73", "inbound_nodes": [[["conv2d_72", 0, 0, {}]]]}, {"class_name": "Conv2D", "config": {"name": "conv2d_78", "trainable": true, "dtype": "float32", "filters": 512, "kernel_size": [3, 3], "strides": [1, 1], "padding": "same", "data_format": "channels_last", "dilation_rate": [1, 1], "groups": 1, "activation": "relu", "use_bias": true, "kernel_initializer": {"class_name": "GlorotUniform", "config": {"seed": null}}, "bias_initializer": {"class_name": "Zeros", "config": {}}, "kernel_regularizer": null, "bias_regularizer": null, "activity_regularizer": null, "kernel_constraint": null, "bias_constraint": null}, "name": "conv2d_78", "inbound_nodes": [[["conv2d_77", 0, 0, {}]]]}, {"class_name": "Conv2D", "config": {"name": "conv2d_83", "trainable": true, "dtype": "float32", "filters": 512, "kernel_size": [3, 3], "strides": [1, 1], "padding": "same", "data_format": "channels_last", "dilation_rate": [1, 1], "groups": 1, "activation": "relu", "use_bias": true, "kernel_initializer": {"class_name": "GlorotUniform", "config": {"seed": null}}, "bias_initializer": {"class_name": "Zeros", "config": {}}, "kernel_regularizer": null, "bias_regularizer": null, "activity_regularizer": null, "kernel_constraint": null, "bias_constraint": null}, "name": "conv2d_83", "inbound_nodes": [[["conv2d_82", 0, 0, {}]]]}, {"class_name": "BatchNormalization", "config": {"name": "batch_normalization_33", "trainable": true, "dtype": "float32", "axis": [1], "momentum": 0.99, "epsilon": 0.001, "center": true, "scale": true, "beta_initializer": {"class_name": "Zeros", "config": {}}, "gamma_initializer": {"class_name": "Ones", "config": {}}, "moving_mean_initializer": {"class_name": "Zeros", "config": {}}, "moving_variance_initializer": {"class_name": "Ones", "config": {}}, "beta_regularizer": null, "gamma_regularizer": null, "beta_constraint": null, "gamma_constraint": null}, "name": "batch_normalization_33", "inbound_nodes": [[["dense_21", 0, 0, {}]]]}, {"class_name": "BatchNormalization", "config": {"name": "batch_normalization_38", "trainable": true, "dtype": "float32", "axis": [1], "momentum": 0.99, "epsilon": 0.001, "center": true, "scale": true, "beta_initializer": {"class_name": "Zeros", "config": {}}, "gamma_initializer": {"class_name": "Ones", "config": {}}, "moving_mean_initializer": {"class_name": "Zeros", "config": {}}, "moving_variance_initializer": {"class_name": "Ones", "config": {}}, "beta_regularizer": null, "gamma_regularizer": null, "beta_constraint": null, "gamma_constraint": null}, "name": "batch_normalization_38", "inbound_nodes": [[["dense_24", 0, 0, {}]]]}, {"class_name": "MaxPooling2D", "config": {"name": "max_pooling2d_47", "trainable": true, "dtype": "float32", "pool_size": [2, 2], "padding": "valid", "strides": [2, 2], "data_format": "channels_last"}, "name": "max_pooling2d_47", "inbound_nodes": [[["conv2d_68", 0, 0, {}]]]}, {"class_name": "MaxPooling2D", "config": {"name": "max_pooling2d_51", "trainable": true, "dtype": "float32", "pool_size": [2, 2], "padding": "valid", "strides": [2, 2], "data_format": "channels_last"}, "name": "max_pooling2d_51", "inbound_nodes": [[["conv2d_73", 0, 0, {}]]]}, {"class_name": "MaxPooling2D", "config": {"name": "max_pooling2d_55", "trainable": true, "dtype": "float32", "pool_size": [2, 2], "padding": "valid", "strides": [2, 2], "data_format": "channels_last"}, "name": "max_pooling2d_55", "inbound_nodes": [[["conv2d_78", 0, 0, {}]]]}, {"class_name": "MaxPooling2D", "config": {"name": "max_pooling2d_59", "trainable": true, "dtype": "float32", "pool_size": [2, 2], "padding": "valid", "strides": [2, 2], "data_format": "channels_last"}, "name": "max_pooling2d_59", "inbound_nodes": [[["conv2d_83", 0, 0, {}]]]}, {"class_name": "Activation", "config": {"name": "activation_33", "trainable": true, "dtype": "float32", "activation": "relu"}, "name": "activation_33", "inbound_nodes": [[["batch_normalization_33", 0, 0, {}]]]}, {"class_name": "Activation", "config": {"name": "activation_38", "trainable": true, "dtype": "float32", "activation": "relu"}, "name": "activation_38", "inbound_nodes": [[["batch_normalization_38", 0, 0, {}]]]}, {"class_name": "Dropout", "config": {"name": "dropout_57", "trainable": true, "dtype": "float32", "rate": 0.5, "noise_shape": null, "seed": null}, "name": "dropout_57", "inbound_nodes": [[["max_pooling2d_47", 0, 0, {}]]]}, {"class_name": "Dropout", "config": {"name": "dropout_62", "trainable": true, "dtype": "float32", "rate": 0.5, "noise_shape": null, "seed": null}, "name": "dropout_62", "inbound_nodes": [[["max_pooling2d_51", 0, 0, {}]]]}, {"class_name": "Dropout", "config": {"name": "dropout_67", "trainable": true, "dtype": "float32", "rate": 0.5, "noise_shape": null, "seed": null}, "name": "dropout_67", "inbound_nodes": [[["max_pooling2d_55", 0, 0, {}]]]}, {"class_name": "Dropout", "config": {"name": "dropout_72", "trainable": true, "dtype": "float32", "rate": 0.5, "noise_shape": null, "seed": null}, "name": "dropout_72", "inbound_nodes": [[["max_pooling2d_59", 0, 0, {}]]]}, {"class_name": "Dropout", "config": {"name": "dropout_45", "trainable": true, "dtype": "float32", "rate": 0.2, "noise_shape": null, "seed": null}, "name": "dropout_45", "inbound_nodes": [[["activation_33", 0, 0, {}]]]}, {"class_name": "Dropout", "config": {"name": "dropout_52", "trainable": true, "dtype": "float32", "rate": 0.2, "noise_shape": null, "seed": null}, "name": "dropout_52", "inbound_nodes": [[["activation_38", 0, 0, {}]]]}, {"class_name": "Flatten", "config": {"name": "flatten_11", "trainable": true, "dtype": "float32", "data_format": "channels_last"}, "name": "flatten_11", "inbound_nodes": [[["dropout_57", 0, 0, {}]]]}, {"class_name": "Flatten", "config": {"name": "flatten_12", "trainable": true, "dtype": "float32", "data_format": "channels_last"}, "name": "flatten_12", "inbound_nodes": [[["dropout_62", 0, 0, {}]]]}, {"class_name": "Flatten", "config": {"name": "flatten_13", "trainable": true, "dtype": "float32", "data_format": "channels_last"}, "name": "flatten_13", "inbound_nodes": [[["dropout_67", 0, 0, {}]]]}, {"class_name": "Flatten", "config": {"name": "flatten_14", "trainable": true, "dtype": "float32", "data_format": "channels_last"}, "name": "flatten_14", "inbound_nodes": [[["dropout_72", 0, 0, {}]]]}, {"class_name": "Dense", "config": {"name": "dense_22", "trainable": true, "dtype": "float32", "units": 64, "activation": "linear", "use_bias": true, "kernel_initializer": {"class_name": "GlorotUniform", "config": {"seed": null}}, "bias_initializer": {"class_name": "Zeros", "config": {}}, "kernel_regularizer": {"class_name": "L1L2", "config": {"L1L2": 0.009999999776482582}}, "bias_regularizer": null, "activity_regularizer": null, "kernel_constraint": null, "bias_constraint": null}, "name": "dense_22", "inbound_nodes": [[["dropout_45", 0, 0, {}]]]}, {"class_name": "Dense", "config": {"name": "dense_25", "trainable": true, "dtype": "float32", "units": 512, "activation": "linear", "use_bias": true, "kernel_initializer": {"class_name": "GlorotUniform", "config": {"seed": null}}, "bias_initializer": {"class_name": "Zeros", "config": {}}, "kernel_regularizer": {"class_name": "L1L2", "config": {"L1L2": 0.009999999776482582}}, "bias_regularizer": null, "activity_regularizer": null, "kernel_constraint": null, "bias_constraint": null}, "name": "dense_25", "inbound_nodes": [[["dropout_52", 0, 0, {}]]]}, {"class_name": "Dense", "config": {"name": "dense_27", "trainable": true, "dtype": "float32", "units": 512, "activation": "linear", "use_bias": true, "kernel_initializer": {"class_name": "GlorotUniform", "config": {"seed": null}}, "bias_initializer": {"class_name": "Zeros", "config": {}}, "kernel_regularizer": null, "bias_regularizer": null, "activity_regularizer": null, "kernel_constraint": null, "bias_constraint": null}, "name": "dense_27", "inbound_nodes": [[["flatten_11", 0, 0, {}]]]}, {"class_name": "Dense", "config": {"name": "dense_29", "trainable": true, "dtype": "float32", "units": 512, "activation": "linear", "use_bias": true, "kernel_initializer": {"class_name": "GlorotUniform", "config": {"seed": null}}, "bias_initializer": {"class_name": "Zeros", "config": {}}, "kernel_regularizer": {"class_name": "L1L2", "config": {"L1L2": 0.009999999776482582}}, "bias_regularizer": null, "activity_regularizer": null, "kernel_constraint": null, "bias_constraint": null}, "name": "dense_29", "inbound_nodes": [[["flatten_12", 0, 0, {}]]]}, {"class_name": "Dense", "config": {"name": "dense_31", "trainable": true, "dtype": "float32", "units": 512, "activation": "linear", "use_bias": true, "kernel_initializer": {"class_name": "GlorotUniform", "config": {"seed": null}}, "bias_initializer": {"class_name": "Zeros", "config": {}}, "kernel_regularizer": null, "bias_regularizer": null, "activity_regularizer": null, "kernel_constraint": null, "bias_constraint": null}, "name": "dense_31", "inbound_nodes": [[["flatten_13", 0, 0, {}]]]}, {"class_name": "Dense", "config": {"name": "dense_33", "trainable": true, "dtype": "float32", "units": 512, "activation": "linear", "use_bias": true, "kernel_initializer": {"class_name": "GlorotUniform", "config": {"seed": null}}, "bias_initializer": {"class_name": "Zeros", "config": {}}, "kernel_regularizer": null, "bias_regularizer": null, "activity_regularizer": null, "kernel_constraint": null, "bias_constraint": null}, "name": "dense_33", "inbound_nodes": [[["flatten_14", 0, 0, {}]]]}, {"class_name": "BatchNormalization", "config": {"name": "batch_normalization_34", "trainable": true, "dtype": "float32", "axis": [1], "momentum": 0.99, "epsilon": 0.001, "center": true, "scale": true, "beta_initializer": {"class_name": "Zeros", "config": {}}, "gamma_initializer": {"class_name": "Ones", "config": {}}, "moving_mean_initializer": {"class_name": "Zeros", "config": {}}, "moving_variance_initializer": {"class_name": "Ones", "config": {}}, "beta_regularizer": null, "gamma_regularizer": null, "beta_constraint": null, "gamma_constraint": null}, "name": "batch_normalization_34", "inbound_nodes": [[["dense_22", 0, 0, {}]]]}, {"class_name": "BatchNormalization", "config": {"name": "batch_normalization_39", "trainable": true, "dtype": "float32", "axis": [1], "momentum": 0.99, "epsilon": 0.001, "center": true, "scale": true, "beta_initializer": {"class_name": "Zeros", "config": {}}, "gamma_initializer": {"class_name": "Ones", "config": {}}, "moving_mean_initializer": {"class_name": "Zeros", "config": {}}, "moving_variance_initializer": {"class_name": "Ones", "config": {}}, "beta_regularizer": null, "gamma_regularizer": null, "beta_constraint": null, "gamma_constraint": null}, "name": "batch_normalization_39", "inbound_nodes": [[["dense_25", 0, 0, {}]]]}, {"class_name": "BatchNormalization", "config": {"name": "batch_normalization_43", "trainable": true, "dtype": "float32", "axis": [1], "momentum": 0.99, "epsilon": 0.001, "center": true, "scale": true, "beta_initializer": {"class_name": "Zeros", "config": {}}, "gamma_initializer": {"class_name": "Ones", "config": {}}, "moving_mean_initializer": {"class_name": "Zeros", "config": {}}, "moving_variance_initializer": {"class_name": "Ones", "config": {}}, "beta_regularizer": null, "gamma_regularizer": null, "beta_constraint": null, "gamma_constraint": null}, "name": "batch_normalization_43", "inbound_nodes": [[["dense_27", 0, 0, {}]]]}, {"class_name": "BatchNormalization", "config": {"name": "batch_normalization_47", "trainable": true, "dtype": "float32", "axis": [1], "momentum": 0.99, "epsilon": 0.001, "center": true, "scale": true, "beta_initializer": {"class_name": "Zeros", "config": {}}, "gamma_initializer": {"class_name": "Ones", "config": {}}, "moving_mean_initializer": {"class_name": "Zeros", "config": {}}, "moving_variance_initializer": {"class_name": "Ones", "config": {}}, "beta_regularizer": null, "gamma_regularizer": null, "beta_constraint": null, "gamma_constraint": null}, "name": "batch_normalization_47", "inbound_nodes": [[["dense_29", 0, 0, {}]]]}, {"class_name": "BatchNormalization", "config": {"name": "batch_normalization_51", "trainable": true, "dtype": "float32", "axis": [1], "momentum": 0.99, "epsilon": 0.001, "center": true, "scale": true, "beta_initializer": {"class_name": "Zeros", "config": {}}, "gamma_initializer": {"class_name": "Ones", "config": {}}, "moving_mean_initializer": {"class_name": "Zeros", "config": {}}, "moving_variance_initializer": {"class_name": "Ones", "config": {}}, "beta_regularizer": null, "gamma_regularizer": null, "beta_constraint": null, "gamma_constraint": null}, "name": "batch_normalization_51", "inbound_nodes": [[["dense_31", 0, 0, {}]]]}, {"class_name": "BatchNormalization", "config": {"name": "batch_normalization_55", "trainable": true, "dtype": "float32", "axis": [1], "momentum": 0.99, "epsilon": 0.001, "center": true, "scale": true, "beta_initializer": {"class_name": "Zeros", "config": {}}, "gamma_initializer": {"class_name": "Ones", "config": {}}, "moving_mean_initializer": {"class_name": "Zeros", "config": {}}, "moving_variance_initializer": {"class_name": "Ones", "config": {}}, "beta_regularizer": null, "gamma_regularizer": null, "beta_constraint": null, "gamma_constraint": null}, "name": "batch_normalization_55", "inbound_nodes": [[["dense_33", 0, 0, {}]]]}, {"class_name": "Activation", "config": {"name": "activation_34", "trainable": true, "dtype": "float32", "activation": "relu"}, "name": "activation_34", "inbound_nodes": [[["batch_normalization_34", 0, 0, {}]]]}, {"class_name": "Activation", "config": {"name": "activation_39", "trainable": true, "dtype": "float32", "activation": "relu"}, "name": "activation_39", "inbound_nodes": [[["batch_normalization_39", 0, 0, {}]]]}, {"class_name": "Activation", "config": {"name": "activation_43", "trainable": true, "dtype": "float32", "activation": "relu"}, "name": "activation_43", "inbound_nodes": [[["batch_normalization_43", 0, 0, {}]]]}, {"class_name": "Activation", "config": {"name": "activation_47", "trainable": true, "dtype": "float32", "activation": "relu"}, "name": "activation_47", "inbound_nodes": [[["batch_normalization_47", 0, 0, {}]]]}, {"class_name": "Activation", "config": {"name": "activation_51", "trainable": true, "dtype": "float32", "activation": "relu"}, "name": "activation_51", "inbound_nodes": [[["batch_normalization_51", 0, 0, {}]]]}, {"class_name": "Activation", "config": {"name": "activation_55", "trainable": true, "dtype": "float32", "activation": "relu"}, "name": "activation_55", "inbound_nodes": [[["batch_normalization_55", 0, 0, {}]]]}, {"class_name": "Dropout", "config": {"name": "dropout_46", "trainable": true, "dtype": "float32", "rate": 0.25, "noise_shape": null, "seed": null}, "name": "dropout_46", "inbound_nodes": [[["activation_34", 0, 0, {}]]]}, {"class_name": "Dropout", "config": {"name": "dropout_53", "trainable": true, "dtype": "float32", "rate": 0.25, "noise_shape": null, "seed": null}, "name": "dropout_53", "inbound_nodes": [[["activation_39", 0, 0, {}]]]}, {"class_name": "Dropout", "config": {"name": "dropout_58", "trainable": true, "dtype": "float32", "rate": 0.5, "noise_shape": null, "seed": null}, "name": "dropout_58", "inbound_nodes": [[["activation_43", 0, 0, {}]]]}, {"class_name": "Dropout", "config": {"name": "dropout_63", "trainable": true, "dtype": "float32", "rate": 0.5, "noise_shape": null, "seed": null}, "name": "dropout_63", "inbound_nodes": [[["activation_47", 0, 0, {}]]]}, {"class_name": "Dropout", "config": {"name": "dropout_68", "trainable": true, "dtype": "float32", "rate": 0.5, "noise_shape": null, "seed": null}, "name": "dropout_68", "inbound_nodes": [[["activation_51", 0, 0, {}]]]}, {"class_name": "Dropout", "config": {"name": "dropout_73", "trainable": true, "dtype": "float32", "rate": 0.5, "noise_shape": null, "seed": null}, "name": "dropout_73", "inbound_nodes": [[["activation_55", 0, 0, {}]]]}, {"class_name": "Dense", "config": {"name": "dense_23", "trainable": true, "dtype": "float32", "units": 7, "activation": "linear", "use_bias": true, "kernel_initializer": {"class_name": "GlorotUniform", "config": {"seed": null}}, "bias_initializer": {"class_name": "Zeros", "config": {}}, "kernel_regularizer": null, "bias_regularizer": null, "activity_regularizer": null, "kernel_constraint": null, "bias_constraint": null}, "name": "dense_23", "inbound_nodes": [[["dropout_46", 0, 0, {}]]]}, {"class_name": "Dense", "config": {"name": "dense_26", "trainable": true, "dtype": "float32", "units": 5, "activation": "linear", "use_bias": true, "kernel_initializer": {"class_name": "GlorotUniform", "config": {"seed": null}}, "bias_initializer": {"class_name": "Zeros", "config": {}}, "kernel_regularizer": null, "bias_regularizer": null, "activity_regularizer": null, "kernel_constraint": null, "bias_constraint": null}, "name": "dense_26", "inbound_nodes": [[["dropout_53", 0, 0, {}]]]}, {"class_name": "Dense", "config": {"name": "dense_28", "trainable": true, "dtype": "float32", "units": 2, "activation": "linear", "use_bias": true, "kernel_initializer": {"class_name": "GlorotUniform", "config": {"seed": null}}, "bias_initializer": {"class_name": "Zeros", "config": {}}, "kernel_regularizer": null, "bias_regularizer": null, "activity_regularizer": null, "kernel_constraint": null, "bias_constraint": null}, "name": "dense_28", "inbound_nodes": [[["dropout_58", 0, 0, {}]]]}, {"class_name": "Dense", "config": {"name": "dense_30", "trainable": true, "dtype": "float32", "units": 4, "activation": "linear", "use_bias": true, "kernel_initializer": {"class_name": "GlorotUniform", "config": {"seed": null}}, "bias_initializer": {"class_name": "Zeros", "config": {}}, "kernel_regularizer": null, "bias_regularizer": null, "activity_regularizer": null, "kernel_constraint": null, "bias_constraint": null}, "name": "dense_30", "inbound_nodes": [[["dropout_63", 0, 0, {}]]]}, {"class_name": "Dense", "config": {"name": "dense_32", "trainable": true, "dtype": "float32", "units": 2, "activation": "linear", "use_bias": true, "kernel_initializer": {"class_name": "GlorotUniform", "config": {"seed": null}}, "bias_initializer": {"class_name": "Zeros", "config": {}}, "kernel_regularizer": null, "bias_regularizer": null, "activity_regularizer": null, "kernel_constraint": null, "bias_constraint": null}, "name": "dense_32", "inbound_nodes": [[["dropout_68", 0, 0, {}]]]}, {"class_name": "Dense", "config": {"name": "dense_34", "trainable": true, "dtype": "float32", "units": 2, "activation": "linear", "use_bias": true, "kernel_initializer": {"class_name": "GlorotUniform", "config": {"seed": null}}, "bias_initializer": {"class_name": "Zeros", "config": {}}, "kernel_regularizer": null, "bias_regularizer": null, "activity_regularizer": null, "kernel_constraint": null, "bias_constraint": null}, "name": "dense_34", "inbound_nodes": [[["dropout_73", 0, 0, {}]]]}, {"class_name": "Activation", "config": {"name": "age_output", "trainable": true, "dtype": "float32", "activation": "softmax"}, "name": "age_output", "inbound_nodes": [[["dense_23", 0, 0, {}]]]}, {"class_name": "Activation", "config": {"name": "expression_output", "trainable": true, "dtype": "float32", "activation": "softmax"}, "name": "expression_output", "inbound_nodes": [[["dense_26", 0, 0, {}]]]}, {"class_name": "Activation", "config": {"name": "gender_output", "trainable": true, "dtype": "float32", "activation": "sigmoid"}, "name": "gender_output", "inbound_nodes": [[["dense_28", 0, 0, {}]]]}, {"class_name": "Activation", "config": {"name": "hair_output", "trainable": true, "dtype": "float32", "activation": "softmax"}, "name": "hair_output", "inbound_nodes": [[["dense_30", 0, 0, {}]]]}, {"class_name": "Activation", "config": {"name": "bald_output", "trainable": true, "dtype": "float32", "activation": "sigmoid"}, "name": "bald_output", "inbound_nodes": [[["dense_32", 0, 0, {}]]]}, {"class_name": "Activation", "config": {"name": "eyeglasses_output", "trainable": true, "dtype": "float32", "activation": "sigmoid"}, "name": "eyeglasses_output", "inbound_nodes": [[["dense_34", 0, 0, {}]]]}], "input_layers": [["input_3", 0, 0]], "output_layers": [["age_output", 0, 0], ["expression_output", 0, 0], ["gender_output", 0, 0], ["hair_output", 0, 0], ["bald_output", 0, 0], ["eyeglasses_output", 0, 0]]}}, "training_config": {"loss": {"age_output": "categorical_crossentropy", "expression_output": "categorical_crossentropy", "gender_output": "binary_crossentropy", "hair_output": "categorical_crossentropy", "eyeglasses_output": "binary_crossentropy", "bald_output": "binary_crossentropy"}, "metrics": [[{"class_name": "MeanMetricWrapper", "config": {"name": "age_output_accuracy", "dtype": "float32", "fn": "categorical_accuracy"}}], [{"class_name": "MeanMetricWrapper", "config": {"name": "expression_output_accuracy", "dtype": "float32", "fn": "categorical_accuracy"}}], [{"class_name": "MeanMetricWrapper", "config": {"name": "gender_output_accuracy", "dtype": "float32", "fn": "categorical_accuracy"}}], [{"class_name": "MeanMetricWrapper", "config": {"name": "hair_output_accuracy", "dtype": "float32", "fn": "categorical_accuracy"}}], [{"class_name": "MeanMetricWrapper", "config": {"name": "bald_output_accuracy", "dtype": "float32", "fn": "categorical_accuracy"}}], [{"class_name": "MeanMetricWrapper", "config": {"name": "eyeglasses_output_accuracy", "dtype": "float32", "fn": "categorical_accuracy"}}]], "weighted_metrics": null, "loss_weights": {"age_output": 1, "expression_output": 1.5, "gender_output": 0.5, "hair_output": 0.5, "eyeglasses_output": 1, "bald_output": 1.5}, "optimizer_config": {"class_name": "Adam", "config": {"name": "Adam", "learning_rate": 9.999999747378752e-05, "decay": 1e-06, "beta_1": 0.8999999761581421, "beta_2": 0.9990000128746033, "epsilon": 1e-07, "amsgrad": false}}}}, "weightsManifest": [{"paths": ["group1-shard1of29.bin", "group1-shard2of29.bin", "group1-shard3of29.bin", "group1-shard4of29.bin", "group1-shard5of29.bin", "group1-shard6of29.bin", "group1-shard7of29.bin", "group1-shard8of29.bin", "group1-shard9of29.bin", "group1-shard10of29.bin", "group1-shard11of29.bin", "group1-shard12of29.bin", "group1-shard13of29.bin", "group1-shard14of29.bin", "group1-shard15of29.bin", "group1-shard16of29.bin", "group1-shard17of29.bin", "group1-shard18of29.bin", "group1-shard19of29.bin", "group1-shard20of29.bin", "group1-shard21of29.bin", "group1-shard22of29.bin", "group1-shard23of29.bin", "group1-shard24of29.bin", "group1-shard25of29.bin", "group1-shard26of29.bin", "group1-shard27of29.bin", "group1-shard28of29.bin", "group1-shard29of29.bin"], "weights": [{"name": "batch_normalization_30/gamma", "shape": [32], "dtype": "float32", "quantization": {"dtype": "uint8", "min": 0.9350404143333435, "scale": 0.0006226205358318254, "original_dtype": "float32"}}, {"name": "batch_normalization_30/beta", "shape": [32], "dtype": "float32", "quantization": {"dtype": "uint8", "min": -0.03583329617977142, "scale": 0.0002634801189689075, "original_dtype": "float32"}}, {"name": "batch_normalization_30/moving_mean", "shape": [32], "dtype": "float32", "quantization": {"dtype": "uint8", "min": 0.00020570711058098823, "scale": 1.5135122572224218, "original_dtype": "float32"}}, {"name": "batch_normalization_30/moving_variance", "shape": [32], "dtype": "float32", "quantization": {"dtype": "uint8", "min": 0.0004661286366172135, "scale": 152.43241238773084, "original_dtype": "float32"}}, {"name": "batch_normalization_31/gamma", "shape": [64], "dtype": "float32", "quantization": {"dtype": "uint8", "min": 0.9689981937408447, "scale": 0.0002763818292056813, "original_dtype": "float32"}}, {"name": "batch_normalization_31/beta", "shape": [64], "dtype": "float32", "quantization": {"dtype": "uint8", "min": -0.040682064522715174, "scale": 0.00029694937607821297, "original_dtype": "float32"}}, {"name": "batch_normalization_31/moving_mean", "shape": [64], "dtype": "float32", "quantization": {"dtype": "uint8", "min": 0.19820871949195862, "scale": 0.00214118712088641, "original_dtype": "float32"}}, {"name": "batch_normalization_31/moving_variance", "shape": [64], "dtype": "float32", "quantization": {"dtype": "uint8", "min": 0.24665632843971252, "scale": 0.004272712328854729, "original_dtype": "float32"}}, {"name": "batch_normalization_32/gamma", "shape": [128], "dtype": "float32", "quantization": {"dtype": "uint8", "min": 0.9558827877044678, "scale": 0.0004204249849506453, "original_dtype": "float32"}}, {"name": "batch_normalization_32/beta", "shape": [128], "dtype": "float32", "quantization": {"dtype": "uint8", "min": -0.04278623334625188, "scale": 0.000316935061824088, "original_dtype": "float32"}}, {"name": "batch_normalization_32/moving_mean", "shape": [128], "dtype": "float32", "quantization": {"dtype": "uint8", "min": 0.1586194485425949, "scale": 0.0025404556709177355, "original_dtype": "float32"}}, {"name": "batch_normalization_32/moving_variance", "shape": [128], "dtype": "float32", "quantization": {"dtype": "uint8", "min": 0.13499850034713745, "scale": 0.007731789467381496, "original_dtype": "float32"}}, {"name": "batch_normalization_33/gamma", "shape": [128], "dtype": "float32", "quantization": {"dtype": "uint8", "min": 0.9542101621627808, "scale": 0.0003759594524607939, "original_dtype": "float32"}}, {"name": "batch_normalization_33/beta", "shape": [128], "dtype": "float32", "quantization": {"dtype": "uint8", "min": -0.08744692802429199, "scale": 0.00029796204146216896, "original_dtype": "float32"}}, {"name": "batch_normalization_33/moving_mean", "shape": [128], "dtype": "float32", "quantization": {"dtype": "uint8", "min": -7.371140461342008, "scale": 0.05265100329530006, "original_dtype": "float32"}}, {"name": "batch_normalization_33/moving_variance", "shape": [128], "dtype": "float32", "quantization": {"dtype": "uint8", "min": 4.9620747566223145, "scale": 0.026091289520263673, "original_dtype": "float32"}}, {"name": "batch_normalization_34/gamma", "shape": [64], "dtype": "float32", "quantization": {"dtype": "uint8", "min": 0.9677674770355225, "scale": 0.0010264990376491173, "original_dtype": "float32"}}, {"name": "batch_normalization_34/beta", "shape": [64], "dtype": "float32", "quantization": {"dtype": "uint8", "min": -0.08368836080326753, "scale": 0.0011623383444898268, "original_dtype": "float32"}}, {"name": "batch_normalization_34/moving_mean", "shape": [64], "dtype": "float32", "quantization": {"dtype": "uint8", "min": -0.42480059044033874, "scale": 0.003242752598781212, "original_dtype": "float32"}}, {"name": "batch_normalization_34/moving_variance", "shape": [64], "dtype": "float32", "quantization": {"dtype": "uint8", "min": 0.02154579572379589, "scale": 0.0014292057895777272, "original_dtype": "float32"}}, {"name": "batch_normalization_35/gamma", "shape": [32], "dtype": "float32", "quantization": {"dtype": "uint8", "min": 0.9709676504135132, "scale": 0.00022095231448902804, "original_dtype": "float32"}}, {"name": "batch_normalization_35/beta", "shape": [32], "dtype": "float32", "quantization": {"dtype": "uint8", "min": -0.053544107605429256, "scale": 0.0003077247563530417, "original_dtype": "float32"}}, {"name": "batch_normalization_35/moving_mean", "shape": [32], "dtype": "float32", "quantization": {"dtype": "uint8", "min": 4.8158115532714874e-05, "scale": 1.6197147649972798, "original_dtype": "float32"}}, {"name": "batch_normalization_35/moving_variance", "shape": [32], "dtype": "float32", "quantization": {"dtype": "uint8", "min": 0.00010622130503179505, "scale": 198.6805449265831, "original_dtype": "float32"}}, {"name": "batch_normalization_36/gamma", "shape": [64], "dtype": "float32", "quantization": {"dtype": "uint8", "min": 0.9817295670509338, "scale": 0.00019065749411489448, "original_dtype": "float32"}}, {"name": "batch_normalization_36/beta", "shape": [64], "dtype": "float32", "quantization": {"dtype": "uint8", "min": -0.033211205329965146, "scale": 0.000274472771322026, "original_dtype": "float32"}}, {"name": "batch_normalization_36/moving_mean", "shape": [64], "dtype": "float32", "quantization": {"dtype": "uint8", "min": 0.2029823660850525, "scale": 0.0025492111841837564, "original_dtype": "float32"}}, {"name": "batch_normalization_36/moving_variance", "shape": [64], "dtype": "float32", "quantization": {"dtype": "uint8", "min": 0.17099016904830933, "scale": 0.005971867664187562, "original_dtype": "float32"}}, {"name": "batch_normalization_37/gamma", "shape": [128], "dtype": "float32", "quantization": {"dtype": "uint8", "min": 0.9746152758598328, "scale": 0.0002055974567637724, "original_dtype": "float32"}}, {"name": "batch_normalization_37/beta", "shape": [128], "dtype": "float32", "quantization": {"dtype": "uint8", "min": -0.05091914061237784, "scale": 0.00028606258770998784, "original_dtype": "float32"}}, {"name": "batch_normalization_37/moving_mean", "shape": [128], "dtype": "float32", "quantization": {"dtype": "uint8", "min": 0.05346263572573662, "scale": 0.004583152558873682, "original_dtype": "float32"}}, {"name": "batch_normalization_37/moving_variance", "shape": [128], "dtype": "float32", "quantization": {"dtype": "uint8", "min": 0.22671210765838623, "scale": 0.018248567861669205, "original_dtype": "float32"}}, {"name": "batch_normalization_38/gamma", "shape": [512], "dtype": "float32", "quantization": {"dtype": "uint8", "min": 0.984650194644928, "scale": 0.0001491520919051825, "original_dtype": "float32"}}, {"name": "batch_normalization_38/beta", "shape": [512], "dtype": "float32", "quantization": {"dtype": "uint8", "min": -0.025021757448420806, "scale": 0.0001774592726838355, "original_dtype": "float32"}}, {"name": "batch_normalization_38/moving_mean", "shape": [512], "dtype": "float32", "quantization": {"dtype": "uint8", "min": -0.5493651908986709, "scale": 0.004994229008169735, "original_dtype": "float32"}}, {"name": "batch_normalization_38/moving_variance", "shape": [512], "dtype": "float32", "quantization": {"dtype": "uint8", "min": 0.027513764798641205, "scale": 0.0016794508870910196, "original_dtype": "float32"}}, {"name": "batch_normalization_39/gamma", "shape": [512], "dtype": "float32", "quantization": {"dtype": "uint8", "min": 0.9653554558753967, "scale": 0.00016066537183873794, "original_dtype": "float32"}}, {"name": "batch_normalization_39/beta", "shape": [512], "dtype": "float32", "quantization": {"dtype": "uint8", "min": -0.038228830768197185, "scale": 0.0002531710646900476, "original_dtype": "float32"}}, {"name": "batch_normalization_39/moving_mean", "shape": [512], "dtype": "float32", "quantization": {"dtype": "uint8", "min": -0.38900133628471223, "scale": 0.003214887076733159, "original_dtype": "float32"}}, {"name": "batch_normalization_39/moving_variance", "shape": [512], "dtype": "float32", "quantization": {"dtype": "uint8", "min": 0.015467170625925064, "scale": 0.0014284413088770473, "original_dtype": "float32"}}, {"name": "batch_normalization_40/gamma", "shape": [32], "dtype": "float32", "quantization": {"dtype": "uint8", "min": 0.9598007798194885, "scale": 0.0003812408914753035, "original_dtype": "float32"}}, {"name": "batch_normalization_40/beta", "shape": [32], "dtype": "float32", "quantization": {"dtype": "uint8", "min": -0.027120405979746697, "scale": 0.00014983649712567237, "original_dtype": "float32"}}, {"name": "batch_normalization_40/moving_mean", "shape": [32], "dtype": "float32", "quantization": {"dtype": "uint8", "min": 0.00013909612607676536, "scale": 1.1097176875213193, "original_dtype": "float32"}}, {"name": "batch_normalization_40/moving_variance", "shape": [32], "dtype": "float32", "quantization": {"dtype": "uint8", "min": 0.00010319969442207366, "scale": 82.44546528156982, "original_dtype": "float32"}}, {"name": "batch_normalization_41/gamma", "shape": [64], "dtype": "float32", "quantization": {"dtype": "uint8", "min": 0.9724918007850647, "scale": 0.00020483077741136738, "original_dtype": "float32"}}, {"name": "batch_normalization_41/beta", "shape": [64], "dtype": "float32", "quantization": {"dtype": "uint8", "min": -0.03659867894854031, "scale": 0.00024562871777543833, "original_dtype": "float32"}}, {"name": "batch_normalization_41/moving_mean", "shape": [64], "dtype": "float32", "quantization": {"dtype": "uint8", "min": 0.19409283995628357, "scale": 0.0028709380065693574, "original_dtype": "float32"}}, {"name": "batch_normalization_41/moving_variance", "shape": [64], "dtype": "float32", "quantization": {"dtype": "uint8", "min": 0.12905974686145782, "scale": 0.006062345119083629, "original_dtype": "float32"}}, {"name": "batch_normalization_42/gamma", "shape": [128], "dtype": "float32", "quantization": {"dtype": "uint8", "min": 0.9786986708641052, "scale": 0.00020576949213065352, "original_dtype": "float32"}}, {"name": "batch_normalization_42/beta", "shape": [128], "dtype": "float32", "quantization": {"dtype": "uint8", "min": -0.03722595489200424, "scale": 0.00017234238375927888, "original_dtype": "float32"}}, {"name": "batch_normalization_42/moving_mean", "shape": [128], "dtype": "float32", "quantization": {"dtype": "uint8", "min": 0.1657828837633133, "scale": 0.0035158958505181704, "original_dtype": "float32"}}, {"name": "batch_normalization_42/moving_variance", "shape": [128], "dtype": "float32", "quantization": {"dtype": "uint8", "min": 0.13529016077518463, "scale": 0.011006318763190625, "original_dtype": "float32"}}, {"name": "batch_normalization_43/gamma", "shape": [512], "dtype": "float32", "quantization": {"dtype": "uint8", "min": 0.9418286681175232, "scale": 0.0005360797339794682, "original_dtype": "float32"}}, {"name": "batch_normalization_43/beta", "shape": [512], "dtype": "float32", "quantization": {"dtype": "uint8", "min": -0.05456601876546355, "scale": 0.00037119740656777926, "original_dtype": "float32"}}, {"name": "batch_normalization_43/moving_mean", "shape": [512], "dtype": "float32", "quantization": {"dtype": "uint8", "min": -4.140457013074089, "scale": 0.04182279811185949, "original_dtype": "float32"}}, {"name": "batch_normalization_43/moving_variance", "shape": [512], "dtype": "float32", "quantization": {"dtype": "uint8", "min": 2.712940216064453, "scale": 0.02063441370047775, "original_dtype": "float32"}}, {"name": "batch_normalization_44/gamma", "shape": [32], "dtype": "float32", "quantization": {"dtype": "uint8", "min": 0.970641016960144, "scale": 0.0003685722164079255, "original_dtype": "float32"}}, {"name": "batch_normalization_44/beta", "shape": [32], "dtype": "float32", "quantization": {"dtype": "uint8", "min": -0.02785828787760407, "scale": 0.0002126586860885807, "original_dtype": "float32"}}, {"name": "batch_normalization_44/moving_mean", "shape": [32], "dtype": "float32", "quantization": {"dtype": "uint8", "min": 2.24744053411996e-05, "scale": 0.9496744508701322, "original_dtype": "float32"}}, {"name": "batch_normalization_44/moving_variance", "shape": [32], "dtype": "float32", "quantization": {"dtype": "uint8", "min": 5.1450271712383255e-05, "scale": 56.486963646273445, "original_dtype": "float32"}}, {"name": "batch_normalization_45/gamma", "shape": [64], "dtype": "float32", "quantization": {"dtype": "uint8", "min": 0.9822036027908325, "scale": 0.0001492444206686581, "original_dtype": "float32"}}, {"name": "batch_normalization_45/beta", "shape": [64], "dtype": "float32", "quantization": {"dtype": "uint8", "min": -0.03300464996593255, "scale": 0.00017100854904628267, "original_dtype": "float32"}}, {"name": "batch_normalization_45/moving_mean", "shape": [64], "dtype": "float32", "quantization": {"dtype": "uint8", "min": 0.16454818844795227, "scale": 0.002438120631610646, "original_dtype": "float32"}}, {"name": "batch_normalization_45/moving_variance", "shape": [64], "dtype": "float32", "quantization": {"dtype": "uint8", "min": 0.09466064721345901, "scale": 0.005014248426054038, "original_dtype": "float32"}}, {"name": "batch_normalization_46/gamma", "shape": [128], "dtype": "float32", "quantization": {"dtype": "uint8", "min": 0.9763198494911194, "scale": 0.00021924902411068188, "original_dtype": "float32"}}, {"name": "batch_normalization_46/beta", "shape": [128], "dtype": "float32", "quantization": {"dtype": "uint8", "min": -0.03247485180184537, "scale": 0.00014965369493937959, "original_dtype": "float32"}}, {"name": "batch_normalization_46/moving_mean", "shape": [128], "dtype": "float32", "quantization": {"dtype": "uint8", "min": 0.11740764230489731, "scale": 0.004854633439989651, "original_dtype": "float32"}}, {"name": "batch_normalization_46/moving_variance", "shape": [128], "dtype": "float32", "quantization": {"dtype": "uint8", "min": 0.11479135602712631, "scale": 0.01245335799221899, "original_dtype": "float32"}}, {"name": "batch_normalization_47/gamma", "shape": [512], "dtype": "float32", "quantization": {"dtype": "uint8", "min": 0.9751169681549072, "scale": 0.00022008232041901234, "original_dtype": "float32"}}, {"name": "batch_normalization_47/beta", "shape": [512], "dtype": "float32", "quantization": {"dtype": "uint8", "min": -0.04239517273563965, "scale": 0.00023817512772831263, "original_dtype": "float32"}}, {"name": "batch_normalization_47/moving_mean", "shape": [512], "dtype": "float32", "quantization": {"dtype": "uint8", "min": -0.3351536813904258, "scale": 0.00325391923680025, "original_dtype": "float32"}}, {"name": "batch_normalization_47/moving_variance", "shape": [512], "dtype": "float32", "quantization": {"dtype": "uint8", "min": 0.001535454299300909, "scale": 0.0006496737053727403, "original_dtype": "float32"}}, {"name": "batch_normalization_48/gamma", "shape": [32], "dtype": "float32", "quantization": {"dtype": "uint8", "min": 0.9735751748085022, "scale": 0.00036133527755737304, "original_dtype": "float32"}}, {"name": "batch_normalization_48/beta", "shape": [32], "dtype": "float32", "quantization": {"dtype": "uint8", "min": -0.02652294765792641, "scale": 0.0002040226742917416, "original_dtype": "float32"}}, {"name": "batch_normalization_48/moving_mean", "shape": [32], "dtype": "float32", "quantization": {"dtype": "uint8", "min": 0.00014748709509149194, "scale": 0.89397052446467, "original_dtype": "float32"}}, {"name": "batch_normalization_48/moving_variance", "shape": [32], "dtype": "float32", "quantization": {"dtype": "uint8", "min": 0.0010081337532028556, "scale": 46.46511936148528, "original_dtype": "float32"}}, {"name": "batch_normalization_49/gamma", "shape": [64], "dtype": "float32", "quantization": {"dtype": "uint8", "min": 0.9825275540351868, "scale": 0.0001570568365209243, "original_dtype": "float32"}}, {"name": "batch_normalization_49/beta", "shape": [64], "dtype": "float32", "quantization": {"dtype": "uint8", "min": -0.0262408270555384, "scale": 0.00018222796566346112, "original_dtype": "float32"}}, {"name": "batch_normalization_49/moving_mean", "shape": [64], "dtype": "float32", "quantization": {"dtype": "uint8", "min": 0.1591746211051941, "scale": 0.0032952224507051355, "original_dtype": "float32"}}, {"name": "batch_normalization_49/moving_variance", "shape": [64], "dtype": "float32", "quantization": {"dtype": "uint8", "min": 0.15396587550640106, "scale": 0.005119594230371363, "original_dtype": "float32"}}, {"name": "batch_normalization_50/gamma", "shape": [128], "dtype": "float32", "quantization": {"dtype": "uint8", "min": 0.9801968932151794, "scale": 0.00015864395627788468, "original_dtype": "float32"}}, {"name": "batch_normalization_50/beta", "shape": [128], "dtype": "float32", "quantization": {"dtype": "uint8", "min": -0.026262757403082124, "scale": 0.00012102653181143836, "original_dtype": "float32"}}, {"name": "batch_normalization_50/moving_mean", "shape": [128], "dtype": "float32", "quantization": {"dtype": "uint8", "min": 0.12845224142074585, "scale": 0.004565821675693287, "original_dtype": "float32"}}, {"name": "batch_normalization_50/moving_variance", "shape": [128], "dtype": "float32", "quantization": {"dtype": "uint8", "min": 0.1053093746304512, "scale": 0.013261421492286757, "original_dtype": "float32"}}, {"name": "batch_normalization_51/gamma", "shape": [512], "dtype": "float32", "quantization": {"dtype": "uint8", "min": 0.9661436080932617, "scale": 0.0004421075185139974, "original_dtype": "float32"}}, {"name": "batch_normalization_51/beta", "shape": [512], "dtype": "float32", "quantization": {"dtype": "uint8", "min": -0.03677594159163681, "scale": 0.000417908427177691, "original_dtype": "float32"}}, {"name": "batch_normalization_51/moving_mean", "shape": [512], "dtype": "float32", "quantization": {"dtype": "uint8", "min": -6.9155849606383075, "scale": 0.059617111729640584, "original_dtype": "float32"}}, {"name": "batch_normalization_51/moving_variance", "shape": [512], "dtype": "float32", "quantization": {"dtype": "uint8", "min": 4.332698345184326, "scale": 0.04605065327064664, "original_dtype": "float32"}}, {"name": "batch_normalization_52/gamma", "shape": [32], "dtype": "float32", "quantization": {"dtype": "uint8", "min": 0.9595438838005066, "scale": 0.00042440073162901634, "original_dtype": "float32"}}, {"name": "batch_normalization_52/beta", "shape": [32], "dtype": "float32", "quantization": {"dtype": "uint8", "min": -0.025334860355246302, "scale": 0.00016034721743826772, "original_dtype": "float32"}}, {"name": "batch_normalization_52/moving_mean", "shape": [32], "dtype": "float32", "quantization": {"dtype": "uint8", "min": 0.0002785643737297505, "scale": 2.1184035204123823, "original_dtype": "float32"}}, {"name": "batch_normalization_52/moving_variance", "shape": [32], "dtype": "float32", "quantization": {"dtype": "uint8", "min": 0.004182422999292612, "scale": 282.75562085324316, "original_dtype": "float32"}}, {"name": "batch_normalization_53/gamma", "shape": [64], "dtype": "float32", "quantization": {"dtype": "uint8", "min": 0.9761346578598022, "scale": 0.0001907049440870098, "original_dtype": "float32"}}, {"name": "batch_normalization_53/beta", "shape": [64], "dtype": "float32", "quantization": {"dtype": "uint8", "min": -0.04457366148046419, "scale": 0.0002262622410175847, "original_dtype": "float32"}}, {"name": "batch_normalization_53/moving_mean", "shape": [64], "dtype": "float32", "quantization": {"dtype": "uint8", "min": 0.14090445637702942, "scale": 0.0033189812127281636, "original_dtype": "float32"}}, {"name": "batch_normalization_53/moving_variance", "shape": [64], "dtype": "float32", "quantization": {"dtype": "uint8", "min": 0.09586413204669952, "scale": 0.006895880780968012, "original_dtype": "float32"}}, {"name": "batch_normalization_54/gamma", "shape": [128], "dtype": "float32", "quantization": {"dtype": "uint8", "min": 0.9816362261772156, "scale": 0.0001588108492832558, "original_dtype": "float32"}}, {"name": "batch_normalization_54/beta", "shape": [128], "dtype": "float32", "quantization": {"dtype": "uint8", "min": -0.027732460719405435, "scale": 0.0001308134939594596, "original_dtype": "float32"}}, {"name": "batch_normalization_54/moving_mean", "shape": [128], "dtype": "float32", "quantization": {"dtype": "uint8", "min": 0.135722815990448, "scale": 0.004978505069134282, "original_dtype": "float32"}}, {"name": "batch_normalization_54/moving_variance", "shape": [128], "dtype": "float32", "quantization": {"dtype": "uint8", "min": 0.12863367795944214, "scale": 0.013654004125034107, "original_dtype": "float32"}}, {"name": "batch_normalization_55/gamma", "shape": [512], "dtype": "float32", "quantization": {"dtype": "uint8", "min": 0.9670693278312683, "scale": 0.00046921781465119006, "original_dtype": "float32"}}, {"name": "batch_normalization_55/beta", "shape": [512], "dtype": "float32", "quantization": {"dtype": "uint8", "min": -0.03682126262608697, "scale": 0.0004383483645962734, "original_dtype": "float32"}}, {"name": "batch_normalization_55/moving_mean", "shape": [512], "dtype": "float32", "quantization": {"dtype": "uint8", "min": -6.177528998431038, "scale": 0.06368586596320658, "original_dtype": "float32"}}, {"name": "batch_normalization_55/moving_variance", "shape": [512], "dtype": "float32", "quantization": {"dtype": "uint8", "min": 3.7611424922943115, "scale": 0.051723443760591396, "original_dtype": "float32"}}, {"name": "conv2d_49/kernel", "shape": [3, 3, 3, 32], "dtype": "float32", "quantization": {"dtype": "uint8", "min": -0.6138124430880827, "scale": 0.00483316884321325, "original_dtype": "float32"}}, {"name": "conv2d_49/bias", "shape": [32], "dtype": "float32", "quantization": {"dtype": "uint8", "min": -0.026591183887977227, "scale": 0.0003968833416116004, "original_dtype": "float32"}}, {"name": "conv2d_50/kernel", "shape": [3, 3, 32, 64], "dtype": "float32", "quantization": {"dtype": "uint8", "min": -0.12049576815436867, "scale": 0.0009563156202727673, "original_dtype": "float32"}}, {"name": "conv2d_50/bias", "shape": [64], "dtype": "float32", "quantization": {"dtype": "uint8", "min": -0.03204017106224509, "scale": 0.00033375178189838634, "original_dtype": "float32"}}, {"name": "conv2d_51/kernel", "shape": [3, 3, 64, 128], "dtype": "float32", "quantization": {"dtype": "uint8", "min": -0.09230308906704772, "scale": 0.0007211178833363103, "original_dtype": "float32"}}, {"name": "conv2d_51/bias", "shape": [128], "dtype": "float32", "quantization": {"dtype": "uint8", "min": -0.039290969862657434, "scale": 0.0003118330941480749, "original_dtype": "float32"}}, {"name": "conv2d_52/kernel", "shape": [3, 3, 128, 512], "dtype": "float32", "quantization": {"dtype": "uint8", "min": -0.06455066810343779, "scale": 0.00048534336919878044, "original_dtype": "float32"}}, {"name": "conv2d_52/bias", "shape": [512], "dtype": "float32", "quantization": {"dtype": "uint8", "min": -0.03454192044103847, "scale": 0.00020082511884324692, "original_dtype": "float32"}}, {"name": "conv2d_53/kernel", "shape": [3, 3, 3, 32], "dtype": "float32", "quantization": {"dtype": "uint8", "min": -0.6303267542053672, "scale": 0.004886253908568738, "original_dtype": "float32"}}, {"name": "conv2d_53/bias", "shape": [32], "dtype": "float32", "quantization": {"dtype": "uint8", "min": -0.02297091188968397, "scale": 0.00044174830557084554, "original_dtype": "float32"}}, {"name": "conv2d_54/kernel", "shape": [3, 3, 32, 64], "dtype": "float32", "quantization": {"dtype": "uint8", "min": -0.11240743173688066, "scale": 0.0008992594538950453, "original_dtype": "float32"}}, {"name": "conv2d_54/bias", "shape": [64], "dtype": "float32", "quantization": {"dtype": "uint8", "min": -0.04039296274091683, "scale": 0.00028852116243512023, "original_dtype": "float32"}}, {"name": "conv2d_55/kernel", "shape": [3, 3, 64, 128], "dtype": "float32", "quantization": {"dtype": "uint8", "min": -0.091890509251286, "scale": 0.0007123295290797364, "original_dtype": "float32"}}, {"name": "conv2d_55/bias", "shape": [128], "dtype": "float32", "quantization": {"dtype": "uint8", "min": -0.04552641554790384, "scale": 0.00025576637948260587, "original_dtype": "float32"}}, {"name": "conv2d_56/kernel", "shape": [3, 3, 128, 512], "dtype": "float32", "quantization": {"dtype": "uint8", "min": -0.07642013535780065, "scale": 0.000545858109698576, "original_dtype": "float32"}}, {"name": "conv2d_56/bias", "shape": [512], "dtype": "float32", "quantization": {"dtype": "uint8", "min": -0.03600805200928567, "scale": 0.00021561707789991417, "original_dtype": "float32"}}, {"name": "conv2d_57/kernel", "shape": [3, 3, 512, 512], "dtype": "float32", "quantization": {"dtype": "uint8", "min": -0.07705929305623559, "scale": 0.0005708095781943377, "original_dtype": "float32"}}, {"name": "conv2d_57/bias", "shape": [512], "dtype": "float32", "quantization": {"dtype": "uint8", "min": -0.017017402923574634, "scale": 0.00014670174934116063, "original_dtype": "float32"}}, {"name": "conv2d_58/kernel", "shape": [3, 3, 512, 512], "dtype": "float32", "quantization": {"dtype": "uint8", "min": -0.08112684897347992, "scale": 0.0005713158378414079, "original_dtype": "float32"}}, {"name": "conv2d_58/bias", "shape": [512], "dtype": "float32", "quantization": {"dtype": "uint8", "min": -0.025547702522838816, "scale": 0.00022410265370911243, "original_dtype": "float32"}}, {"name": "conv2d_59/kernel", "shape": [3, 3, 512, 512], "dtype": "float32", "quantization": {"dtype": "uint8", "min": -0.06978293522900225, "scale": 0.0005767184729669608, "original_dtype": "float32"}}, {"name": "conv2d_59/bias", "shape": [512], "dtype": "float32", "quantization": {"dtype": "uint8", "min": -0.028190615561370758, "scale": 0.0002057709165063559, "original_dtype": "float32"}}, {"name": "conv2d_60/kernel", "shape": [3, 3, 512, 512], "dtype": "float32", "quantization": {"dtype": "uint8", "min": -0.08098714947700501, "scale": 0.0005826413631439209, "original_dtype": "float32"}}, {"name": "conv2d_60/bias", "shape": [512], "dtype": "float32", "quantization": {"dtype": "uint8", "min": -0.018202092367060045, "scale": 0.00021930231767542223, "original_dtype": "float32"}}, {"name": "conv2d_61/kernel", "shape": [3, 3, 512, 512], "dtype": "float32", "quantization": {"dtype": "uint8", "min": -0.0667556089513442, "scale": 0.0005215281949323766, "original_dtype": "float32"}}, {"name": "conv2d_61/bias", "shape": [512], "dtype": "float32", "quantization": {"dtype": "uint8", "min": -0.023498681187629697, "scale": 0.00019746790913974536, "original_dtype": "float32"}}, {"name": "conv2d_62/kernel", "shape": [3, 3, 512, 512], "dtype": "float32", "quantization": {"dtype": "uint8", "min": -0.06416548858670627, "scale": 0.0005484229793735579, "original_dtype": "float32"}}, {"name": "conv2d_62/bias", "shape": [512], "dtype": "float32", "quantization": {"dtype": "uint8", "min": -0.010988204181194306, "scale": 0.00016648794213930767, "original_dtype": "float32"}}, {"name": "conv2d_63/kernel", "shape": [3, 3, 512, 512], "dtype": "float32", "quantization": {"dtype": "uint8", "min": -0.0591127834483689, "scale": 0.00051402420389886, "original_dtype": "float32"}}, {"name": "conv2d_63/bias", "shape": [512], "dtype": "float32", "quantization": {"dtype": "uint8", "min": -0.02138760916012175, "scale": 0.00017388300130180285, "original_dtype": "float32"}}, {"name": "conv2d_64/kernel", "shape": [3, 3, 3, 32], "dtype": "float32", "quantization": {"dtype": "uint8", "min": -0.6049697875976563, "scale": 0.00472632646560669, "original_dtype": "float32"}}, {"name": "conv2d_64/bias", "shape": [32], "dtype": "float32", "quantization": {"dtype": "uint8", "min": -0.03225892900544055, "scale": 0.0003258477677317227, "original_dtype": "float32"}}, {"name": "conv2d_65/kernel", "shape": [3, 3, 32, 64], "dtype": "float32", "quantization": {"dtype": "uint8", "min": -0.12323294054059422, "scale": 0.0009479456964661093, "original_dtype": "float32"}}, {"name": "conv2d_65/bias", "shape": [64], "dtype": "float32", "quantization": {"dtype": "uint8", "min": -0.02039959325509913, "scale": 0.0001699966104591594, "original_dtype": "float32"}}, {"name": "conv2d_66/kernel", "shape": [3, 3, 64, 128], "dtype": "float32", "quantization": {"dtype": "uint8", "min": -0.08281484807238859, "scale": 0.0006419755664526247, "original_dtype": "float32"}}, {"name": "conv2d_66/bias", "shape": [128], "dtype": "float32", "quantization": {"dtype": "uint8", "min": -0.025457660196458592, "scale": 0.00018447579852506226, "original_dtype": "float32"}}, {"name": "conv2d_67/kernel", "shape": [3, 3, 128, 512], "dtype": "float32", "quantization": {"dtype": "uint8", "min": -0.06113368113543473, "scale": 0.0004666693216445399, "original_dtype": "float32"}}, {"name": "conv2d_67/bias", "shape": [512], "dtype": "float32", "quantization": {"dtype": "uint8", "min": -0.017430096119642257, "scale": 0.0001351170241832733, "original_dtype": "float32"}}, {"name": "conv2d_68/kernel", "shape": [3, 3, 512, 512], "dtype": "float32", "quantization": {"dtype": "uint8", "min": -0.056470952928066254, "scale": 0.00043439194560050963, "original_dtype": "float32"}}, {"name": "conv2d_68/bias", "shape": [512], "dtype": "float32", "quantization": {"dtype": "uint8", "min": -0.0095533108448281, "scale": 6.368873896552067e-05, "original_dtype": "float32"}}, {"name": "conv2d_69/kernel", "shape": [3, 3, 3, 32], "dtype": "float32", "quantization": {"dtype": "uint8", "min": -0.6293583589441636, "scale": 0.004916862179251278, "original_dtype": "float32"}}, {"name": "conv2d_69/bias", "shape": [32], "dtype": "float32", "quantization": {"dtype": "uint8", "min": -0.024703357500188493, "scale": 0.00034310218750261795, "original_dtype": "float32"}}, {"name": "conv2d_70/kernel", "shape": [3, 3, 32, 64], "dtype": "float32", "quantization": {"dtype": "uint8", "min": -0.11444285912256615, "scale": 0.0009458087530790591, "original_dtype": "float32"}}, {"name": "conv2d_70/bias", "shape": [64], "dtype": "float32", "quantization": {"dtype": "uint8", "min": -0.03537692874670029, "scale": 0.00026205132404963176, "original_dtype": "float32"}}, {"name": "conv2d_71/kernel", "shape": [3, 3, 64, 128], "dtype": "float32", "quantization": {"dtype": "uint8", "min": -0.08692979149374308, "scale": 0.0006635861946087258, "original_dtype": "float32"}}, {"name": "conv2d_71/bias", "shape": [128], "dtype": "float32", "quantization": {"dtype": "uint8", "min": -0.025268475324207663, "scale": 0.00016302242144650104, "original_dtype": "float32"}}, {"name": "conv2d_72/kernel", "shape": [3, 3, 128, 512], "dtype": "float32", "quantization": {"dtype": "uint8", "min": -0.06987888317774324, "scale": 0.0005027257782571456, "original_dtype": "float32"}}, {"name": "conv2d_72/bias", "shape": [512], "dtype": "float32", "quantization": {"dtype": "uint8", "min": -0.018067397308700224, "scale": 0.00011581664941474503, "original_dtype": "float32"}}, {"name": "conv2d_73/kernel", "shape": [3, 3, 512, 512], "dtype": "float32", "quantization": {"dtype": "uint8", "min": -0.055544461792006214, "scale": 0.0004515809901789123, "original_dtype": "float32"}}, {"name": "conv2d_73/bias", "shape": [512], "dtype": "float32", "quantization": {"dtype": "uint8", "min": -0.01105714924633503, "scale": 7.52187023560206e-05, "original_dtype": "float32"}}, {"name": "conv2d_74/kernel", "shape": [3, 3, 3, 32], "dtype": "float32", "quantization": {"dtype": "uint8", "min": -0.6087123239741605, "scale": 0.004831050190271116, "original_dtype": "float32"}}, {"name": "conv2d_74/bias", "shape": [32], "dtype": "float32", "quantization": {"dtype": "uint8", "min": -0.010422367602586746, "scale": 0.00020436014907032835, "original_dtype": "float32"}}, {"name": "conv2d_75/kernel", "shape": [3, 3, 32, 64], "dtype": "float32", "quantization": {"dtype": "uint8", "min": -0.11129252127572602, "scale": 0.0009431569599637798, "original_dtype": "float32"}}, {"name": "conv2d_75/bias", "shape": [64], "dtype": "float32", "quantization": {"dtype": "uint8", "min": -0.029037153092669504, "scale": 0.00022336271609745773, "original_dtype": "float32"}}, {"name": "conv2d_76/kernel", "shape": [3, 3, 64, 128], "dtype": "float32", "quantization": {"dtype": "uint8", "min": -0.08088068529671313, "scale": 0.0006522635911025253, "original_dtype": "float32"}}, {"name": "conv2d_76/bias", "shape": [128], "dtype": "float32", "quantization": {"dtype": "uint8", "min": -0.03263242214041598, "scale": 0.00021754948093610652, "original_dtype": "float32"}}, {"name": "conv2d_77/kernel", "shape": [3, 3, 128, 512], "dtype": "float32", "quantization": {"dtype": "uint8", "min": -0.05816449420709236, "scale": 0.00043406338960516686, "original_dtype": "float32"}}, {"name": "conv2d_77/bias", "shape": [512], "dtype": "float32", "quantization": {"dtype": "uint8", "min": -0.020530446991324423, "scale": 0.00013418592804787205, "original_dtype": "float32"}}, {"name": "conv2d_78/kernel", "shape": [3, 3, 512, 512], "dtype": "float32", "quantization": {"dtype": "uint8", "min": -0.05251621678471565, "scale": 0.0004071024556954702, "original_dtype": "float32"}}, {"name": "conv2d_78/bias", "shape": [512], "dtype": "float32", "quantization": {"dtype": "uint8", "min": -0.005870082360856673, "scale": 5.870082360856673e-05, "original_dtype": "float32"}}, {"name": "conv2d_79/kernel", "shape": [3, 3, 3, 32], "dtype": "float32", "quantization": {"dtype": "uint8", "min": -0.6074874877929688, "scale": 0.004745995998382569, "original_dtype": "float32"}}, {"name": "conv2d_79/bias", "shape": [32], "dtype": "float32", "quantization": {"dtype": "uint8", "min": -0.00414426340995466, "scale": 0.00012558373969559576, "original_dtype": "float32"}}, {"name": "conv2d_80/kernel", "shape": [3, 3, 32, 64], "dtype": "float32", "quantization": {"dtype": "uint8", "min": -0.11505095689904456, "scale": 0.00092783029757294, "original_dtype": "float32"}}, {"name": "conv2d_80/bias", "shape": [64], "dtype": "float32", "quantization": {"dtype": "uint8", "min": -0.021611981488326017, "scale": 0.00018315238549428828, "original_dtype": "float32"}}, {"name": "conv2d_81/kernel", "shape": [3, 3, 64, 128], "dtype": "float32", "quantization": {"dtype": "uint8", "min": -0.083900234745998, "scale": 0.0006554705839531094, "original_dtype": "float32"}}, {"name": "conv2d_81/bias", "shape": [128], "dtype": "float32", "quantization": {"dtype": "uint8", "min": -0.0269073938768284, "scale": 0.0001842972183344411, "original_dtype": "float32"}}, {"name": "conv2d_82/kernel", "shape": [3, 3, 128, 512], "dtype": "float32", "quantization": {"dtype": "uint8", "min": -0.06314034172717263, "scale": 0.0004575387081679176, "original_dtype": "float32"}}, {"name": "conv2d_82/bias", "shape": [512], "dtype": "float32", "quantization": {"dtype": "uint8", "min": -0.017157688824569476, "scale": 0.00013300533972534478, "original_dtype": "float32"}}, {"name": "conv2d_83/kernel", "shape": [3, 3, 512, 512], "dtype": "float32", "quantization": {"dtype": "uint8", "min": -0.053303077174168004, "scale": 0.00041643029042318753, "original_dtype": "float32"}}, {"name": "conv2d_83/bias", "shape": [512], "dtype": "float32", "quantization": {"dtype": "uint8", "min": -0.00732299795593409, "scale": 5.9536568747431625e-05, "original_dtype": "float32"}}, {"name": "dense_21/kernel", "shape": [41472, 128], "dtype": "float32", "quantization": {"dtype": "uint8", "min": -0.04719964785903108, "scale": 0.0003900797343721577, "original_dtype": "float32"}}, {"name": "dense_21/bias", "shape": [128], "dtype": "float32", "quantization": {"dtype": "uint8", "min": -5.883933781125747e-05, "scale": 5.448086834375692e-07, "original_dtype": "float32"}}, {"name": "dense_22/kernel", "shape": [128, 64], "dtype": "float32", "quantization": {"dtype": "uint8", "min": -0.09586229499648599, "scale": 0.0007730830241652096, "original_dtype": "float32"}}, {"name": "dense_22/bias", "shape": [64], "dtype": "float32", "quantization": {"dtype": "uint8", "min": -0.00017449049377247838, "scale": 2.1022951056925105e-06, "original_dtype": "float32"}}, {"name": "dense_23/kernel", "shape": [64, 7], "dtype": "float32", "quantization": {"dtype": "uint8", "min": -0.43771094153909124, "scale": 0.003315991981356752, "original_dtype": "float32"}}, {"name": "dense_23/bias", "shape": [7], "dtype": "float32", "quantization": {"dtype": "uint8", "min": -0.13554382335905935, "scale": 0.0009545339673173194, "original_dtype": "float32"}}, {"name": "dense_24/kernel", "shape": [512, 512], "dtype": "float32", "quantization": {"dtype": "uint8", "min": -0.09995792554874046, "scale": 0.0008193272585962333, "original_dtype": "float32"}}, {"name": "dense_24/bias", "shape": [512], "dtype": "float32", "quantization": {"dtype": "uint8", "min": -0.00015703456501439943, "scale": 1.2079581924184572e-06, "original_dtype": "float32"}}, {"name": "dense_25/kernel", "shape": [512, 512], "dtype": "float32", "quantization": {"dtype": "uint8", "min": -0.04332954966846634, "scale": 0.00034117755644461685, "original_dtype": "float32"}}, {"name": "dense_25/bias", "shape": [512], "dtype": "float32", "quantization": {"dtype": "uint8", "min": -0.0003946812083835111, "scale": 3.344756003250094e-06, "original_dtype": "float32"}}, {"name": "dense_26/kernel", "shape": [512, 5], "dtype": "float32", "quantization": {"dtype": "uint8", "min": -0.11134858400213953, "scale": 0.0008565275692472271, "original_dtype": "float32"}}, {"name": "dense_26/bias", "shape": [5], "dtype": "float32", "quantization": {"dtype": "uint8", "min": -0.019021504233572996, "scale": 0.00013395425516600702, "original_dtype": "float32"}}, {"name": "dense_27/kernel", "shape": [41472, 512], "dtype": "float32", "quantization": {"dtype": "uint8", "min": -0.040831033155029894, "scale": 0.0003519916651295681, "original_dtype": "float32"}}, {"name": "dense_27/bias", "shape": [512], "dtype": "float32", "quantization": {"dtype": "uint8", "min": -1.2289398585505529e-05, "scale": 8.417396291442142e-08, "original_dtype": "float32"}}, {"name": "dense_28/kernel", "shape": [512, 2], "dtype": "float32", "quantization": {"dtype": "uint8", "min": -0.1468799448480793, "scale": 0.001184515684258704, "original_dtype": "float32"}}, {"name": "dense_28/bias", "shape": [2], "dtype": "float32", "quantization": {"dtype": "uint8", "min": -0.018340555008719946, "scale": 0.0001389435985509087, "original_dtype": "float32"}}, {"name": "dense_29/kernel", "shape": [41472, 512], "dtype": "float32", "quantization": {"dtype": "uint8", "min": -0.012386787039976494, "scale": 9.989344387077817e-05, "original_dtype": "float32"}}, {"name": "dense_29/bias", "shape": [512], "dtype": "float32", "quantization": {"dtype": "uint8", "min": -6.649240342941245e-05, "scale": 5.884283489328536e-07, "original_dtype": "float32"}}, {"name": "dense_30/kernel", "shape": [512, 4], "dtype": "float32", "quantization": {"dtype": "uint8", "min": -0.1287341165191987, "scale": 0.0009979388877457264, "original_dtype": "float32"}}, {"name": "dense_30/bias", "shape": [4], "dtype": "float32", "quantization": {"dtype": "uint8", "min": -0.014450535101487355, "scale": 8.975487640675376e-05, "original_dtype": "float32"}}, {"name": "dense_31/kernel", "shape": [41472, 512], "dtype": "float32", "quantization": {"dtype": "uint8", "min": -0.040227327320505595, "scale": 0.0003167506088228787, "original_dtype": "float32"}}, {"name": "dense_31/bias", "shape": [512], "dtype": "float32", "quantization": {"dtype": "uint8", "min": -1.2771108609455292e-05, "scale": 1.0822973397843467e-07, "original_dtype": "float32"}}, {"name": "dense_32/kernel", "shape": [512, 2], "dtype": "float32", "quantization": {"dtype": "uint8", "min": -0.15036341197350447, "scale": 0.0011839638738071218, "original_dtype": "float32"}}, {"name": "dense_32/bias", "shape": [2], "dtype": "float32", "quantization": {"dtype": "uint8", "min": -0.03460721277138766, "scale": 0.0002768577021711013, "original_dtype": "float32"}}, {"name": "dense_33/kernel", "shape": [41472, 512], "dtype": "float32", "quantization": {"dtype": "uint8", "min": -0.038956883637344134, "scale": 0.00031165506909875307, "original_dtype": "float32"}}, {"name": "dense_33/bias", "shape": [512], "dtype": "float32", "quantization": {"dtype": "uint8", "min": -8.690633223844035e-06, "scale": 7.065555466539866e-08, "original_dtype": "float32"}}, {"name": "dense_34/kernel", "shape": [512, 2], "dtype": "float32", "quantization": {"dtype": "uint8", "min": -0.15095524507410385, "scale": 0.0011793378521414363, "original_dtype": "float32"}}, {"name": "dense_34/bias", "shape": [2], "dtype": "float32", "quantization": {"dtype": "uint8", "min": -0.03557550579893823, "scale": 0.0002779336390542049, "original_dtype": "float32"}}]}]}