{"format": "layers-model", "generatedBy": "keras v2.8.0", "convertedBy": "TensorFlow.js Converter v3.20.0", "modelTopology": {"keras_version": "2.8.0", "backend": "tensorflow", "model_config": {"class_name": "Model", "config": {"name": "face_descriptor_by_rebeca", "layers": [{"class_name": "InputLayer", "config": {"batch_input_shape": [null, 218, 218, 3], "dtype": "float32", "sparse": false, "ragged": false, "name": "input_42"}, "name": "input_42", "inbound_nodes": []}, {"class_name": "Conv2D", "config": {"name": "conv2d_244", "trainable": true, "dtype": "float32", "filters": 64, "kernel_size": [3, 3], "strides": [1, 1], "padding": "same", "data_format": "channels_last", "dilation_rate": [1, 1], "groups": 1, "activation": "linear", "use_bias": true, "kernel_initializer": {"class_name": "HeNormal", "config": {"seed": null}}, "bias_initializer": {"class_name": "Zeros", "config": {}}, "kernel_regularizer": null, "bias_regularizer": null, "activity_regularizer": null, "kernel_constraint": null, "bias_constraint": null}, "name": "conv2d_244", "inbound_nodes": [[["input_42", 0, 0, {}]]]}, {"class_name": "Activation", "config": {"name": "activation_106", "trainable": true, "dtype": "float32", "activation": "relu"}, "name": "activation_106", "inbound_nodes": [[["conv2d_244", 0, 0, {}]]]}, {"class_name": "BatchNormalization", "config": {"name": "batch_normalization_104", "trainable": true, "dtype": "float32", "axis": [3], "momentum": 0.99, "epsilon": 0.001, "center": true, "scale": true, "beta_initializer": {"class_name": "Zeros", "config": {}}, "gamma_initializer": {"class_name": "Ones", "config": {}}, "moving_mean_initializer": {"class_name": "Zeros", "config": {}}, "moving_variance_initializer": {"class_name": "Ones", "config": {}}, "beta_regularizer": null, "gamma_regularizer": null, "beta_constraint": null, "gamma_constraint": null}, "name": "batch_normalization_104", "inbound_nodes": [[["activation_106", 0, 0, {}]]]}, {"class_name": "MaxPooling2D", "config": {"name": "max_pooling2d_163", "trainable": true, "dtype": "float32", "pool_size": [3, 3], "padding": "valid", "strides": [3, 3], "data_format": "channels_last"}, "name": "max_pooling2d_163", "inbound_nodes": [[["batch_normalization_104", 0, 0, {}]]]}, {"class_name": "Conv2D", "config": {"name": "conv2d_240", "trainable": true, "dtype": "float32", "filters": 64, "kernel_size": [3, 3], "strides": [1, 1], "padding": "same", "data_format": "channels_last", "dilation_rate": [1, 1], "groups": 1, "activation": "linear", "use_bias": true, "kernel_initializer": {"class_name": "HeNormal", "config": {"seed": null}}, "bias_initializer": {"class_name": "Zeros", "config": {}}, "kernel_regularizer": null, "bias_regularizer": null, "activity_regularizer": null, "kernel_constraint": null, "bias_constraint": null}, "name": "conv2d_240", "inbound_nodes": [[["input_42", 0, 0, {}]]]}, {"class_name": "Dropout", "config": {"name": "dropout_119", "trainable": true, "dtype": "float32", "rate": 0.25, "noise_shape": null, "seed": null}, "name": "dropout_119", "inbound_nodes": [[["max_pooling2d_163", 0, 0, {}]]]}, {"class_name": "Activation", "config": {"name": "activation_102", "trainable": true, "dtype": "float32", "activation": "relu"}, "name": "activation_102", "inbound_nodes": [[["conv2d_240", 0, 0, {}]]]}, {"class_name": "Conv2D", "config": {"name": "conv2d_245", "trainable": true, "dtype": "float32", "filters": 128, "kernel_size": [3, 3], "strides": [1, 1], "padding": "same", "data_format": "channels_last", "dilation_rate": [1, 1], "groups": 1, "activation": "linear", "use_bias": true, "kernel_initializer": {"class_name": "GlorotUniform", "config": {"seed": null}}, "bias_initializer": {"class_name": "Zeros", "config": {}}, "kernel_regularizer": null, "bias_regularizer": null, "activity_regularizer": null, "kernel_constraint": null, "bias_constraint": null}, "name": "conv2d_245", "inbound_nodes": [[["dropout_119", 0, 0, {}]]]}, {"class_name": "BatchNormalization", "config": {"name": "batch_normalization_100", "trainable": true, "dtype": "float32", "axis": [3], "momentum": 0.99, "epsilon": 0.001, "center": true, "scale": true, "beta_initializer": {"class_name": "Zeros", "config": {}}, "gamma_initializer": {"class_name": "Ones", "config": {}}, "moving_mean_initializer": {"class_name": "Zeros", "config": {}}, "moving_variance_initializer": {"class_name": "Ones", "config": {}}, "beta_regularizer": null, "gamma_regularizer": null, "beta_constraint": null, "gamma_constraint": null}, "name": "batch_normalization_100", "inbound_nodes": [[["activation_102", 0, 0, {}]]]}, {"class_name": "Activation", "config": {"name": "activation_107", "trainable": true, "dtype": "float32", "activation": "relu"}, "name": "activation_107", "inbound_nodes": [[["conv2d_245", 0, 0, {}]]]}, {"class_name": "MaxPooling2D", "config": {"name": "max_pooling2d_159", "trainable": true, "dtype": "float32", "pool_size": [3, 3], "padding": "valid", "strides": [3, 3], "data_format": "channels_last"}, "name": "max_pooling2d_159", "inbound_nodes": [[["batch_normalization_100", 0, 0, {}]]]}, {"class_name": "BatchNormalization", "config": {"name": "batch_normalization_105", "trainable": true, "dtype": "float32", "axis": [3], "momentum": 0.99, "epsilon": 0.001, "center": true, "scale": true, "beta_initializer": {"class_name": "Zeros", "config": {}}, "gamma_initializer": {"class_name": "Ones", "config": {}}, "moving_mean_initializer": {"class_name": "Zeros", "config": {}}, "moving_variance_initializer": {"class_name": "Ones", "config": {}}, "beta_regularizer": null, "gamma_regularizer": null, "beta_constraint": null, "gamma_constraint": null}, "name": "batch_normalization_105", "inbound_nodes": [[["activation_107", 0, 0, {}]]]}, {"class_name": "Conv2D", "config": {"name": "conv2d_249", "trainable": true, "dtype": "float32", "filters": 64, "kernel_size": [3, 3], "strides": [1, 1], "padding": "same", "data_format": "channels_last", "dilation_rate": [1, 1], "groups": 1, "activation": "linear", "use_bias": true, "kernel_initializer": {"class_name": "HeNormal", "config": {"seed": null}}, "bias_initializer": {"class_name": "Zeros", "config": {}}, "kernel_regularizer": null, "bias_regularizer": null, "activity_regularizer": null, "kernel_constraint": null, "bias_constraint": null}, "name": "conv2d_249", "inbound_nodes": [[["input_42", 0, 0, {}]]]}, {"class_name": "Conv2D", "config": {"name": "conv2d_252", "trainable": true, "dtype": "float32", "filters": 64, "kernel_size": [3, 3], "strides": [1, 1], "padding": "same", "data_format": "channels_last", "dilation_rate": [1, 1], "groups": 1, "activation": "linear", "use_bias": true, "kernel_initializer": {"class_name": "HeNormal", "config": {"seed": null}}, "bias_initializer": {"class_name": "Zeros", "config": {}}, "kernel_regularizer": null, "bias_regularizer": null, "activity_regularizer": null, "kernel_constraint": null, "bias_constraint": null}, "name": "conv2d_252", "inbound_nodes": [[["input_42", 0, 0, {}]]]}, {"class_name": "Conv2D", "config": {"name": "conv2d_255", "trainable": true, "dtype": "float32", "filters": 64, "kernel_size": [3, 3], "strides": [1, 1], "padding": "same", "data_format": "channels_last", "dilation_rate": [1, 1], "groups": 1, "activation": "linear", "use_bias": true, "kernel_initializer": {"class_name": "HeNormal", "config": {"seed": null}}, "bias_initializer": {"class_name": "Zeros", "config": {}}, "kernel_regularizer": null, "bias_regularizer": null, "activity_regularizer": null, "kernel_constraint": null, "bias_constraint": null}, "name": "conv2d_255", "inbound_nodes": [[["input_42", 0, 0, {}]]]}, {"class_name": "Conv2D", "config": {"name": "conv2d_258", "trainable": true, "dtype": "float32", "filters": 64, "kernel_size": [3, 3], "strides": [1, 1], "padding": "same", "data_format": "channels_last", "dilation_rate": [1, 1], "groups": 1, "activation": "linear", "use_bias": true, "kernel_initializer": {"class_name": "HeNormal", "config": {"seed": null}}, "bias_initializer": {"class_name": "Zeros", "config": {}}, "kernel_regularizer": null, "bias_regularizer": null, "activity_regularizer": null, "kernel_constraint": null, "bias_constraint": null}, "name": "conv2d_258", "inbound_nodes": [[["input_42", 0, 0, {}]]]}, {"class_name": "Dropout", "config": {"name": "dropout_114", "trainable": true, "dtype": "float32", "rate": 0.25, "noise_shape": null, "seed": null}, "name": "dropout_114", "inbound_nodes": [[["max_pooling2d_159", 0, 0, {}]]]}, {"class_name": "MaxPooling2D", "config": {"name": "max_pooling2d_164", "trainable": true, "dtype": "float32", "pool_size": [2, 2], "padding": "valid", "strides": [2, 2], "data_format": "channels_last"}, "name": "max_pooling2d_164", "inbound_nodes": [[["batch_normalization_105", 0, 0, {}]]]}, {"class_name": "Activation", "config": {"name": "activation_110", "trainable": true, "dtype": "float32", "activation": "relu"}, "name": "activation_110", "inbound_nodes": [[["conv2d_249", 0, 0, {}]]]}, {"class_name": "Activation", "config": {"name": "activation_114", "trainable": true, "dtype": "float32", "activation": "relu"}, "name": "activation_114", "inbound_nodes": [[["conv2d_252", 0, 0, {}]]]}, {"class_name": "Activation", "config": {"name": "activation_118", "trainable": true, "dtype": "float32", "activation": "relu"}, "name": "activation_118", "inbound_nodes": [[["conv2d_255", 0, 0, {}]]]}, {"class_name": "Activation", "config": {"name": "activation_122", "trainable": true, "dtype": "float32", "activation": "relu"}, "name": "activation_122", "inbound_nodes": [[["conv2d_258", 0, 0, {}]]]}, {"class_name": "Conv2D", "config": {"name": "conv2d_241", "trainable": true, "dtype": "float32", "filters": 128, "kernel_size": [3, 3], "strides": [1, 1], "padding": "same", "data_format": "channels_last", "dilation_rate": [1, 1], "groups": 1, "activation": "linear", "use_bias": true, "kernel_initializer": {"class_name": "GlorotUniform", "config": {"seed": null}}, "bias_initializer": {"class_name": "Zeros", "config": {}}, "kernel_regularizer": null, "bias_regularizer": null, "activity_regularizer": null, "kernel_constraint": null, "bias_constraint": null}, "name": "conv2d_241", "inbound_nodes": [[["dropout_114", 0, 0, {}]]]}, {"class_name": "Dropout", "config": {"name": "dropout_120", "trainable": true, "dtype": "float32", "rate": 0.25, "noise_shape": null, "seed": null}, "name": "dropout_120", "inbound_nodes": [[["max_pooling2d_164", 0, 0, {}]]]}, {"class_name": "BatchNormalization", "config": {"name": "batch_normalization_109", "trainable": true, "dtype": "float32", "axis": [3], "momentum": 0.99, "epsilon": 0.001, "center": true, "scale": true, "beta_initializer": {"class_name": "Zeros", "config": {}}, "gamma_initializer": {"class_name": "Ones", "config": {}}, "moving_mean_initializer": {"class_name": "Zeros", "config": {}}, "moving_variance_initializer": {"class_name": "Ones", "config": {}}, "beta_regularizer": null, "gamma_regularizer": null, "beta_constraint": null, "gamma_constraint": null}, "name": "batch_normalization_109", "inbound_nodes": [[["activation_110", 0, 0, {}]]]}, {"class_name": "BatchNormalization", "config": {"name": "batch_normalization_113", "trainable": true, "dtype": "float32", "axis": [3], "momentum": 0.99, "epsilon": 0.001, "center": true, "scale": true, "beta_initializer": {"class_name": "Zeros", "config": {}}, "gamma_initializer": {"class_name": "Ones", "config": {}}, "moving_mean_initializer": {"class_name": "Zeros", "config": {}}, "moving_variance_initializer": {"class_name": "Ones", "config": {}}, "beta_regularizer": null, "gamma_regularizer": null, "beta_constraint": null, "gamma_constraint": null}, "name": "batch_normalization_113", "inbound_nodes": [[["activation_114", 0, 0, {}]]]}, {"class_name": "BatchNormalization", "config": {"name": "batch_normalization_117", "trainable": true, "dtype": "float32", "axis": [3], "momentum": 0.99, "epsilon": 0.001, "center": true, "scale": true, "beta_initializer": {"class_name": "Zeros", "config": {}}, "gamma_initializer": {"class_name": "Ones", "config": {}}, "moving_mean_initializer": {"class_name": "Zeros", "config": {}}, "moving_variance_initializer": {"class_name": "Ones", "config": {}}, "beta_regularizer": null, "gamma_regularizer": null, "beta_constraint": null, "gamma_constraint": null}, "name": "batch_normalization_117", "inbound_nodes": [[["activation_118", 0, 0, {}]]]}, {"class_name": "BatchNormalization", "config": {"name": "batch_normalization_121", "trainable": true, "dtype": "float32", "axis": [3], "momentum": 0.99, "epsilon": 0.001, "center": true, "scale": true, "beta_initializer": {"class_name": "Zeros", "config": {}}, "gamma_initializer": {"class_name": "Ones", "config": {}}, "moving_mean_initializer": {"class_name": "Zeros", "config": {}}, "moving_variance_initializer": {"class_name": "Ones", "config": {}}, "beta_regularizer": null, "gamma_regularizer": null, "beta_constraint": null, "gamma_constraint": null}, "name": "batch_normalization_121", "inbound_nodes": [[["activation_122", 0, 0, {}]]]}, {"class_name": "Activation", "config": {"name": "activation_103", "trainable": true, "dtype": "float32", "activation": "relu"}, "name": "activation_103", "inbound_nodes": [[["conv2d_241", 0, 0, {}]]]}, {"class_name": "Conv2D", "config": {"name": "conv2d_246", "trainable": true, "dtype": "float32", "filters": 256, "kernel_size": [3, 3], "strides": [1, 1], "padding": "same", "data_format": "channels_last", "dilation_rate": [1, 1], "groups": 1, "activation": "linear", "use_bias": true, "kernel_initializer": {"class_name": "GlorotUniform", "config": {"seed": null}}, "bias_initializer": {"class_name": "Zeros", "config": {}}, "kernel_regularizer": null, "bias_regularizer": null, "activity_regularizer": null, "kernel_constraint": null, "bias_constraint": null}, "name": "conv2d_246", "inbound_nodes": [[["dropout_120", 0, 0, {}]]]}, {"class_name": "MaxPooling2D", "config": {"name": "max_pooling2d_168", "trainable": true, "dtype": "float32", "pool_size": [3, 3], "padding": "valid", "strides": [3, 3], "data_format": "channels_last"}, "name": "max_pooling2d_168", "inbound_nodes": [[["batch_normalization_109", 0, 0, {}]]]}, {"class_name": "MaxPooling2D", "config": {"name": "max_pooling2d_171", "trainable": true, "dtype": "float32", "pool_size": [3, 3], "padding": "valid", "strides": [3, 3], "data_format": "channels_last"}, "name": "max_pooling2d_171", "inbound_nodes": [[["batch_normalization_113", 0, 0, {}]]]}, {"class_name": "MaxPooling2D", "config": {"name": "max_pooling2d_174", "trainable": true, "dtype": "float32", "pool_size": [3, 3], "padding": "valid", "strides": [3, 3], "data_format": "channels_last"}, "name": "max_pooling2d_174", "inbound_nodes": [[["batch_normalization_117", 0, 0, {}]]]}, {"class_name": "MaxPooling2D", "config": {"name": "max_pooling2d_177", "trainable": true, "dtype": "float32", "pool_size": [3, 3], "padding": "valid", "strides": [3, 3], "data_format": "channels_last"}, "name": "max_pooling2d_177", "inbound_nodes": [[["batch_normalization_121", 0, 0, {}]]]}, {"class_name": "BatchNormalization", "config": {"name": "batch_normalization_101", "trainable": true, "dtype": "float32", "axis": [3], "momentum": 0.99, "epsilon": 0.001, "center": true, "scale": true, "beta_initializer": {"class_name": "Zeros", "config": {}}, "gamma_initializer": {"class_name": "Ones", "config": {}}, "moving_mean_initializer": {"class_name": "Zeros", "config": {}}, "moving_variance_initializer": {"class_name": "Ones", "config": {}}, "beta_regularizer": null, "gamma_regularizer": null, "beta_constraint": null, "gamma_constraint": null}, "name": "batch_normalization_101", "inbound_nodes": [[["activation_103", 0, 0, {}]]]}, {"class_name": "Activation", "config": {"name": "activation_108", "trainable": true, "dtype": "float32", "activation": "relu"}, "name": "activation_108", "inbound_nodes": [[["conv2d_246", 0, 0, {}]]]}, {"class_name": "Dropout", "config": {"name": "dropout_125", "trainable": true, "dtype": "float32", "rate": 0.25, "noise_shape": null, "seed": null}, "name": "dropout_125", "inbound_nodes": [[["max_pooling2d_168", 0, 0, {}]]]}, {"class_name": "Dropout", "config": {"name": "dropout_129", "trainable": true, "dtype": "float32", "rate": 0.25, "noise_shape": null, "seed": null}, "name": "dropout_129", "inbound_nodes": [[["max_pooling2d_171", 0, 0, {}]]]}, {"class_name": "Dropout", "config": {"name": "dropout_133", "trainable": true, "dtype": "float32", "rate": 0.25, "noise_shape": null, "seed": null}, "name": "dropout_133", "inbound_nodes": [[["max_pooling2d_174", 0, 0, {}]]]}, {"class_name": "Dropout", "config": {"name": "dropout_137", "trainable": true, "dtype": "float32", "rate": 0.25, "noise_shape": null, "seed": null}, "name": "dropout_137", "inbound_nodes": [[["max_pooling2d_177", 0, 0, {}]]]}, {"class_name": "MaxPooling2D", "config": {"name": "max_pooling2d_160", "trainable": true, "dtype": "float32", "pool_size": [2, 2], "padding": "valid", "strides": [2, 2], "data_format": "channels_last"}, "name": "max_pooling2d_160", "inbound_nodes": [[["batch_normalization_101", 0, 0, {}]]]}, {"class_name": "BatchNormalization", "config": {"name": "batch_normalization_106", "trainable": true, "dtype": "float32", "axis": [3], "momentum": 0.99, "epsilon": 0.001, "center": true, "scale": true, "beta_initializer": {"class_name": "Zeros", "config": {}}, "gamma_initializer": {"class_name": "Ones", "config": {}}, "moving_mean_initializer": {"class_name": "Zeros", "config": {}}, "moving_variance_initializer": {"class_name": "Ones", "config": {}}, "beta_regularizer": null, "gamma_regularizer": null, "beta_constraint": null, "gamma_constraint": null}, "name": "batch_normalization_106", "inbound_nodes": [[["activation_108", 0, 0, {}]]]}, {"class_name": "Conv2D", "config": {"name": "conv2d_250", "trainable": true, "dtype": "float32", "filters": 128, "kernel_size": [3, 3], "strides": [1, 1], "padding": "same", "data_format": "channels_last", "dilation_rate": [1, 1], "groups": 1, "activation": "linear", "use_bias": true, "kernel_initializer": {"class_name": "GlorotUniform", "config": {"seed": null}}, "bias_initializer": {"class_name": "Zeros", "config": {}}, "kernel_regularizer": null, "bias_regularizer": null, "activity_regularizer": null, "kernel_constraint": null, "bias_constraint": null}, "name": "conv2d_250", "inbound_nodes": [[["dropout_125", 0, 0, {}]]]}, {"class_name": "Conv2D", "config": {"name": "conv2d_253", "trainable": true, "dtype": "float32", "filters": 128, "kernel_size": [3, 3], "strides": [1, 1], "padding": "same", "data_format": "channels_last", "dilation_rate": [1, 1], "groups": 1, "activation": "linear", "use_bias": true, "kernel_initializer": {"class_name": "GlorotUniform", "config": {"seed": null}}, "bias_initializer": {"class_name": "Zeros", "config": {}}, "kernel_regularizer": null, "bias_regularizer": null, "activity_regularizer": null, "kernel_constraint": null, "bias_constraint": null}, "name": "conv2d_253", "inbound_nodes": [[["dropout_129", 0, 0, {}]]]}, {"class_name": "Conv2D", "config": {"name": "conv2d_256", "trainable": true, "dtype": "float32", "filters": 128, "kernel_size": [3, 3], "strides": [1, 1], "padding": "same", "data_format": "channels_last", "dilation_rate": [1, 1], "groups": 1, "activation": "linear", "use_bias": true, "kernel_initializer": {"class_name": "GlorotUniform", "config": {"seed": null}}, "bias_initializer": {"class_name": "Zeros", "config": {}}, "kernel_regularizer": null, "bias_regularizer": null, "activity_regularizer": null, "kernel_constraint": null, "bias_constraint": null}, "name": "conv2d_256", "inbound_nodes": [[["dropout_133", 0, 0, {}]]]}, {"class_name": "Conv2D", "config": {"name": "conv2d_259", "trainable": true, "dtype": "float32", "filters": 128, "kernel_size": [3, 3], "strides": [1, 1], "padding": "same", "data_format": "channels_last", "dilation_rate": [1, 1], "groups": 1, "activation": "linear", "use_bias": true, "kernel_initializer": {"class_name": "GlorotUniform", "config": {"seed": null}}, "bias_initializer": {"class_name": "Zeros", "config": {}}, "kernel_regularizer": null, "bias_regularizer": null, "activity_regularizer": null, "kernel_constraint": null, "bias_constraint": null}, "name": "conv2d_259", "inbound_nodes": [[["dropout_137", 0, 0, {}]]]}, {"class_name": "Dropout", "config": {"name": "dropout_115", "trainable": true, "dtype": "float32", "rate": 0.25, "noise_shape": null, "seed": null}, "name": "dropout_115", "inbound_nodes": [[["max_pooling2d_160", 0, 0, {}]]]}, {"class_name": "MaxPooling2D", "config": {"name": "max_pooling2d_165", "trainable": true, "dtype": "float32", "pool_size": [2, 2], "padding": "valid", "strides": [2, 2], "data_format": "channels_last"}, "name": "max_pooling2d_165", "inbound_nodes": [[["batch_normalization_106", 0, 0, {}]]]}, {"class_name": "Activation", "config": {"name": "activation_111", "trainable": true, "dtype": "float32", "activation": "relu"}, "name": "activation_111", "inbound_nodes": [[["conv2d_250", 0, 0, {}]]]}, {"class_name": "Activation", "config": {"name": "activation_115", "trainable": true, "dtype": "float32", "activation": "relu"}, "name": "activation_115", "inbound_nodes": [[["conv2d_253", 0, 0, {}]]]}, {"class_name": "Activation", "config": {"name": "activation_119", "trainable": true, "dtype": "float32", "activation": "relu"}, "name": "activation_119", "inbound_nodes": [[["conv2d_256", 0, 0, {}]]]}, {"class_name": "Activation", "config": {"name": "activation_123", "trainable": true, "dtype": "float32", "activation": "relu"}, "name": "activation_123", "inbound_nodes": [[["conv2d_259", 0, 0, {}]]]}, {"class_name": "Conv2D", "config": {"name": "conv2d_242", "trainable": true, "dtype": "float32", "filters": 256, "kernel_size": [3, 3], "strides": [1, 1], "padding": "same", "data_format": "channels_last", "dilation_rate": [1, 1], "groups": 1, "activation": "linear", "use_bias": true, "kernel_initializer": {"class_name": "GlorotUniform", "config": {"seed": null}}, "bias_initializer": {"class_name": "Zeros", "config": {}}, "kernel_regularizer": null, "bias_regularizer": null, "activity_regularizer": null, "kernel_constraint": null, "bias_constraint": null}, "name": "conv2d_242", "inbound_nodes": [[["dropout_115", 0, 0, {}]]]}, {"class_name": "Dropout", "config": {"name": "dropout_121", "trainable": true, "dtype": "float32", "rate": 0.25, "noise_shape": null, "seed": null}, "name": "dropout_121", "inbound_nodes": [[["max_pooling2d_165", 0, 0, {}]]]}, {"class_name": "BatchNormalization", "config": {"name": "batch_normalization_110", "trainable": true, "dtype": "float32", "axis": [3], "momentum": 0.99, "epsilon": 0.001, "center": true, "scale": true, "beta_initializer": {"class_name": "Zeros", "config": {}}, "gamma_initializer": {"class_name": "Ones", "config": {}}, "moving_mean_initializer": {"class_name": "Zeros", "config": {}}, "moving_variance_initializer": {"class_name": "Ones", "config": {}}, "beta_regularizer": null, "gamma_regularizer": null, "beta_constraint": null, "gamma_constraint": null}, "name": "batch_normalization_110", "inbound_nodes": [[["activation_111", 0, 0, {}]]]}, {"class_name": "BatchNormalization", "config": {"name": "batch_normalization_114", "trainable": true, "dtype": "float32", "axis": [3], "momentum": 0.99, "epsilon": 0.001, "center": true, "scale": true, "beta_initializer": {"class_name": "Zeros", "config": {}}, "gamma_initializer": {"class_name": "Ones", "config": {}}, "moving_mean_initializer": {"class_name": "Zeros", "config": {}}, "moving_variance_initializer": {"class_name": "Ones", "config": {}}, "beta_regularizer": null, "gamma_regularizer": null, "beta_constraint": null, "gamma_constraint": null}, "name": "batch_normalization_114", "inbound_nodes": [[["activation_115", 0, 0, {}]]]}, {"class_name": "BatchNormalization", "config": {"name": "batch_normalization_118", "trainable": true, "dtype": "float32", "axis": [3], "momentum": 0.99, "epsilon": 0.001, "center": true, "scale": true, "beta_initializer": {"class_name": "Zeros", "config": {}}, "gamma_initializer": {"class_name": "Ones", "config": {}}, "moving_mean_initializer": {"class_name": "Zeros", "config": {}}, "moving_variance_initializer": {"class_name": "Ones", "config": {}}, "beta_regularizer": null, "gamma_regularizer": null, "beta_constraint": null, "gamma_constraint": null}, "name": "batch_normalization_118", "inbound_nodes": [[["activation_119", 0, 0, {}]]]}, {"class_name": "BatchNormalization", "config": {"name": "batch_normalization_122", "trainable": true, "dtype": "float32", "axis": [3], "momentum": 0.99, "epsilon": 0.001, "center": true, "scale": true, "beta_initializer": {"class_name": "Zeros", "config": {}}, "gamma_initializer": {"class_name": "Ones", "config": {}}, "moving_mean_initializer": {"class_name": "Zeros", "config": {}}, "moving_variance_initializer": {"class_name": "Ones", "config": {}}, "beta_regularizer": null, "gamma_regularizer": null, "beta_constraint": null, "gamma_constraint": null}, "name": "batch_normalization_122", "inbound_nodes": [[["activation_123", 0, 0, {}]]]}, {"class_name": "Activation", "config": {"name": "activation_104", "trainable": true, "dtype": "float32", "activation": "relu"}, "name": "activation_104", "inbound_nodes": [[["conv2d_242", 0, 0, {}]]]}, {"class_name": "Conv2D", "config": {"name": "conv2d_247", "trainable": true, "dtype": "float32", "filters": 256, "kernel_size": [3, 3], "strides": [1, 1], "padding": "same", "data_format": "channels_last", "dilation_rate": [1, 1], "groups": 1, "activation": "relu", "use_bias": true, "kernel_initializer": {"class_name": "GlorotUniform", "config": {"seed": null}}, "bias_initializer": {"class_name": "Zeros", "config": {}}, "kernel_regularizer": null, "bias_regularizer": null, "activity_regularizer": null, "kernel_constraint": null, "bias_constraint": null}, "name": "conv2d_247", "inbound_nodes": [[["dropout_121", 0, 0, {}]]]}, {"class_name": "MaxPooling2D", "config": {"name": "max_pooling2d_169", "trainable": true, "dtype": "float32", "pool_size": [2, 2], "padding": "valid", "strides": [2, 2], "data_format": "channels_last"}, "name": "max_pooling2d_169", "inbound_nodes": [[["batch_normalization_110", 0, 0, {}]]]}, {"class_name": "MaxPooling2D", "config": {"name": "max_pooling2d_172", "trainable": true, "dtype": "float32", "pool_size": [2, 2], "padding": "valid", "strides": [2, 2], "data_format": "channels_last"}, "name": "max_pooling2d_172", "inbound_nodes": [[["batch_normalization_114", 0, 0, {}]]]}, {"class_name": "MaxPooling2D", "config": {"name": "max_pooling2d_175", "trainable": true, "dtype": "float32", "pool_size": [2, 2], "padding": "valid", "strides": [2, 2], "data_format": "channels_last"}, "name": "max_pooling2d_175", "inbound_nodes": [[["batch_normalization_118", 0, 0, {}]]]}, {"class_name": "MaxPooling2D", "config": {"name": "max_pooling2d_178", "trainable": true, "dtype": "float32", "pool_size": [2, 2], "padding": "valid", "strides": [2, 2], "data_format": "channels_last"}, "name": "max_pooling2d_178", "inbound_nodes": [[["batch_normalization_122", 0, 0, {}]]]}, {"class_name": "BatchNormalization", "config": {"name": "batch_normalization_102", "trainable": true, "dtype": "float32", "axis": [3], "momentum": 0.99, "epsilon": 0.001, "center": true, "scale": true, "beta_initializer": {"class_name": "Zeros", "config": {}}, "gamma_initializer": {"class_name": "Ones", "config": {}}, "moving_mean_initializer": {"class_name": "Zeros", "config": {}}, "moving_variance_initializer": {"class_name": "Ones", "config": {}}, "beta_regularizer": null, "gamma_regularizer": null, "beta_constraint": null, "gamma_constraint": null}, "name": "batch_normalization_102", "inbound_nodes": [[["activation_104", 0, 0, {}]]]}, {"class_name": "BatchNormalization", "config": {"name": "batch_normalization_107", "trainable": true, "dtype": "float32", "axis": [3], "momentum": 0.99, "epsilon": 0.001, "center": true, "scale": true, "beta_initializer": {"class_name": "Zeros", "config": {}}, "gamma_initializer": {"class_name": "Ones", "config": {}}, "moving_mean_initializer": {"class_name": "Zeros", "config": {}}, "moving_variance_initializer": {"class_name": "Ones", "config": {}}, "beta_regularizer": null, "gamma_regularizer": null, "beta_constraint": null, "gamma_constraint": null}, "name": "batch_normalization_107", "inbound_nodes": [[["conv2d_247", 0, 0, {}]]]}, {"class_name": "Dropout", "config": {"name": "dropout_126", "trainable": true, "dtype": "float32", "rate": 0.25, "noise_shape": null, "seed": null}, "name": "dropout_126", "inbound_nodes": [[["max_pooling2d_169", 0, 0, {}]]]}, {"class_name": "Dropout", "config": {"name": "dropout_130", "trainable": true, "dtype": "float32", "rate": 0.25, "noise_shape": null, "seed": null}, "name": "dropout_130", "inbound_nodes": [[["max_pooling2d_172", 0, 0, {}]]]}, {"class_name": "Dropout", "config": {"name": "dropout_134", "trainable": true, "dtype": "float32", "rate": 0.25, "noise_shape": null, "seed": null}, "name": "dropout_134", "inbound_nodes": [[["max_pooling2d_175", 0, 0, {}]]]}, {"class_name": "Dropout", "config": {"name": "dropout_138", "trainable": true, "dtype": "float32", "rate": 0.25, "noise_shape": null, "seed": null}, "name": "dropout_138", "inbound_nodes": [[["max_pooling2d_178", 0, 0, {}]]]}, {"class_name": "MaxPooling2D", "config": {"name": "max_pooling2d_161", "trainable": true, "dtype": "float32", "pool_size": [2, 2], "padding": "valid", "strides": [2, 2], "data_format": "channels_last"}, "name": "max_pooling2d_161", "inbound_nodes": [[["batch_normalization_102", 0, 0, {}]]]}, {"class_name": "MaxPooling2D", "config": {"name": "max_pooling2d_166", "trainable": true, "dtype": "float32", "pool_size": [2, 2], "padding": "valid", "strides": [2, 2], "data_format": "channels_last"}, "name": "max_pooling2d_166", "inbound_nodes": [[["batch_normalization_107", 0, 0, {}]]]}, {"class_name": "Conv2D", "config": {"name": "conv2d_251", "trainable": true, "dtype": "float32", "filters": 256, "kernel_size": [3, 3], "strides": [1, 1], "padding": "same", "data_format": "channels_last", "dilation_rate": [1, 1], "groups": 1, "activation": "linear", "use_bias": true, "kernel_initializer": {"class_name": "GlorotUniform", "config": {"seed": null}}, "bias_initializer": {"class_name": "Zeros", "config": {}}, "kernel_regularizer": null, "bias_regularizer": null, "activity_regularizer": null, "kernel_constraint": null, "bias_constraint": null}, "name": "conv2d_251", "inbound_nodes": [[["dropout_126", 0, 0, {}]]]}, {"class_name": "Conv2D", "config": {"name": "conv2d_254", "trainable": true, "dtype": "float32", "filters": 256, "kernel_size": [3, 3], "strides": [1, 1], "padding": "same", "data_format": "channels_last", "dilation_rate": [1, 1], "groups": 1, "activation": "linear", "use_bias": true, "kernel_initializer": {"class_name": "GlorotUniform", "config": {"seed": null}}, "bias_initializer": {"class_name": "Zeros", "config": {}}, "kernel_regularizer": null, "bias_regularizer": null, "activity_regularizer": null, "kernel_constraint": null, "bias_constraint": null}, "name": "conv2d_254", "inbound_nodes": [[["dropout_130", 0, 0, {}]]]}, {"class_name": "Conv2D", "config": {"name": "conv2d_257", "trainable": true, "dtype": "float32", "filters": 256, "kernel_size": [3, 3], "strides": [1, 1], "padding": "same", "data_format": "channels_last", "dilation_rate": [1, 1], "groups": 1, "activation": "linear", "use_bias": true, "kernel_initializer": {"class_name": "GlorotUniform", "config": {"seed": null}}, "bias_initializer": {"class_name": "Zeros", "config": {}}, "kernel_regularizer": null, "bias_regularizer": null, "activity_regularizer": null, "kernel_constraint": null, "bias_constraint": null}, "name": "conv2d_257", "inbound_nodes": [[["dropout_134", 0, 0, {}]]]}, {"class_name": "Conv2D", "config": {"name": "conv2d_260", "trainable": true, "dtype": "float32", "filters": 256, "kernel_size": [3, 3], "strides": [1, 1], "padding": "same", "data_format": "channels_last", "dilation_rate": [1, 1], "groups": 1, "activation": "linear", "use_bias": true, "kernel_initializer": {"class_name": "GlorotUniform", "config": {"seed": null}}, "bias_initializer": {"class_name": "Zeros", "config": {}}, "kernel_regularizer": null, "bias_regularizer": null, "activity_regularizer": null, "kernel_constraint": null, "bias_constraint": null}, "name": "conv2d_260", "inbound_nodes": [[["dropout_138", 0, 0, {}]]]}, {"class_name": "Dropout", "config": {"name": "dropout_116", "trainable": true, "dtype": "float32", "rate": 0.25, "noise_shape": null, "seed": null}, "name": "dropout_116", "inbound_nodes": [[["max_pooling2d_161", 0, 0, {}]]]}, {"class_name": "Dropout", "config": {"name": "dropout_122", "trainable": true, "dtype": "float32", "rate": 0.2, "noise_shape": null, "seed": null}, "name": "dropout_122", "inbound_nodes": [[["max_pooling2d_166", 0, 0, {}]]]}, {"class_name": "Activation", "config": {"name": "activation_112", "trainable": true, "dtype": "float32", "activation": "relu"}, "name": "activation_112", "inbound_nodes": [[["conv2d_251", 0, 0, {}]]]}, {"class_name": "Activation", "config": {"name": "activation_116", "trainable": true, "dtype": "float32", "activation": "relu"}, "name": "activation_116", "inbound_nodes": [[["conv2d_254", 0, 0, {}]]]}, {"class_name": "Activation", "config": {"name": "activation_120", "trainable": true, "dtype": "float32", "activation": "relu"}, "name": "activation_120", "inbound_nodes": [[["conv2d_257", 0, 0, {}]]]}, {"class_name": "Activation", "config": {"name": "activation_124", "trainable": true, "dtype": "float32", "activation": "relu"}, "name": "activation_124", "inbound_nodes": [[["conv2d_260", 0, 0, {}]]]}, {"class_name": "Conv2D", "config": {"name": "conv2d_243", "trainable": true, "dtype": "float32", "filters": 512, "kernel_size": [3, 3], "strides": [1, 1], "padding": "same", "data_format": "channels_last", "dilation_rate": [1, 1], "groups": 1, "activation": "relu", "use_bias": true, "kernel_initializer": {"class_name": "GlorotUniform", "config": {"seed": null}}, "bias_initializer": {"class_name": "Zeros", "config": {}}, "kernel_regularizer": null, "bias_regularizer": null, "activity_regularizer": null, "kernel_constraint": null, "bias_constraint": null}, "name": "conv2d_243", "inbound_nodes": [[["dropout_116", 0, 0, {}]]]}, {"class_name": "Conv2D", "config": {"name": "conv2d_248", "trainable": true, "dtype": "float32", "filters": 512, "kernel_size": [3, 3], "strides": [1, 1], "padding": "same", "data_format": "channels_last", "dilation_rate": [1, 1], "groups": 1, "activation": "relu", "use_bias": true, "kernel_initializer": {"class_name": "GlorotUniform", "config": {"seed": null}}, "bias_initializer": {"class_name": "Zeros", "config": {}}, "kernel_regularizer": null, "bias_regularizer": null, "activity_regularizer": null, "kernel_constraint": null, "bias_constraint": null}, "name": "conv2d_248", "inbound_nodes": [[["dropout_122", 0, 0, {}]]]}, {"class_name": "BatchNormalization", "config": {"name": "batch_normalization_111", "trainable": true, "dtype": "float32", "axis": [3], "momentum": 0.99, "epsilon": 0.001, "center": true, "scale": true, "beta_initializer": {"class_name": "Zeros", "config": {}}, "gamma_initializer": {"class_name": "Ones", "config": {}}, "moving_mean_initializer": {"class_name": "Zeros", "config": {}}, "moving_variance_initializer": {"class_name": "Ones", "config": {}}, "beta_regularizer": null, "gamma_regularizer": null, "beta_constraint": null, "gamma_constraint": null}, "name": "batch_normalization_111", "inbound_nodes": [[["activation_112", 0, 0, {}]]]}, {"class_name": "BatchNormalization", "config": {"name": "batch_normalization_115", "trainable": true, "dtype": "float32", "axis": [3], "momentum": 0.99, "epsilon": 0.001, "center": true, "scale": true, "beta_initializer": {"class_name": "Zeros", "config": {}}, "gamma_initializer": {"class_name": "Ones", "config": {}}, "moving_mean_initializer": {"class_name": "Zeros", "config": {}}, "moving_variance_initializer": {"class_name": "Ones", "config": {}}, "beta_regularizer": null, "gamma_regularizer": null, "beta_constraint": null, "gamma_constraint": null}, "name": "batch_normalization_115", "inbound_nodes": [[["activation_116", 0, 0, {}]]]}, {"class_name": "BatchNormalization", "config": {"name": "batch_normalization_119", "trainable": true, "dtype": "float32", "axis": [3], "momentum": 0.99, "epsilon": 0.001, "center": true, "scale": true, "beta_initializer": {"class_name": "Zeros", "config": {}}, "gamma_initializer": {"class_name": "Ones", "config": {}}, "moving_mean_initializer": {"class_name": "Zeros", "config": {}}, "moving_variance_initializer": {"class_name": "Ones", "config": {}}, "beta_regularizer": null, "gamma_regularizer": null, "beta_constraint": null, "gamma_constraint": null}, "name": "batch_normalization_119", "inbound_nodes": [[["activation_120", 0, 0, {}]]]}, {"class_name": "BatchNormalization", "config": {"name": "batch_normalization_123", "trainable": true, "dtype": "float32", "axis": [3], "momentum": 0.99, "epsilon": 0.001, "center": true, "scale": true, "beta_initializer": {"class_name": "Zeros", "config": {}}, "gamma_initializer": {"class_name": "Ones", "config": {}}, "moving_mean_initializer": {"class_name": "Zeros", "config": {}}, "moving_variance_initializer": {"class_name": "Ones", "config": {}}, "beta_regularizer": null, "gamma_regularizer": null, "beta_constraint": null, "gamma_constraint": null}, "name": "batch_normalization_123", "inbound_nodes": [[["activation_124", 0, 0, {}]]]}, {"class_name": "MaxPooling2D", "config": {"name": "max_pooling2d_162", "trainable": true, "dtype": "float32", "pool_size": [2, 2], "padding": "valid", "strides": [2, 2], "data_format": "channels_last"}, "name": "max_pooling2d_162", "inbound_nodes": [[["conv2d_243", 0, 0, {}]]]}, {"class_name": "MaxPooling2D", "config": {"name": "max_pooling2d_167", "trainable": true, "dtype": "float32", "pool_size": [2, 2], "padding": "valid", "strides": [2, 2], "data_format": "channels_last"}, "name": "max_pooling2d_167", "inbound_nodes": [[["conv2d_248", 0, 0, {}]]]}, {"class_name": "MaxPooling2D", "config": {"name": "max_pooling2d_170", "trainable": true, "dtype": "float32", "pool_size": [2, 2], "padding": "valid", "strides": [2, 2], "data_format": "channels_last"}, "name": "max_pooling2d_170", "inbound_nodes": [[["batch_normalization_111", 0, 0, {}]]]}, {"class_name": "MaxPooling2D", "config": {"name": "max_pooling2d_173", "trainable": true, "dtype": "float32", "pool_size": [2, 2], "padding": "valid", "strides": [2, 2], "data_format": "channels_last"}, "name": "max_pooling2d_173", "inbound_nodes": [[["batch_normalization_115", 0, 0, {}]]]}, {"class_name": "MaxPooling2D", "config": {"name": "max_pooling2d_176", "trainable": true, "dtype": "float32", "pool_size": [2, 2], "padding": "valid", "strides": [2, 2], "data_format": "channels_last"}, "name": "max_pooling2d_176", "inbound_nodes": [[["batch_normalization_119", 0, 0, {}]]]}, {"class_name": "MaxPooling2D", "config": {"name": "max_pooling2d_179", "trainable": true, "dtype": "float32", "pool_size": [2, 2], "padding": "valid", "strides": [2, 2], "data_format": "channels_last"}, "name": "max_pooling2d_179", "inbound_nodes": [[["batch_normalization_123", 0, 0, {}]]]}, {"class_name": "Dropout", "config": {"name": "dropout_117", "trainable": true, "dtype": "float32", "rate": 0.2, "noise_shape": null, "seed": null}, "name": "dropout_117", "inbound_nodes": [[["max_pooling2d_162", 0, 0, {}]]]}, {"class_name": "Dropout", "config": {"name": "dropout_123", "trainable": true, "dtype": "float32", "rate": 0.2, "noise_shape": null, "seed": null}, "name": "dropout_123", "inbound_nodes": [[["max_pooling2d_167", 0, 0, {}]]]}, {"class_name": "Dropout", "config": {"name": "dropout_127", "trainable": true, "dtype": "float32", "rate": 0.25, "noise_shape": null, "seed": null}, "name": "dropout_127", "inbound_nodes": [[["max_pooling2d_170", 0, 0, {}]]]}, {"class_name": "Dropout", "config": {"name": "dropout_131", "trainable": true, "dtype": "float32", "rate": 0.25, "noise_shape": null, "seed": null}, "name": "dropout_131", "inbound_nodes": [[["max_pooling2d_173", 0, 0, {}]]]}, {"class_name": "Dropout", "config": {"name": "dropout_135", "trainable": true, "dtype": "float32", "rate": 0.25, "noise_shape": null, "seed": null}, "name": "dropout_135", "inbound_nodes": [[["max_pooling2d_176", 0, 0, {}]]]}, {"class_name": "Dropout", "config": {"name": "dropout_139", "trainable": true, "dtype": "float32", "rate": 0.25, "noise_shape": null, "seed": null}, "name": "dropout_139", "inbound_nodes": [[["max_pooling2d_179", 0, 0, {}]]]}, {"class_name": "Flatten", "config": {"name": "flatten_48", "trainable": true, "dtype": "float32", "data_format": "channels_last"}, "name": "flatten_48", "inbound_nodes": [[["dropout_117", 0, 0, {}]]]}, {"class_name": "Flatten", "config": {"name": "flatten_49", "trainable": true, "dtype": "float32", "data_format": "channels_last"}, "name": "flatten_49", "inbound_nodes": [[["dropout_123", 0, 0, {}]]]}, {"class_name": "Flatten", "config": {"name": "flatten_50", "trainable": true, "dtype": "float32", "data_format": "channels_last"}, "name": "flatten_50", "inbound_nodes": [[["dropout_127", 0, 0, {}]]]}, {"class_name": "Flatten", "config": {"name": "flatten_51", "trainable": true, "dtype": "float32", "data_format": "channels_last"}, "name": "flatten_51", "inbound_nodes": [[["dropout_131", 0, 0, {}]]]}, {"class_name": "Flatten", "config": {"name": "flatten_52", "trainable": true, "dtype": "float32", "data_format": "channels_last"}, "name": "flatten_52", "inbound_nodes": [[["dropout_135", 0, 0, {}]]]}, {"class_name": "Flatten", "config": {"name": "flatten_53", "trainable": true, "dtype": "float32", "data_format": "channels_last"}, "name": "flatten_53", "inbound_nodes": [[["dropout_139", 0, 0, {}]]]}, {"class_name": "Dense", "config": {"name": "dense_137", "trainable": true, "dtype": "float32", "units": 512, "activation": "linear", "use_bias": true, "kernel_initializer": {"class_name": "GlorotUniform", "config": {"seed": null}}, "bias_initializer": {"class_name": "Zeros", "config": {}}, "kernel_regularizer": {"class_name": "L1L2", "config": {"L1L2": 0.009999999776482582}}, "bias_regularizer": null, "activity_regularizer": null, "kernel_constraint": null, "bias_constraint": null}, "name": "dense_137", "inbound_nodes": [[["flatten_48", 0, 0, {}]]]}, {"class_name": "Dense", "config": {"name": "dense_139", "trainable": true, "dtype": "float32", "units": 512, "activation": "linear", "use_bias": true, "kernel_initializer": {"class_name": "GlorotUniform", "config": {"seed": null}}, "bias_initializer": {"class_name": "Zeros", "config": {}}, "kernel_regularizer": null, "bias_regularizer": null, "activity_regularizer": null, "kernel_constraint": null, "bias_constraint": null}, "name": "dense_139", "inbound_nodes": [[["flatten_49", 0, 0, {}]]]}, {"class_name": "Dense", "config": {"name": "dense_141", "trainable": true, "dtype": "float32", "units": 256, "activation": "linear", "use_bias": true, "kernel_initializer": {"class_name": "GlorotUniform", "config": {"seed": null}}, "bias_initializer": {"class_name": "Zeros", "config": {}}, "kernel_regularizer": null, "bias_regularizer": null, "activity_regularizer": null, "kernel_constraint": null, "bias_constraint": null}, "name": "dense_141", "inbound_nodes": [[["flatten_50", 0, 0, {}]]]}, {"class_name": "Dense", "config": {"name": "dense_143", "trainable": true, "dtype": "float32", "units": 256, "activation": "linear", "use_bias": true, "kernel_initializer": {"class_name": "GlorotUniform", "config": {"seed": null}}, "bias_initializer": {"class_name": "Zeros", "config": {}}, "kernel_regularizer": null, "bias_regularizer": null, "activity_regularizer": null, "kernel_constraint": null, "bias_constraint": null}, "name": "dense_143", "inbound_nodes": [[["flatten_51", 0, 0, {}]]]}, {"class_name": "Dense", "config": {"name": "dense_145", "trainable": true, "dtype": "float32", "units": 512, "activation": "linear", "use_bias": true, "kernel_initializer": {"class_name": "GlorotUniform", "config": {"seed": null}}, "bias_initializer": {"class_name": "Zeros", "config": {}}, "kernel_regularizer": null, "bias_regularizer": null, "activity_regularizer": null, "kernel_constraint": null, "bias_constraint": null}, "name": "dense_145", "inbound_nodes": [[["flatten_52", 0, 0, {}]]]}, {"class_name": "Dense", "config": {"name": "dense_147", "trainable": true, "dtype": "float32", "units": 512, "activation": "linear", "use_bias": true, "kernel_initializer": {"class_name": "GlorotUniform", "config": {"seed": null}}, "bias_initializer": {"class_name": "Zeros", "config": {}}, "kernel_regularizer": null, "bias_regularizer": null, "activity_regularizer": null, "kernel_constraint": null, "bias_constraint": null}, "name": "dense_147", "inbound_nodes": [[["flatten_53", 0, 0, {}]]]}, {"class_name": "BatchNormalization", "config": {"name": "batch_normalization_103", "trainable": true, "dtype": "float32", "axis": [1], "momentum": 0.99, "epsilon": 0.001, "center": true, "scale": true, "beta_initializer": {"class_name": "Zeros", "config": {}}, "gamma_initializer": {"class_name": "Ones", "config": {}}, "moving_mean_initializer": {"class_name": "Zeros", "config": {}}, "moving_variance_initializer": {"class_name": "Ones", "config": {}}, "beta_regularizer": null, "gamma_regularizer": null, "beta_constraint": null, "gamma_constraint": null}, "name": "batch_normalization_103", "inbound_nodes": [[["dense_137", 0, 0, {}]]]}, {"class_name": "Activation", "config": {"name": "activation_109", "trainable": true, "dtype": "float32", "activation": "relu"}, "name": "activation_109", "inbound_nodes": [[["dense_139", 0, 0, {}]]]}, {"class_name": "Activation", "config": {"name": "activation_113", "trainable": true, "dtype": "float32", "activation": "relu"}, "name": "activation_113", "inbound_nodes": [[["dense_141", 0, 0, {}]]]}, {"class_name": "Activation", "config": {"name": "activation_117", "trainable": true, "dtype": "float32", "activation": "relu"}, "name": "activation_117", "inbound_nodes": [[["dense_143", 0, 0, {}]]]}, {"class_name": "Activation", "config": {"name": "activation_121", "trainable": true, "dtype": "float32", "activation": "relu"}, "name": "activation_121", "inbound_nodes": [[["dense_145", 0, 0, {}]]]}, {"class_name": "Activation", "config": {"name": "activation_125", "trainable": true, "dtype": "float32", "activation": "relu"}, "name": "activation_125", "inbound_nodes": [[["dense_147", 0, 0, {}]]]}, {"class_name": "Activation", "config": {"name": "activation_105", "trainable": true, "dtype": "float32", "activation": "relu"}, "name": "activation_105", "inbound_nodes": [[["batch_normalization_103", 0, 0, {}]]]}, {"class_name": "BatchNormalization", "config": {"name": "batch_normalization_108", "trainable": true, "dtype": "float32", "axis": [1], "momentum": 0.99, "epsilon": 0.001, "center": true, "scale": true, "beta_initializer": {"class_name": "Zeros", "config": {}}, "gamma_initializer": {"class_name": "Ones", "config": {}}, "moving_mean_initializer": {"class_name": "Zeros", "config": {}}, "moving_variance_initializer": {"class_name": "Ones", "config": {}}, "beta_regularizer": null, "gamma_regularizer": null, "beta_constraint": null, "gamma_constraint": null}, "name": "batch_normalization_108", "inbound_nodes": [[["activation_109", 0, 0, {}]]]}, {"class_name": "BatchNormalization", "config": {"name": "batch_normalization_112", "trainable": true, "dtype": "float32", "axis": [1], "momentum": 0.99, "epsilon": 0.001, "center": true, "scale": true, "beta_initializer": {"class_name": "Zeros", "config": {}}, "gamma_initializer": {"class_name": "Ones", "config": {}}, "moving_mean_initializer": {"class_name": "Zeros", "config": {}}, "moving_variance_initializer": {"class_name": "Ones", "config": {}}, "beta_regularizer": null, "gamma_regularizer": null, "beta_constraint": null, "gamma_constraint": null}, "name": "batch_normalization_112", "inbound_nodes": [[["activation_113", 0, 0, {}]]]}, {"class_name": "BatchNormalization", "config": {"name": "batch_normalization_116", "trainable": true, "dtype": "float32", "axis": [1], "momentum": 0.99, "epsilon": 0.001, "center": true, "scale": true, "beta_initializer": {"class_name": "Zeros", "config": {}}, "gamma_initializer": {"class_name": "Ones", "config": {}}, "moving_mean_initializer": {"class_name": "Zeros", "config": {}}, "moving_variance_initializer": {"class_name": "Ones", "config": {}}, "beta_regularizer": null, "gamma_regularizer": null, "beta_constraint": null, "gamma_constraint": null}, "name": "batch_normalization_116", "inbound_nodes": [[["activation_117", 0, 0, {}]]]}, {"class_name": "BatchNormalization", "config": {"name": "batch_normalization_120", "trainable": true, "dtype": "float32", "axis": [1], "momentum": 0.99, "epsilon": 0.001, "center": true, "scale": true, "beta_initializer": {"class_name": "Zeros", "config": {}}, "gamma_initializer": {"class_name": "Ones", "config": {}}, "moving_mean_initializer": {"class_name": "Zeros", "config": {}}, "moving_variance_initializer": {"class_name": "Ones", "config": {}}, "beta_regularizer": null, "gamma_regularizer": null, "beta_constraint": null, "gamma_constraint": null}, "name": "batch_normalization_120", "inbound_nodes": [[["activation_121", 0, 0, {}]]]}, {"class_name": "BatchNormalization", "config": {"name": "batch_normalization_124", "trainable": true, "dtype": "float32", "axis": [1], "momentum": 0.99, "epsilon": 0.001, "center": true, "scale": true, "beta_initializer": {"class_name": "Zeros", "config": {}}, "gamma_initializer": {"class_name": "Ones", "config": {}}, "moving_mean_initializer": {"class_name": "Zeros", "config": {}}, "moving_variance_initializer": {"class_name": "Ones", "config": {}}, "beta_regularizer": null, "gamma_regularizer": null, "beta_constraint": null, "gamma_constraint": null}, "name": "batch_normalization_124", "inbound_nodes": [[["activation_125", 0, 0, {}]]]}, {"class_name": "Dropout", "config": {"name": "dropout_118", "trainable": true, "dtype": "float32", "rate": 0.25, "noise_shape": null, "seed": null}, "name": "dropout_118", "inbound_nodes": [[["activation_105", 0, 0, {}]]]}, {"class_name": "Dropout", "config": {"name": "dropout_124", "trainable": true, "dtype": "float32", "rate": 0.5, "noise_shape": null, "seed": null}, "name": "dropout_124", "inbound_nodes": [[["batch_normalization_108", 0, 0, {}]]]}, {"class_name": "Dropout", "config": {"name": "dropout_128", "trainable": true, "dtype": "float32", "rate": 0.5, "noise_shape": null, "seed": null}, "name": "dropout_128", "inbound_nodes": [[["batch_normalization_112", 0, 0, {}]]]}, {"class_name": "Dropout", "config": {"name": "dropout_132", "trainable": true, "dtype": "float32", "rate": 0.5, "noise_shape": null, "seed": null}, "name": "dropout_132", "inbound_nodes": [[["batch_normalization_116", 0, 0, {}]]]}, {"class_name": "Dropout", "config": {"name": "dropout_136", "trainable": true, "dtype": "float32", "rate": 0.5, "noise_shape": null, "seed": null}, "name": "dropout_136", "inbound_nodes": [[["batch_normalization_120", 0, 0, {}]]]}, {"class_name": "Dropout", "config": {"name": "dropout_140", "trainable": true, "dtype": "float32", "rate": 0.5, "noise_shape": null, "seed": null}, "name": "dropout_140", "inbound_nodes": [[["batch_normalization_124", 0, 0, {}]]]}, {"class_name": "Dense", "config": {"name": "dense_138", "trainable": true, "dtype": "float32", "units": 7, "activation": "linear", "use_bias": true, "kernel_initializer": {"class_name": "GlorotUniform", "config": {"seed": null}}, "bias_initializer": {"class_name": "Zeros", "config": {}}, "kernel_regularizer": null, "bias_regularizer": null, "activity_regularizer": null, "kernel_constraint": null, "bias_constraint": null}, "name": "dense_138", "inbound_nodes": [[["dropout_118", 0, 0, {}]]]}, {"class_name": "Dense", "config": {"name": "dense_140", "trainable": true, "dtype": "float32", "units": 5, "activation": "linear", "use_bias": true, "kernel_initializer": {"class_name": "GlorotUniform", "config": {"seed": null}}, "bias_initializer": {"class_name": "Zeros", "config": {}}, "kernel_regularizer": null, "bias_regularizer": null, "activity_regularizer": null, "kernel_constraint": null, "bias_constraint": null}, "name": "dense_140", "inbound_nodes": [[["dropout_124", 0, 0, {}]]]}, {"class_name": "Dense", "config": {"name": "dense_142", "trainable": true, "dtype": "float32", "units": 2, "activation": "linear", "use_bias": true, "kernel_initializer": {"class_name": "GlorotUniform", "config": {"seed": null}}, "bias_initializer": {"class_name": "Zeros", "config": {}}, "kernel_regularizer": null, "bias_regularizer": null, "activity_regularizer": null, "kernel_constraint": null, "bias_constraint": null}, "name": "dense_142", "inbound_nodes": [[["dropout_128", 0, 0, {}]]]}, {"class_name": "Dense", "config": {"name": "dense_144", "trainable": true, "dtype": "float32", "units": 4, "activation": "linear", "use_bias": true, "kernel_initializer": {"class_name": "GlorotUniform", "config": {"seed": null}}, "bias_initializer": {"class_name": "Zeros", "config": {}}, "kernel_regularizer": null, "bias_regularizer": null, "activity_regularizer": null, "kernel_constraint": null, "bias_constraint": null}, "name": "dense_144", "inbound_nodes": [[["dropout_132", 0, 0, {}]]]}, {"class_name": "Dense", "config": {"name": "dense_146", "trainable": true, "dtype": "float32", "units": 2, "activation": "linear", "use_bias": true, "kernel_initializer": {"class_name": "GlorotUniform", "config": {"seed": null}}, "bias_initializer": {"class_name": "Zeros", "config": {}}, "kernel_regularizer": null, "bias_regularizer": null, "activity_regularizer": null, "kernel_constraint": null, "bias_constraint": null}, "name": "dense_146", "inbound_nodes": [[["dropout_136", 0, 0, {}]]]}, {"class_name": "Dense", "config": {"name": "dense_148", "trainable": true, "dtype": "float32", "units": 2, "activation": "linear", "use_bias": true, "kernel_initializer": {"class_name": "GlorotUniform", "config": {"seed": null}}, "bias_initializer": {"class_name": "Zeros", "config": {}}, "kernel_regularizer": null, "bias_regularizer": null, "activity_regularizer": null, "kernel_constraint": null, "bias_constraint": null}, "name": "dense_148", "inbound_nodes": [[["dropout_140", 0, 0, {}]]]}, {"class_name": "Activation", "config": {"name": "age_output", "trainable": true, "dtype": "float32", "activation": "softmax"}, "name": "age_output", "inbound_nodes": [[["dense_138", 0, 0, {}]]]}, {"class_name": "Activation", "config": {"name": "expression_output", "trainable": true, "dtype": "float32", "activation": "softmax"}, "name": "expression_output", "inbound_nodes": [[["dense_140", 0, 0, {}]]]}, {"class_name": "Activation", "config": {"name": "gender_output", "trainable": true, "dtype": "float32", "activation": "sigmoid"}, "name": "gender_output", "inbound_nodes": [[["dense_142", 0, 0, {}]]]}, {"class_name": "Activation", "config": {"name": "hair_output", "trainable": true, "dtype": "float32", "activation": "softmax"}, "name": "hair_output", "inbound_nodes": [[["dense_144", 0, 0, {}]]]}, {"class_name": "Activation", "config": {"name": "bald_output", "trainable": true, "dtype": "float32", "activation": "sigmoid"}, "name": "bald_output", "inbound_nodes": [[["dense_146", 0, 0, {}]]]}, {"class_name": "Activation", "config": {"name": "eyeglasses_output", "trainable": true, "dtype": "float32", "activation": "sigmoid"}, "name": "eyeglasses_output", "inbound_nodes": [[["dense_148", 0, 0, {}]]]}], "input_layers": [["input_42", 0, 0]], "output_layers": [["age_output", 0, 0], ["expression_output", 0, 0], ["gender_output", 0, 0], ["hair_output", 0, 0], ["bald_output", 0, 0], ["eyeglasses_output", 0, 0]]}}, "training_config": {"loss": {"age_output": "categorical_crossentropy", "expression_output": "categorical_crossentropy", "gender_output": "binary_crossentropy", "hair_output": "categorical_crossentropy", "eyeglasses_output": "binary_crossentropy", "bald_output": "binary_crossentropy"}, "metrics": [[{"class_name": "MeanMetricWrapper", "config": {"name": "age_output_accuracy", "dtype": "float32", "fn": "categorical_accuracy"}}], [{"class_name": "MeanMetricWrapper", "config": {"name": "expression_output_accuracy", "dtype": "float32", "fn": "categorical_accuracy"}}], [{"class_name": "MeanMetricWrapper", "config": {"name": "gender_output_accuracy", "dtype": "float32", "fn": "categorical_accuracy"}}], [{"class_name": "MeanMetricWrapper", "config": {"name": "hair_output_accuracy", "dtype": "float32", "fn": "categorical_accuracy"}}], [{"class_name": "MeanMetricWrapper", "config": {"name": "bald_output_accuracy", "dtype": "float32", "fn": "categorical_accuracy"}}], [{"class_name": "MeanMetricWrapper", "config": {"name": "eyeglasses_output_accuracy", "dtype": "float32", "fn": "categorical_accuracy"}}]], "weighted_metrics": null, "loss_weights": null, "optimizer_config": {"class_name": "Adam", "config": {"name": "Adam", "learning_rate": 9.999999747378752e-05, "decay": 1e-06, "beta_1": 0.8999999761581421, "beta_2": 0.9990000128746033, "epsilon": 1e-07, "amsgrad": false}}}}, "weightsManifest": [{"paths": ["group1-shard1of76.bin", "group1-shard2of76.bin", "group1-shard3of76.bin", "group1-shard4of76.bin", "group1-shard5of76.bin", "group1-shard6of76.bin", "group1-shard7of76.bin", "group1-shard8of76.bin", "group1-shard9of76.bin", "group1-shard10of76.bin", "group1-shard11of76.bin", "group1-shard12of76.bin", "group1-shard13of76.bin", "group1-shard14of76.bin", "group1-shard15of76.bin", "group1-shard16of76.bin", "group1-shard17of76.bin", "group1-shard18of76.bin", "group1-shard19of76.bin", "group1-shard20of76.bin", "group1-shard21of76.bin", "group1-shard22of76.bin", "group1-shard23of76.bin", "group1-shard24of76.bin", "group1-shard25of76.bin", "group1-shard26of76.bin", "group1-shard27of76.bin", "group1-shard28of76.bin", "group1-shard29of76.bin", "group1-shard30of76.bin", "group1-shard31of76.bin", "group1-shard32of76.bin", "group1-shard33of76.bin", "group1-shard34of76.bin", "group1-shard35of76.bin", "group1-shard36of76.bin", "group1-shard37of76.bin", "group1-shard38of76.bin", "group1-shard39of76.bin", "group1-shard40of76.bin", "group1-shard41of76.bin", "group1-shard42of76.bin", "group1-shard43of76.bin", "group1-shard44of76.bin", "group1-shard45of76.bin", "group1-shard46of76.bin", "group1-shard47of76.bin", "group1-shard48of76.bin", "group1-shard49of76.bin", "group1-shard50of76.bin", "group1-shard51of76.bin", "group1-shard52of76.bin", "group1-shard53of76.bin", "group1-shard54of76.bin", "group1-shard55of76.bin", "group1-shard56of76.bin", "group1-shard57of76.bin", "group1-shard58of76.bin", "group1-shard59of76.bin", "group1-shard60of76.bin", "group1-shard61of76.bin", "group1-shard62of76.bin", "group1-shard63of76.bin", "group1-shard64of76.bin", "group1-shard65of76.bin", "group1-shard66of76.bin", "group1-shard67of76.bin", "group1-shard68of76.bin", "group1-shard69of76.bin", "group1-shard70of76.bin", "group1-shard71of76.bin", "group1-shard72of76.bin", "group1-shard73of76.bin", "group1-shard74of76.bin", "group1-shard75of76.bin", "group1-shard76of76.bin"], "weights": [{"name": "batch_normalization_100/gamma", "shape": [64], "dtype": "float32", "quantization": {"dtype": "uint16", "min": 0.954749345779419, "scale": 1.6879151358051085e-06, "original_dtype": "float32"}}, {"name": "batch_normalization_100/beta", "shape": [64], "dtype": "float32", "quantization": {"dtype": "uint16", "min": -0.0685807256546334, "scale": 1.491079828991464e-06, "original_dtype": "float32"}}, {"name": "batch_normalization_100/moving_mean", "shape": [64], "dtype": "float32", "quantization": {"dtype": "uint16", "min": 1.6531039364053868e-05, "scale": 0.008000405326295939, "original_dtype": "float32"}}, {"name": "batch_normalization_100/moving_variance", "shape": [64], "dtype": "float32", "quantization": {"dtype": "uint16", "min": 5.979175693937577e-05, "scale": 1.0272180409736513, "original_dtype": "float32"}}, {"name": "batch_normalization_101/gamma", "shape": [128], "dtype": "float32", "quantization": {"dtype": "uint16", "min": 0.9624468684196472, "scale": 1.4284114192986803e-06, "original_dtype": "float32"}}, {"name": "batch_normalization_101/beta", "shape": [128], "dtype": "float32", "quantization": {"dtype": "uint16", "min": -0.04393932496411328, "scale": 1.5874607089892437e-06, "original_dtype": "float32"}}, {"name": "batch_normalization_101/moving_mean", "shape": [128], "dtype": "float32", "quantization": {"dtype": "uint16", "min": 0.2094946652650833, "scale": 1.350197569587424e-05, "original_dtype": "float32"}}, {"name": "batch_normalization_101/moving_variance", "shape": [128], "dtype": "float32", "quantization": {"dtype": "uint16", "min": 0.1297840178012848, "scale": 2.9881672918491854e-05, "original_dtype": "float32"}}, {"name": "batch_normalization_102/gamma", "shape": [256], "dtype": "float32", "quantization": {"dtype": "uint16", "min": 0.9441109299659729, "scale": 1.6974131339036727e-06, "original_dtype": "float32"}}, {"name": "batch_normalization_102/beta", "shape": [256], "dtype": "float32", "quantization": {"dtype": "uint16", "min": -0.050198571878157315, "scale": 2.00665861361358e-06, "original_dtype": "float32"}}, {"name": "batch_normalization_102/moving_mean", "shape": [256], "dtype": "float32", "quantization": {"dtype": "uint16", "min": 0.07783093303442001, "scale": 1.6951365998219305e-05, "original_dtype": "float32"}}, {"name": "batch_normalization_102/moving_variance", "shape": [256], "dtype": "float32", "quantization": {"dtype": "uint16", "min": 0.1156696304678917, "scale": 4.026735150460258e-05, "original_dtype": "float32"}}, {"name": "batch_normalization_103/gamma", "shape": [512], "dtype": "float32", "quantization": {"dtype": "uint16", "min": 0.933366596698761, "scale": 3.1313370847043543e-06, "original_dtype": "float32"}}, {"name": "batch_normalization_103/beta", "shape": [512], "dtype": "float32", "quantization": {"dtype": "uint16", "min": -0.09923811052757697, "scale": 2.475074461343733e-06, "original_dtype": "float32"}}, {"name": "batch_normalization_103/moving_mean", "shape": [512], "dtype": "float32", "quantization": {"dtype": "uint16", "min": -1.8216076613072811, "scale": 4.9434385229104754e-05, "original_dtype": "float32"}}, {"name": "batch_normalization_103/moving_variance", "shape": [512], "dtype": "float32", "quantization": {"dtype": "uint16", "min": 0.04993850365281105, "scale": 1.574473853031958e-05, "original_dtype": "float32"}}, {"name": "batch_normalization_104/gamma", "shape": [64], "dtype": "float32", "quantization": {"dtype": "uint16", "min": 0.9635661840438843, "scale": 1.7572688030470805e-06, "original_dtype": "float32"}}, {"name": "batch_normalization_104/beta", "shape": [64], "dtype": "float32", "quantization": {"dtype": "uint16", "min": -0.042371805455156786, "scale": 9.643763901758605e-07, "original_dtype": "float32"}}, {"name": "batch_normalization_104/moving_mean", "shape": [64], "dtype": "float32", "quantization": {"dtype": "uint16", "min": 9.758878877619281e-05, "scale": 0.004936023403809157, "original_dtype": "float32"}}, {"name": "batch_normalization_104/moving_variance", "shape": [64], "dtype": "float32", "quantization": {"dtype": "uint16", "min": 0.0001375271676806733, "scale": 0.3789782812138221, "original_dtype": "float32"}}, {"name": "batch_normalization_105/gamma", "shape": [128], "dtype": "float32", "quantization": {"dtype": "uint16", "min": 0.9716092944145203, "scale": 1.0559512847274067e-06, "original_dtype": "float32"}}, {"name": "batch_normalization_105/beta", "shape": [128], "dtype": "float32", "quantization": {"dtype": "uint16", "min": -0.03072706457678528, "scale": 9.933425331130276e-07, "original_dtype": "float32"}}, {"name": "batch_normalization_105/moving_mean", "shape": [128], "dtype": "float32", "quantization": {"dtype": "uint16", "min": 0.20388977229595184, "scale": 1.078271557521318e-05, "original_dtype": "float32"}}, {"name": "batch_normalization_105/moving_variance", "shape": [128], "dtype": "float32", "quantization": {"dtype": "uint16", "min": 0.1683833748102188, "scale": 2.558728104608323e-05, "original_dtype": "float32"}}, {"name": "batch_normalization_106/gamma", "shape": [256], "dtype": "float32", "quantization": {"dtype": "uint16", "min": 0.9626126289367676, "scale": 1.3168283591892914e-06, "original_dtype": "float32"}}, {"name": "batch_normalization_106/beta", "shape": [256], "dtype": "float32", "quantization": {"dtype": "uint16", "min": -0.04224477731293414, "scale": 1.3575672380273199e-06, "original_dtype": "float32"}}, {"name": "batch_normalization_106/moving_mean", "shape": [256], "dtype": "float32", "quantization": {"dtype": "uint16", "min": 0.12607304751873016, "scale": 2.167659924724623e-05, "original_dtype": "float32"}}, {"name": "batch_normalization_106/moving_variance", "shape": [256], "dtype": "float32", "quantization": {"dtype": "uint16", "min": 0.1400536447763443, "scale": 0.00012123120875201054, "original_dtype": "float32"}}, {"name": "batch_normalization_107/gamma", "shape": [256], "dtype": "float32", "quantization": {"dtype": "uint16", "min": 0.9250561594963074, "scale": 1.916511931753708e-06, "original_dtype": "float32"}}, {"name": "batch_normalization_107/beta", "shape": [256], "dtype": "float32", "quantization": {"dtype": "uint16", "min": -0.05978791676836869, "scale": 1.3593414903114542e-06, "original_dtype": "float32"}}, {"name": "batch_normalization_107/moving_mean", "shape": [256], "dtype": "float32", "quantization": {"dtype": "uint16", "min": 0.10041309893131256, "scale": 3.126796977038131e-05, "original_dtype": "float32"}}, {"name": "batch_normalization_107/moving_variance", "shape": [256], "dtype": "float32", "quantization": {"dtype": "uint16", "min": 0.18046480417251587, "scale": 0.00012731314105628112, "original_dtype": "float32"}}, {"name": "batch_normalization_108/gamma", "shape": [512], "dtype": "float32", "quantization": {"dtype": "uint16", "min": 0.9328466057777405, "scale": 1.4499576775534907e-06, "original_dtype": "float32"}}, {"name": "batch_normalization_108/beta", "shape": [512], "dtype": "float32", "quantization": {"dtype": "uint16", "min": -0.08105878599259203, "scale": 2.726314610271493e-06, "original_dtype": "float32"}}, {"name": "batch_normalization_108/moving_mean", "shape": [512], "dtype": "float32", "quantization": {"dtype": "uint16", "min": 1.1643357999404813e-36, "scale": 8.50534369964262e-05, "original_dtype": "float32"}}, {"name": "batch_normalization_108/moving_variance", "shape": [512], "dtype": "float32", "quantization": {"dtype": "uint16", "min": 1.1637981497456891e-36, "scale": 7.227465954890665e-05, "original_dtype": "float32"}}, {"name": "batch_normalization_109/gamma", "shape": [64], "dtype": "float32", "quantization": {"dtype": "uint16", "min": 0.9486600756645203, "scale": 1.7565839430865118e-06, "original_dtype": "float32"}}, {"name": "batch_normalization_109/beta", "shape": [64], "dtype": "float32", "quantization": {"dtype": "uint16", "min": -0.04419423041215357, "scale": 1.1043587988443593e-06, "original_dtype": "float32"}}, {"name": "batch_normalization_109/moving_mean", "shape": [64], "dtype": "float32", "quantization": {"dtype": "uint16", "min": 7.316610572161153e-05, "scale": 0.006167997473587404, "original_dtype": "float32"}}, {"name": "batch_normalization_109/moving_variance", "shape": [64], "dtype": "float32", "quantization": {"dtype": "uint16", "min": 0.00033815266215242445, "scale": 0.5894147636659394, "original_dtype": "float32"}}, {"name": "batch_normalization_110/gamma", "shape": [128], "dtype": "float32", "quantization": {"dtype": "uint16", "min": 0.9602950215339661, "scale": 1.7109720878109213e-06, "original_dtype": "float32"}}, {"name": "batch_normalization_110/beta", "shape": [128], "dtype": "float32", "quantization": {"dtype": "uint16", "min": -0.02732370413275353, "scale": 1.7571513911738606e-06, "original_dtype": "float32"}}, {"name": "batch_normalization_110/moving_mean", "shape": [128], "dtype": "float32", "quantization": {"dtype": "uint16", "min": 0.1896437108516693, "scale": 9.4831326355821e-06, "original_dtype": "float32"}}, {"name": "batch_normalization_110/moving_variance", "shape": [128], "dtype": "float32", "quantization": {"dtype": "uint16", "min": 0.14170196652412415, "scale": 1.9192531451377133e-05, "original_dtype": "float32"}}, {"name": "batch_normalization_111/gamma", "shape": [256], "dtype": "float32", "quantization": {"dtype": "uint16", "min": 0.9222129583358765, "scale": 2.69099759629892e-06, "original_dtype": "float32"}}, {"name": "batch_normalization_111/beta", "shape": [256], "dtype": "float32", "quantization": {"dtype": "uint16", "min": -0.04435334615844233, "scale": 7.921372010008989e-07, "original_dtype": "float32"}}, {"name": "batch_normalization_111/moving_mean", "shape": [256], "dtype": "float32", "quantization": {"dtype": "uint16", "min": 0.020588219165802002, "scale": 1.9038043688279844e-05, "original_dtype": "float32"}}, {"name": "batch_normalization_111/moving_variance", "shape": [256], "dtype": "float32", "quantization": {"dtype": "uint16", "min": 0.017736157402396202, "scale": 3.977786038195122e-05, "original_dtype": "float32"}}, {"name": "batch_normalization_112/gamma", "shape": [256], "dtype": "float32", "quantization": {"dtype": "uint16", "min": 0.8211853504180908, "scale": 5.050384726378468e-06, "original_dtype": "float32"}}, {"name": "batch_normalization_112/beta", "shape": [256], "dtype": "float32", "quantization": {"dtype": "uint16", "min": -0.12859391732677275, "scale": 3.850232561656719e-06, "original_dtype": "float32"}}, {"name": "batch_normalization_112/moving_mean", "shape": [256], "dtype": "float32", "quantization": {"dtype": "uint16", "min": 2.050593132738268e-29, "scale": 0.000722888420618962, "original_dtype": "float32"}}, {"name": "batch_normalization_112/moving_variance", "shape": [256], "dtype": "float32", "quantization": {"dtype": "uint16", "min": 3.918033036104294e-29, "scale": 0.013707245308446822, "original_dtype": "float32"}}, {"name": "batch_normalization_113/gamma", "shape": [64], "dtype": "float32", "quantization": {"dtype": "uint16", "min": 0.9417338967323303, "scale": 2.188746039851212e-06, "original_dtype": "float32"}}, {"name": "batch_normalization_113/beta", "shape": [64], "dtype": "float32", "quantization": {"dtype": "uint16", "min": -0.061365022590895345, "scale": 1.8431809266481045e-06, "original_dtype": "float32"}}, {"name": "batch_normalization_113/moving_mean", "shape": [64], "dtype": "float32", "quantization": {"dtype": "uint16", "min": 0.0015114059206098318, "scale": 0.005294451472739062, "original_dtype": "float32"}}, {"name": "batch_normalization_113/moving_variance", "shape": [64], "dtype": "float32", "quantization": {"dtype": "uint16", "min": 0.008777694776654243, "scale": 0.4378089804654799, "original_dtype": "float32"}}, {"name": "batch_normalization_114/gamma", "shape": [128], "dtype": "float32", "quantization": {"dtype": "uint16", "min": 0.9531495571136475, "scale": 1.3617999204247224e-06, "original_dtype": "float32"}}, {"name": "batch_normalization_114/beta", "shape": [128], "dtype": "float32", "quantization": {"dtype": "uint16", "min": -0.03703546967404862, "scale": 2.260327718892195e-06, "original_dtype": "float32"}}, {"name": "batch_normalization_114/moving_mean", "shape": [128], "dtype": "float32", "quantization": {"dtype": "uint16", "min": 0.19446979463100433, "scale": 1.3272764526880005e-05, "original_dtype": "float32"}}, {"name": "batch_normalization_114/moving_variance", "shape": [128], "dtype": "float32", "quantization": {"dtype": "uint16", "min": 0.14443442225456238, "scale": 3.518974598225152e-05, "original_dtype": "float32"}}, {"name": "batch_normalization_115/gamma", "shape": [256], "dtype": "float32", "quantization": {"dtype": "uint16", "min": 0.9107288718223572, "scale": 2.5610388248438074e-06, "original_dtype": "float32"}}, {"name": "batch_normalization_115/beta", "shape": [256], "dtype": "float32", "quantization": {"dtype": "uint16", "min": -0.06267925351858139, "scale": 9.222899571355588e-07, "original_dtype": "float32"}}, {"name": "batch_normalization_115/moving_mean", "shape": [256], "dtype": "float32", "quantization": {"dtype": "uint16", "min": 0.015839438885450363, "scale": 2.632329773782838e-05, "original_dtype": "float32"}}, {"name": "batch_normalization_115/moving_variance", "shape": [256], "dtype": "float32", "quantization": {"dtype": "uint16", "min": 0.016863113269209862, "scale": 9.305503509556154e-05, "original_dtype": "float32"}}, {"name": "batch_normalization_116/gamma", "shape": [256], "dtype": "float32", "quantization": {"dtype": "uint16", "min": 0.9495236873626709, "scale": 3.055605033792438e-06, "original_dtype": "float32"}}, {"name": "batch_normalization_116/beta", "shape": [256], "dtype": "float32", "quantization": {"dtype": "uint16", "min": -0.10472517322168803, "scale": 3.0020115585979083e-06, "original_dtype": "float32"}}, {"name": "batch_normalization_116/moving_mean", "shape": [256], "dtype": "float32", "quantization": {"dtype": "uint16", "min": 1.1656964719597284e-36, "scale": 0.0008802157677292251, "original_dtype": "float32"}}, {"name": "batch_normalization_116/moving_variance", "shape": [256], "dtype": "float32", "quantization": {"dtype": "uint16", "min": 1.1638968011575776e-36, "scale": 0.021022938601510645, "original_dtype": "float32"}}, {"name": "batch_normalization_117/gamma", "shape": [64], "dtype": "float32", "quantization": {"dtype": "uint16", "min": 0.9430671334266663, "scale": 2.51241649616917e-06, "original_dtype": "float32"}}, {"name": "batch_normalization_117/beta", "shape": [64], "dtype": "float32", "quantization": {"dtype": "uint16", "min": -0.036311495297684265, "scale": 8.944819632389275e-07, "original_dtype": "float32"}}, {"name": "batch_normalization_117/moving_mean", "shape": [64], "dtype": "float32", "quantization": {"dtype": "uint16", "min": 3.417975312913768e-05, "scale": 0.005272639288493457, "original_dtype": "float32"}}, {"name": "batch_normalization_117/moving_variance", "shape": [64], "dtype": "float32", "quantization": {"dtype": "uint16", "min": 4.130655725020915e-05, "scale": 0.5436513521773624, "original_dtype": "float32"}}, {"name": "batch_normalization_118/gamma", "shape": [128], "dtype": "float32", "quantization": {"dtype": "uint16", "min": 0.9698329567909241, "scale": 1.2240994119385866e-06, "original_dtype": "float32"}}, {"name": "batch_normalization_118/beta", "shape": [128], "dtype": "float32", "quantization": {"dtype": "uint16", "min": -0.020162352343518555, "scale": 1.3731766221833792e-06, "original_dtype": "float32"}}, {"name": "batch_normalization_118/moving_mean", "shape": [128], "dtype": "float32", "quantization": {"dtype": "uint16", "min": 0.19272403419017792, "scale": 8.83343223031311e-06, "original_dtype": "float32"}}, {"name": "batch_normalization_118/moving_variance", "shape": [128], "dtype": "float32", "quantization": {"dtype": "uint16", "min": 0.12381437420845032, "scale": 2.3653067121464262e-05, "original_dtype": "float32"}}, {"name": "batch_normalization_119/gamma", "shape": [256], "dtype": "float32", "quantization": {"dtype": "uint16", "min": 0.9269087910652161, "scale": 2.556698649901133e-06, "original_dtype": "float32"}}, {"name": "batch_normalization_119/beta", "shape": [256], "dtype": "float32", "quantization": {"dtype": "uint16", "min": -0.050180860865141244, "scale": 9.836105781433883e-07, "original_dtype": "float32"}}, {"name": "batch_normalization_119/moving_mean", "shape": [256], "dtype": "float32", "quantization": {"dtype": "uint16", "min": 0.01969609223306179, "scale": 2.8307179783878006e-05, "original_dtype": "float32"}}, {"name": "batch_normalization_119/moving_variance", "shape": [256], "dtype": "float32", "quantization": {"dtype": "uint16", "min": 0.014783214777708054, "scale": 9.480384447404174e-05, "original_dtype": "float32"}}, {"name": "batch_normalization_120/gamma", "shape": [512], "dtype": "float32", "quantization": {"dtype": "uint16", "min": 0.8826770186424255, "scale": 3.267943454369024e-06, "original_dtype": "float32"}}, {"name": "batch_normalization_120/beta", "shape": [512], "dtype": "float32", "quantization": {"dtype": "uint16", "min": -0.17770100031890776, "scale": 5.323577001764762e-06, "original_dtype": "float32"}}, {"name": "batch_normalization_120/moving_mean", "shape": [512], "dtype": "float32", "quantization": {"dtype": "uint16", "min": 7.677757471526626e-27, "scale": 0.0013485405077111705, "original_dtype": "float32"}}, {"name": "batch_normalization_120/moving_variance", "shape": [512], "dtype": "float32", "quantization": {"dtype": "uint16", "min": 9.35318633027928e-27, "scale": 0.031265482542725265, "original_dtype": "float32"}}, {"name": "batch_normalization_121/gamma", "shape": [64], "dtype": "float32", "quantization": {"dtype": "uint16", "min": 0.9453418254852295, "scale": 2.3554871572894837e-06, "original_dtype": "float32"}}, {"name": "batch_normalization_121/beta", "shape": [64], "dtype": "float32", "quantization": {"dtype": "uint16", "min": -0.03445240117491834, "scale": 1.0118179493368087e-06, "original_dtype": "float32"}}, {"name": "batch_normalization_121/moving_mean", "shape": [64], "dtype": "float32", "quantization": {"dtype": "uint16", "min": 0.00019355094991624355, "scale": 0.005722867410928847, "original_dtype": "float32"}}, {"name": "batch_normalization_121/moving_variance", "shape": [64], "dtype": "float32", "quantization": {"dtype": "uint16", "min": 0.007739577908068895, "scale": 0.5763240788955839, "original_dtype": "float32"}}, {"name": "batch_normalization_122/gamma", "shape": [128], "dtype": "float32", "quantization": {"dtype": "uint16", "min": 0.9642559289932251, "scale": 1.3056104803663775e-06, "original_dtype": "float32"}}, {"name": "batch_normalization_122/beta", "shape": [128], "dtype": "float32", "quantization": {"dtype": "uint16", "min": -0.030514288202816046, "scale": 1.4379966165323302e-06, "original_dtype": "float32"}}, {"name": "batch_normalization_122/moving_mean", "shape": [128], "dtype": "float32", "quantization": {"dtype": "uint16", "min": 0.18980617821216583, "scale": 1.5468609735950632e-05, "original_dtype": "float32"}}, {"name": "batch_normalization_122/moving_variance", "shape": [128], "dtype": "float32", "quantization": {"dtype": "uint16", "min": 0.1256473958492279, "scale": 4.423409393434531e-05, "original_dtype": "float32"}}, {"name": "batch_normalization_123/gamma", "shape": [256], "dtype": "float32", "quantization": {"dtype": "uint16", "min": 0.9356957674026489, "scale": 2.3186520598086973e-06, "original_dtype": "float32"}}, {"name": "batch_normalization_123/beta", "shape": [256], "dtype": "float32", "quantization": {"dtype": "uint16", "min": -0.0318601809127197, "scale": 5.792233599258195e-07, "original_dtype": "float32"}}, {"name": "batch_normalization_123/moving_mean", "shape": [256], "dtype": "float32", "quantization": {"dtype": "uint16", "min": 0.032870396971702576, "scale": 2.6178814967018592e-05, "original_dtype": "float32"}}, {"name": "batch_normalization_123/moving_variance", "shape": [256], "dtype": "float32", "quantization": {"dtype": "uint16", "min": 0.0339362695813179, "scale": 6.834495299066369e-05, "original_dtype": "float32"}}, {"name": "batch_normalization_124/gamma", "shape": [512], "dtype": "float32", "quantization": {"dtype": "uint16", "min": 0.8871420621871948, "scale": 3.5084202513866113e-06, "original_dtype": "float32"}}, {"name": "batch_normalization_124/beta", "shape": [512], "dtype": "float32", "quantization": {"dtype": "uint16", "min": -0.17697526499727928, "scale": 5.5303042091584415e-06, "original_dtype": "float32"}}, {"name": "batch_normalization_124/moving_mean", "shape": [512], "dtype": "float32", "quantization": {"dtype": "uint16", "min": 1.175187365565111e-36, "scale": 0.0014853155803032849, "original_dtype": "float32"}}, {"name": "batch_normalization_124/moving_variance", "shape": [512], "dtype": "float32", "quantization": {"dtype": "uint16", "min": 1.16731283050197e-36, "scale": 0.03647776474402991, "original_dtype": "float32"}}, {"name": "conv2d_240/kernel", "shape": [3, 3, 3, 64], "dtype": "float32", "quantization": {"dtype": "uint16", "min": -0.6275881771493069, "scale": 1.9159487640411128e-05, "original_dtype": "float32"}}, {"name": "conv2d_240/bias", "shape": [64], "dtype": "float32", "quantization": {"dtype": "uint16", "min": -0.030132269654504003, "scale": 1.20135035700917e-06, "original_dtype": "float32"}}, {"name": "conv2d_241/kernel", "shape": [3, 3, 64, 128], "dtype": "float32", "quantization": {"dtype": "uint16", "min": -0.12251130465005694, "scale": 3.630072139916944e-06, "original_dtype": "float32"}}, {"name": "conv2d_241/bias", "shape": [128], "dtype": "float32", "quantization": {"dtype": "uint16", "min": -0.06365227946580852, "scale": 1.6471025867721185e-06, "original_dtype": "float32"}}, {"name": "conv2d_242/kernel", "shape": [3, 3, 128, 256], "dtype": "float32", "quantization": {"dtype": "uint16", "min": -0.08647555071024089, "scale": 2.5143357866496347e-06, "original_dtype": "float32"}}, {"name": "conv2d_242/bias", "shape": [256], "dtype": "float32", "quantization": {"dtype": "uint16", "min": -0.053318881254893036, "scale": 1.7157023282457456e-06, "original_dtype": "float32"}}, {"name": "conv2d_243/kernel", "shape": [3, 3, 256, 512], "dtype": "float32", "quantization": {"dtype": "uint16", "min": -0.08471470071409136, "scale": 2.5645475952559972e-06, "original_dtype": "float32"}}, {"name": "conv2d_243/bias", "shape": [512], "dtype": "float32", "quantization": {"dtype": "uint16", "min": -0.04649839387678518, "scale": 7.335751408321266e-07, "original_dtype": "float32"}}, {"name": "conv2d_244/kernel", "shape": [3, 3, 3, 64], "dtype": "float32", "quantization": {"dtype": "uint16", "min": -0.6246047729829943, "scale": 1.9082972502612028e-05, "original_dtype": "float32"}}, {"name": "conv2d_244/bias", "shape": [64], "dtype": "float32", "quantization": {"dtype": "uint16", "min": -0.022396911800185083, "scale": 1.4706751461149835e-06, "original_dtype": "float32"}}, {"name": "conv2d_245/kernel", "shape": [3, 3, 64, 128], "dtype": "float32", "quantization": {"dtype": "uint16", "min": -0.09392296776222112, "scale": 3.068275056751531e-06, "original_dtype": "float32"}}, {"name": "conv2d_245/bias", "shape": [128], "dtype": "float32", "quantization": {"dtype": "uint16", "min": -0.03260934850964287, "scale": 9.480288545408865e-07, "original_dtype": "float32"}}, {"name": "conv2d_246/kernel", "shape": [3, 3, 128, 256], "dtype": "float32", "quantization": {"dtype": "uint16", "min": -0.0863319523163561, "scale": 2.43524730801264e-06, "original_dtype": "float32"}}, {"name": "conv2d_246/bias", "shape": [256], "dtype": "float32", "quantization": {"dtype": "uint16", "min": -0.04017488042474875, "scale": 1.3046333839302707e-06, "original_dtype": "float32"}}, {"name": "conv2d_247/kernel", "shape": [3, 3, 256, 256], "dtype": "float32", "quantization": {"dtype": "uint16", "min": -0.07832096120153746, "scale": 2.4321769207359004e-06, "original_dtype": "float32"}}, {"name": "conv2d_247/bias", "shape": [256], "dtype": "float32", "quantization": {"dtype": "uint16", "min": -0.04576755046390865, "scale": 1.1246480025533519e-06, "original_dtype": "float32"}}, {"name": "conv2d_248/kernel", "shape": [3, 3, 256, 512], "dtype": "float32", "quantization": {"dtype": "uint16", "min": -0.07912610531617259, "scale": 2.32464026429792e-06, "original_dtype": "float32"}}, {"name": "conv2d_248/bias", "shape": [512], "dtype": "float32", "quantization": {"dtype": "uint16", "min": -0.030477902583068487, "scale": 5.590942084102597e-07, "original_dtype": "float32"}}, {"name": "conv2d_249/kernel", "shape": [3, 3, 3, 64], "dtype": "float32", "quantization": {"dtype": "uint16", "min": -0.6557728792142747, "scale": 1.9546719103826486e-05, "original_dtype": "float32"}}, {"name": "conv2d_249/bias", "shape": [64], "dtype": "float32", "quantization": {"dtype": "uint16", "min": -0.014512254167787267, "scale": 9.52622697110888e-07, "original_dtype": "float32"}}, {"name": "conv2d_250/kernel", "shape": [3, 3, 64, 128], "dtype": "float32", "quantization": {"dtype": "uint16", "min": -0.10216928384388085, "scale": 3.083145749407956e-06, "original_dtype": "float32"}}, {"name": "conv2d_250/bias", "shape": [128], "dtype": "float32", "quantization": {"dtype": "uint16", "min": -0.0428490806972102, "scale": 1.4349512975858208e-06, "original_dtype": "float32"}}, {"name": "conv2d_251/kernel", "shape": [3, 3, 128, 256], "dtype": "float32", "quantization": {"dtype": "uint16", "min": -0.0926133780846145, "scale": 2.6209355355618776e-06, "original_dtype": "float32"}}, {"name": "conv2d_251/bias", "shape": [256], "dtype": "float32", "quantization": {"dtype": "uint16", "min": -0.06178428405863002, "scale": 1.2895367352360582e-06, "original_dtype": "float32"}}, {"name": "conv2d_252/kernel", "shape": [3, 3, 3, 64], "dtype": "float32", "quantization": {"dtype": "uint16", "min": -0.6365332170846834, "scale": 1.9204501948549807e-05, "original_dtype": "float32"}}, {"name": "conv2d_252/bias", "shape": [64], "dtype": "float32", "quantization": {"dtype": "uint16", "min": -0.035058769004913566, "scale": 1.7691259527130023e-06, "original_dtype": "float32"}}, {"name": "conv2d_253/kernel", "shape": [3, 3, 64, 128], "dtype": "float32", "quantization": {"dtype": "uint16", "min": -0.1306764837796386, "scale": 3.4787691348003035e-06, "original_dtype": "float32"}}, {"name": "conv2d_253/bias", "shape": [128], "dtype": "float32", "quantization": {"dtype": "uint16", "min": -0.07527646310209656, "scale": 1.961448306375959e-06, "original_dtype": "float32"}}, {"name": "conv2d_254/kernel", "shape": [3, 3, 128, 256], "dtype": "float32", "quantization": {"dtype": "uint16", "min": -0.08211690600598497, "scale": 2.377443717602344e-06, "original_dtype": "float32"}}, {"name": "conv2d_254/bias", "shape": [256], "dtype": "float32", "quantization": {"dtype": "uint16", "min": -0.07371217730280517, "scale": 1.5609049911656186e-06, "original_dtype": "float32"}}, {"name": "conv2d_255/kernel", "shape": [3, 3, 3, 64], "dtype": "float32", "quantization": {"dtype": "uint16", "min": -0.6224559932631105, "scale": 1.9088472300993912e-05, "original_dtype": "float32"}}, {"name": "conv2d_255/bias", "shape": [64], "dtype": "float32", "quantization": {"dtype": "uint16", "min": -0.014038550178504394, "scale": 8.573683998109438e-07, "original_dtype": "float32"}}, {"name": "conv2d_256/kernel", "shape": [3, 3, 64, 128], "dtype": "float32", "quantization": {"dtype": "uint16", "min": -0.11309025452158276, "scale": 3.7360506944692027e-06, "original_dtype": "float32"}}, {"name": "conv2d_256/bias", "shape": [128], "dtype": "float32", "quantization": {"dtype": "uint16", "min": -0.029815948455604927, "scale": 1.047570390541948e-06, "original_dtype": "float32"}}, {"name": "conv2d_257/kernel", "shape": [3, 3, 128, 256], "dtype": "float32", "quantization": {"dtype": "uint16", "min": -0.08037379182630158, "scale": 2.430855063703774e-06, "original_dtype": "float32"}}, {"name": "conv2d_257/bias", "shape": [256], "dtype": "float32", "quantization": {"dtype": "uint16", "min": -0.05070466494316038, "scale": 1.140455801690517e-06, "original_dtype": "float32"}}, {"name": "conv2d_258/kernel", "shape": [3, 3, 3, 64], "dtype": "float32", "quantization": {"dtype": "uint16", "min": -0.6219344414543795, "scale": 1.9039780849667212e-05, "original_dtype": "float32"}}, {"name": "conv2d_258/bias", "shape": [64], "dtype": "float32", "quantization": {"dtype": "uint16", "min": -0.04028070300324081, "scale": 1.230771907945515e-06, "original_dtype": "float32"}}, {"name": "conv2d_259/kernel", "shape": [3, 3, 64, 128], "dtype": "float32", "quantization": {"dtype": "uint16", "min": -0.10514145966474583, "scale": 3.493768181855049e-06, "original_dtype": "float32"}}, {"name": "conv2d_259/bias", "shape": [128], "dtype": "float32", "quantization": {"dtype": "uint16", "min": -0.05194298308983615, "scale": 1.4953645523329154e-06, "original_dtype": "float32"}}, {"name": "conv2d_260/kernel", "shape": [3, 3, 128, 256], "dtype": "float32", "quantization": {"dtype": "uint16", "min": -0.07841335312504058, "scale": 2.3805626498995287e-06, "original_dtype": "float32"}}, {"name": "conv2d_260/bias", "shape": [256], "dtype": "float32", "quantization": {"dtype": "uint16", "min": -0.05156279255252977, "scale": 1.1938318759123375e-06, "original_dtype": "float32"}}, {"name": "dense_137/kernel", "shape": [41472, 512], "dtype": "float32", "quantization": {"dtype": "uint16", "min": -0.017900970195432662, "scale": 5.56051632200561e-07, "original_dtype": "float32"}}, {"name": "dense_137/bias", "shape": [512], "dtype": "float32", "quantization": {"dtype": "uint16", "min": -0.00015611148642761467, "scale": 4.543936617406412e-09, "original_dtype": "float32"}}, {"name": "dense_138/kernel", "shape": [512, 7], "dtype": "float32", "quantization": {"dtype": "uint16", "min": -0.23118847893697225, "scale": 5.905348257604849e-06, "original_dtype": "float32"}}, {"name": "dense_138/bias", "shape": [7], "dtype": "float32", "quantization": {"dtype": "uint16", "min": -0.04724325579564449, "scale": 1.1246787553122052e-06, "original_dtype": "float32"}}, {"name": "dense_139/kernel", "shape": [8192, 512], "dtype": "float32", "quantization": {"dtype": "uint16", "min": -0.07786316199607177, "scale": 2.3290010168722114e-06, "original_dtype": "float32"}}, {"name": "dense_139/bias", "shape": [512], "dtype": "float32", "quantization": {"dtype": "uint16", "min": -0.019724615161013908, "scale": 6.148954162046858e-07, "original_dtype": "float32"}}, {"name": "dense_140/kernel", "shape": [512, 5], "dtype": "float32", "quantization": {"dtype": "uint16", "min": -0.15135004048881537, "scale": 4.846147753476205e-06, "original_dtype": "float32"}}, {"name": "dense_140/bias", "shape": [5], "dtype": "float32", "quantization": {"dtype": "uint16", "min": -0.09258812743474938, "scale": 2.6343859168824155e-06, "original_dtype": "float32"}}, {"name": "dense_141/kernel", "shape": [82944, 256], "dtype": "float32", "quantization": {"dtype": "uint16", "min": -0.06381017688647318, "scale": 1.8618749091524622e-06, "original_dtype": "float32"}}, {"name": "dense_141/bias", "shape": [256], "dtype": "float32", "quantization": {"dtype": "uint16", "min": -0.013749146027111204, "scale": 6.368293667026959e-07, "original_dtype": "float32"}}, {"name": "dense_142/kernel", "shape": [256, 2], "dtype": "float32", "quantization": {"dtype": "uint16", "min": -0.2294274853063392, "scale": 7.253247931027764e-06, "original_dtype": "float32"}}, {"name": "dense_142/bias", "shape": [2], "dtype": "float32", "quantization": {"dtype": "uint16", "min": -0.10989153267926698, "scale": 3.4418545690073597e-06, "original_dtype": "float32"}}, {"name": "dense_143/kernel", "shape": [82944, 256], "dtype": "float32", "quantization": {"dtype": "uint16", "min": -0.05179559738205637, "scale": 1.627052754352465e-06, "original_dtype": "float32"}}, {"name": "dense_143/bias", "shape": [256], "dtype": "float32", "quantization": {"dtype": "uint16", "min": -0.01539394376586156, "scale": 6.58902699390556e-07, "original_dtype": "float32"}}, {"name": "dense_144/kernel", "shape": [256, 4], "dtype": "float32", "quantization": {"dtype": "uint16", "min": -0.22771467427312622, "scale": 6.791978831184604e-06, "original_dtype": "float32"}}, {"name": "dense_144/bias", "shape": [4], "dtype": "float32", "quantization": {"dtype": "uint16", "min": -0.08463642071007983, "scale": 1.9783647112054377e-06, "original_dtype": "float32"}}, {"name": "dense_145/kernel", "shape": [82944, 512], "dtype": "float32", "quantization": {"dtype": "uint16", "min": -0.060405604786869044, "scale": 1.816436770015608e-06, "original_dtype": "float32"}}, {"name": "dense_145/bias", "shape": [512], "dtype": "float32", "quantization": {"dtype": "uint16", "min": -0.02288278912677889, "scale": 6.989885794904509e-07, "original_dtype": "float32"}}, {"name": "dense_146/kernel", "shape": [512, 2], "dtype": "float32", "quantization": {"dtype": "uint16", "min": -0.19376392530328104, "scale": 5.939488253786624e-06, "original_dtype": "float32"}}, {"name": "dense_146/bias", "shape": [2], "dtype": "float32", "quantization": {"dtype": "uint16", "min": -0.13343270822985454, "scale": 4.101331168311752e-06, "original_dtype": "float32"}}, {"name": "dense_147/kernel", "shape": [82944, 512], "dtype": "float32", "quantization": {"dtype": "uint16", "min": -0.062077868555317835, "scale": 1.7420476653660118e-06, "original_dtype": "float32"}}, {"name": "dense_147/bias", "shape": [512], "dtype": "float32", "quantization": {"dtype": "uint16", "min": -0.02036746914148276, "scale": 7.836053070745907e-07, "original_dtype": "float32"}}, {"name": "dense_148/kernel", "shape": [512, 2], "dtype": "float32", "quantization": {"dtype": "uint16", "min": -0.21837804954380488, "scale": 7.182307171314089e-06, "original_dtype": "float32"}}, {"name": "dense_148/bias", "shape": [2], "dtype": "float32", "quantization": {"dtype": "uint16", "min": -0.13621905915131602, "scale": 4.152893483470505e-06, "original_dtype": "float32"}}]}]}