{"format": "layers-model", "generatedBy": "keras v2.8.0", "convertedBy": "TensorFlow.js Converter v3.20.0", "modelTopology": {"keras_version": "2.8.0", "backend": "tensorflow", "model_config": {"class_name": "Model", "config": {"name": "face_descriptor_by_rebeca", "layers": [{"class_name": "InputLayer", "config": {"batch_input_shape": [null, 218, 218, 3], "dtype": "float32", "sparse": false, "ragged": false, "name": "input_2"}, "name": "input_2", "inbound_nodes": []}, {"class_name": "Conv2D", "config": {"name": "conv2d_5", "trainable": true, "dtype": "float32", "filters": 32, "kernel_size": [3, 3], "strides": [1, 1], "padding": "same", "data_format": "channels_last", "dilation_rate": [1, 1], "groups": 1, "activation": "linear", "use_bias": true, "kernel_initializer": {"class_name": "HeNormal", "config": {"seed": null}}, "bias_initializer": {"class_name": "Zeros", "config": {}}, "kernel_regularizer": null, "bias_regularizer": null, "activity_regularizer": null, "kernel_constraint": null, "bias_constraint": null}, "name": "conv2d_5", "inbound_nodes": [[["input_2", 0, 0, {}]]]}, {"class_name": "Activation", "config": {"name": "activation_6", "trainable": true, "dtype": "float32", "activation": "relu"}, "name": "activation_6", "inbound_nodes": [[["conv2d_5", 0, 0, {}]]]}, {"class_name": "BatchNormalization", "config": {"name": "batch_normalization_5", "trainable": true, "dtype": "float32", "axis": [3], "momentum": 0.99, "epsilon": 0.001, "center": true, "scale": true, "beta_initializer": {"class_name": "Zeros", "config": {}}, "gamma_initializer": {"class_name": "Ones", "config": {}}, "moving_mean_initializer": {"class_name": "Zeros", "config": {}}, "moving_variance_initializer": {"class_name": "Ones", "config": {}}, "beta_regularizer": null, "gamma_regularizer": null, "beta_constraint": null, "gamma_constraint": null}, "name": "batch_normalization_5", "inbound_nodes": [[["activation_6", 0, 0, {}]]]}, {"class_name": "MaxPooling2D", "config": {"name": "max_pooling2d_4", "trainable": true, "dtype": "float32", "pool_size": [3, 3], "padding": "valid", "strides": [3, 3], "data_format": "channels_last"}, "name": "max_pooling2d_4", "inbound_nodes": [[["batch_normalization_5", 0, 0, {}]]]}, {"class_name": "Dropout", "config": {"name": "dropout_6", "trainable": true, "dtype": "float32", "rate": 0.25, "noise_shape": null, "seed": null}, "name": "dropout_6", "inbound_nodes": [[["max_pooling2d_4", 0, 0, {}]]]}, {"class_name": "Conv2D", "config": {"name": "conv2d_6", "trainable": true, "dtype": "float32", "filters": 64, "kernel_size": [3, 3], "strides": [1, 1], "padding": "same", "data_format": "channels_last", "dilation_rate": [1, 1], "groups": 1, "activation": "linear", "use_bias": true, "kernel_initializer": {"class_name": "GlorotUniform", "config": {"seed": null}}, "bias_initializer": {"class_name": "Zeros", "config": {}}, "kernel_regularizer": null, "bias_regularizer": null, "activity_regularizer": null, "kernel_constraint": null, "bias_constraint": null}, "name": "conv2d_6", "inbound_nodes": [[["dropout_6", 0, 0, {}]]]}, {"class_name": "Activation", "config": {"name": "activation_7", "trainable": true, "dtype": "float32", "activation": "relu"}, "name": "activation_7", "inbound_nodes": [[["conv2d_6", 0, 0, {}]]]}, {"class_name": "BatchNormalization", "config": {"name": "batch_normalization_6", "trainable": true, "dtype": "float32", "axis": [3], "momentum": 0.99, "epsilon": 0.001, "center": true, "scale": true, "beta_initializer": {"class_name": "Zeros", "config": {}}, "gamma_initializer": {"class_name": "Ones", "config": {}}, "moving_mean_initializer": {"class_name": "Zeros", "config": {}}, "moving_variance_initializer": {"class_name": "Ones", "config": {}}, "beta_regularizer": null, "gamma_regularizer": null, "beta_constraint": null, "gamma_constraint": null}, "name": "batch_normalization_6", "inbound_nodes": [[["activation_7", 0, 0, {}]]]}, {"class_name": "MaxPooling2D", "config": {"name": "max_pooling2d_5", "trainable": true, "dtype": "float32", "pool_size": [2, 2], "padding": "valid", "strides": [2, 2], "data_format": "channels_last"}, "name": "max_pooling2d_5", "inbound_nodes": [[["batch_normalization_6", 0, 0, {}]]]}, {"class_name": "Dropout", "config": {"name": "dropout_7", "trainable": true, "dtype": "float32", "rate": 0.25, "noise_shape": null, "seed": null}, "name": "dropout_7", "inbound_nodes": [[["max_pooling2d_5", 0, 0, {}]]]}, {"class_name": "Conv2D", "config": {"name": "conv2d_7", "trainable": true, "dtype": "float32", "filters": 128, "kernel_size": [3, 3], "strides": [1, 1], "padding": "same", "data_format": "channels_last", "dilation_rate": [1, 1], "groups": 1, "activation": "linear", "use_bias": true, "kernel_initializer": {"class_name": "GlorotUniform", "config": {"seed": null}}, "bias_initializer": {"class_name": "Zeros", "config": {}}, "kernel_regularizer": null, "bias_regularizer": null, "activity_regularizer": null, "kernel_constraint": null, "bias_constraint": null}, "name": "conv2d_7", "inbound_nodes": [[["dropout_7", 0, 0, {}]]]}, {"class_name": "Conv2D", "config": {"name": "conv2d_1", "trainable": true, "dtype": "float32", "filters": 32, "kernel_size": [3, 3], "strides": [1, 1], "padding": "same", "data_format": "channels_last", "dilation_rate": [1, 1], "groups": 1, "activation": "linear", "use_bias": true, "kernel_initializer": {"class_name": "HeNormal", "config": {"seed": null}}, "bias_initializer": {"class_name": "Zeros", "config": {}}, "kernel_regularizer": null, "bias_regularizer": null, "activity_regularizer": null, "kernel_constraint": null, "bias_constraint": null}, "name": "conv2d_1", "inbound_nodes": [[["input_2", 0, 0, {}]]]}, {"class_name": "Activation", "config": {"name": "activation_8", "trainable": true, "dtype": "float32", "activation": "relu"}, "name": "activation_8", "inbound_nodes": [[["conv2d_7", 0, 0, {}]]]}, {"class_name": "Activation", "config": {"name": "activation_1", "trainable": true, "dtype": "float32", "activation": "relu"}, "name": "activation_1", "inbound_nodes": [[["conv2d_1", 0, 0, {}]]]}, {"class_name": "BatchNormalization", "config": {"name": "batch_normalization_7", "trainable": true, "dtype": "float32", "axis": [3], "momentum": 0.99, "epsilon": 0.001, "center": true, "scale": true, "beta_initializer": {"class_name": "Zeros", "config": {}}, "gamma_initializer": {"class_name": "Ones", "config": {}}, "moving_mean_initializer": {"class_name": "Zeros", "config": {}}, "moving_variance_initializer": {"class_name": "Ones", "config": {}}, "beta_regularizer": null, "gamma_regularizer": null, "beta_constraint": null, "gamma_constraint": null}, "name": "batch_normalization_7", "inbound_nodes": [[["activation_8", 0, 0, {}]]]}, {"class_name": "BatchNormalization", "config": {"name": "batch_normalization", "trainable": true, "dtype": "float32", "axis": [3], "momentum": 0.99, "epsilon": 0.001, "center": true, "scale": true, "beta_initializer": {"class_name": "Zeros", "config": {}}, "gamma_initializer": {"class_name": "Ones", "config": {}}, "moving_mean_initializer": {"class_name": "Zeros", "config": {}}, "moving_variance_initializer": {"class_name": "Ones", "config": {}}, "beta_regularizer": null, "gamma_regularizer": null, "beta_constraint": null, "gamma_constraint": null}, "name": "batch_normalization", "inbound_nodes": [[["activation_1", 0, 0, {}]]]}, {"class_name": "MaxPooling2D", "config": {"name": "max_pooling2d_6", "trainable": true, "dtype": "float32", "pool_size": [2, 2], "padding": "valid", "strides": [2, 2], "data_format": "channels_last"}, "name": "max_pooling2d_6", "inbound_nodes": [[["batch_normalization_7", 0, 0, {}]]]}, {"class_name": "Conv2D", "config": {"name": "conv2d_16", "trainable": true, "dtype": "float32", "filters": 32, "kernel_size": [3, 3], "strides": [1, 1], "padding": "same", "data_format": "channels_last", "dilation_rate": [1, 1], "groups": 1, "activation": "linear", "use_bias": true, "kernel_initializer": {"class_name": "HeNormal", "config": {"seed": null}}, "bias_initializer": {"class_name": "Zeros", "config": {}}, "kernel_regularizer": null, "bias_regularizer": null, "activity_regularizer": null, "kernel_constraint": null, "bias_constraint": null}, "name": "conv2d_16", "inbound_nodes": [[["input_2", 0, 0, {}]]]}, {"class_name": "MaxPooling2D", "config": {"name": "max_pooling2d", "trainable": true, "dtype": "float32", "pool_size": [3, 3], "padding": "valid", "strides": [3, 3], "data_format": "channels_last"}, "name": "max_pooling2d", "inbound_nodes": [[["batch_normalization", 0, 0, {}]]]}, {"class_name": "Dropout", "config": {"name": "dropout_8", "trainable": true, "dtype": "float32", "rate": 0.25, "noise_shape": null, "seed": null}, "name": "dropout_8", "inbound_nodes": [[["max_pooling2d_6", 0, 0, {}]]]}, {"class_name": "Activation", "config": {"name": "activation_11", "trainable": true, "dtype": "float32", "activation": "relu"}, "name": "activation_11", "inbound_nodes": [[["conv2d_16", 0, 0, {}]]]}, {"class_name": "Conv2D", "config": {"name": "conv2d_21", "trainable": true, "dtype": "float32", "filters": 32, "kernel_size": [3, 3], "strides": [1, 1], "padding": "same", "data_format": "channels_last", "dilation_rate": [1, 1], "groups": 1, "activation": "linear", "use_bias": true, "kernel_initializer": {"class_name": "HeNormal", "config": {"seed": null}}, "bias_initializer": {"class_name": "Zeros", "config": {}}, "kernel_regularizer": null, "bias_regularizer": null, "activity_regularizer": null, "kernel_constraint": null, "bias_constraint": null}, "name": "conv2d_21", "inbound_nodes": [[["input_2", 0, 0, {}]]]}, {"class_name": "Dropout", "config": {"name": "dropout", "trainable": true, "dtype": "float32", "rate": 0.25, "noise_shape": null, "seed": null}, "name": "dropout", "inbound_nodes": [[["max_pooling2d", 0, 0, {}]]]}, {"class_name": "Conv2D", "config": {"name": "conv2d_8", "trainable": true, "dtype": "float32", "filters": 512, "kernel_size": [3, 3], "strides": [1, 1], "padding": "same", "data_format": "channels_last", "dilation_rate": [1, 1], "groups": 1, "activation": "relu", "use_bias": true, "kernel_initializer": {"class_name": "GlorotUniform", "config": {"seed": null}}, "bias_initializer": {"class_name": "Zeros", "config": {}}, "kernel_regularizer": null, "bias_regularizer": null, "activity_regularizer": null, "kernel_constraint": null, "bias_constraint": null}, "name": "conv2d_8", "inbound_nodes": [[["dropout_8", 0, 0, {}]]]}, {"class_name": "BatchNormalization", "config": {"name": "batch_normalization_10", "trainable": true, "dtype": "float32", "axis": [3], "momentum": 0.99, "epsilon": 0.001, "center": true, "scale": true, "beta_initializer": {"class_name": "Zeros", "config": {}}, "gamma_initializer": {"class_name": "Ones", "config": {}}, "moving_mean_initializer": {"class_name": "Zeros", "config": {}}, "moving_variance_initializer": {"class_name": "Ones", "config": {}}, "beta_regularizer": null, "gamma_regularizer": null, "beta_constraint": null, "gamma_constraint": null}, "name": "batch_normalization_10", "inbound_nodes": [[["activation_11", 0, 0, {}]]]}, {"class_name": "Activation", "config": {"name": "activation_15", "trainable": true, "dtype": "float32", "activation": "relu"}, "name": "activation_15", "inbound_nodes": [[["conv2d_21", 0, 0, {}]]]}, {"class_name": "Conv2D", "config": {"name": "conv2d_26", "trainable": true, "dtype": "float32", "filters": 32, "kernel_size": [3, 3], "strides": [1, 1], "padding": "same", "data_format": "channels_last", "dilation_rate": [1, 1], "groups": 1, "activation": "linear", "use_bias": true, "kernel_initializer": {"class_name": "HeNormal", "config": {"seed": null}}, "bias_initializer": {"class_name": "Zeros", "config": {}}, "kernel_regularizer": null, "bias_regularizer": null, "activity_regularizer": null, "kernel_constraint": null, "bias_constraint": null}, "name": "conv2d_26", "inbound_nodes": [[["input_2", 0, 0, {}]]]}, {"class_name": "Conv2D", "config": {"name": "conv2d_31", "trainable": true, "dtype": "float32", "filters": 32, "kernel_size": [3, 3], "strides": [1, 1], "padding": "same", "data_format": "channels_last", "dilation_rate": [1, 1], "groups": 1, "activation": "linear", "use_bias": true, "kernel_initializer": {"class_name": "HeNormal", "config": {"seed": null}}, "bias_initializer": {"class_name": "Zeros", "config": {}}, "kernel_regularizer": null, "bias_regularizer": null, "activity_regularizer": null, "kernel_constraint": null, "bias_constraint": null}, "name": "conv2d_31", "inbound_nodes": [[["input_2", 0, 0, {}]]]}, {"class_name": "Conv2D", "config": {"name": "conv2d_2", "trainable": true, "dtype": "float32", "filters": 64, "kernel_size": [3, 3], "strides": [1, 1], "padding": "same", "data_format": "channels_last", "dilation_rate": [1, 1], "groups": 1, "activation": "linear", "use_bias": true, "kernel_initializer": {"class_name": "GlorotUniform", "config": {"seed": null}}, "bias_initializer": {"class_name": "Zeros", "config": {}}, "kernel_regularizer": null, "bias_regularizer": null, "activity_regularizer": null, "kernel_constraint": null, "bias_constraint": null}, "name": "conv2d_2", "inbound_nodes": [[["dropout", 0, 0, {}]]]}, {"class_name": "Conv2D", "config": {"name": "conv2d_9", "trainable": true, "dtype": "float32", "filters": 512, "kernel_size": [3, 3], "strides": [1, 1], "padding": "same", "data_format": "channels_last", "dilation_rate": [1, 1], "groups": 1, "activation": "relu", "use_bias": true, "kernel_initializer": {"class_name": "GlorotUniform", "config": {"seed": null}}, "bias_initializer": {"class_name": "Zeros", "config": {}}, "kernel_regularizer": null, "bias_regularizer": null, "activity_regularizer": null, "kernel_constraint": null, "bias_constraint": null}, "name": "conv2d_9", "inbound_nodes": [[["conv2d_8", 0, 0, {}]]]}, {"class_name": "MaxPooling2D", "config": {"name": "max_pooling2d_11", "trainable": true, "dtype": "float32", "pool_size": [3, 3], "padding": "valid", "strides": [3, 3], "data_format": "channels_last"}, "name": "max_pooling2d_11", "inbound_nodes": [[["batch_normalization_10", 0, 0, {}]]]}, {"class_name": "BatchNormalization", "config": {"name": "batch_normalization_15", "trainable": true, "dtype": "float32", "axis": [3], "momentum": 0.99, "epsilon": 0.001, "center": true, "scale": true, "beta_initializer": {"class_name": "Zeros", "config": {}}, "gamma_initializer": {"class_name": "Ones", "config": {}}, "moving_mean_initializer": {"class_name": "Zeros", "config": {}}, "moving_variance_initializer": {"class_name": "Ones", "config": {}}, "beta_regularizer": null, "gamma_regularizer": null, "beta_constraint": null, "gamma_constraint": null}, "name": "batch_normalization_15", "inbound_nodes": [[["activation_15", 0, 0, {}]]]}, {"class_name": "Activation", "config": {"name": "activation_19", "trainable": true, "dtype": "float32", "activation": "relu"}, "name": "activation_19", "inbound_nodes": [[["conv2d_26", 0, 0, {}]]]}, {"class_name": "Activation", "config": {"name": "activation_23", "trainable": true, "dtype": "float32", "activation": "relu"}, "name": "activation_23", "inbound_nodes": [[["conv2d_31", 0, 0, {}]]]}, {"class_name": "Activation", "config": {"name": "activation_2", "trainable": true, "dtype": "float32", "activation": "relu"}, "name": "activation_2", "inbound_nodes": [[["conv2d_2", 0, 0, {}]]]}, {"class_name": "MaxPooling2D", "config": {"name": "max_pooling2d_7", "trainable": true, "dtype": "float32", "pool_size": [2, 2], "padding": "valid", "strides": [2, 2], "data_format": "channels_last"}, "name": "max_pooling2d_7", "inbound_nodes": [[["conv2d_9", 0, 0, {}]]]}, {"class_name": "Dropout", "config": {"name": "dropout_13", "trainable": true, "dtype": "float32", "rate": 0.25, "noise_shape": null, "seed": null}, "name": "dropout_13", "inbound_nodes": [[["max_pooling2d_11", 0, 0, {}]]]}, {"class_name": "MaxPooling2D", "config": {"name": "max_pooling2d_15", "trainable": true, "dtype": "float32", "pool_size": [3, 3], "padding": "valid", "strides": [3, 3], "data_format": "channels_last"}, "name": "max_pooling2d_15", "inbound_nodes": [[["batch_normalization_15", 0, 0, {}]]]}, {"class_name": "BatchNormalization", "config": {"name": "batch_normalization_19", "trainable": true, "dtype": "float32", "axis": [3], "momentum": 0.99, "epsilon": 0.001, "center": true, "scale": true, "beta_initializer": {"class_name": "Zeros", "config": {}}, "gamma_initializer": {"class_name": "Ones", "config": {}}, "moving_mean_initializer": {"class_name": "Zeros", "config": {}}, "moving_variance_initializer": {"class_name": "Ones", "config": {}}, "beta_regularizer": null, "gamma_regularizer": null, "beta_constraint": null, "gamma_constraint": null}, "name": "batch_normalization_19", "inbound_nodes": [[["activation_19", 0, 0, {}]]]}, {"class_name": "BatchNormalization", "config": {"name": "batch_normalization_22", "trainable": true, "dtype": "float32", "axis": [3], "momentum": 0.99, "epsilon": 0.001, "center": true, "scale": true, "beta_initializer": {"class_name": "Zeros", "config": {}}, "gamma_initializer": {"class_name": "Ones", "config": {}}, "moving_mean_initializer": {"class_name": "Zeros", "config": {}}, "moving_variance_initializer": {"class_name": "Ones", "config": {}}, "beta_regularizer": null, "gamma_regularizer": null, "beta_constraint": null, "gamma_constraint": null}, "name": "batch_normalization_22", "inbound_nodes": [[["activation_23", 0, 0, {}]]]}, {"class_name": "BatchNormalization", "config": {"name": "batch_normalization_1", "trainable": true, "dtype": "float32", "axis": [3], "momentum": 0.99, "epsilon": 0.001, "center": true, "scale": true, "beta_initializer": {"class_name": "Zeros", "config": {}}, "gamma_initializer": {"class_name": "Ones", "config": {}}, "moving_mean_initializer": {"class_name": "Zeros", "config": {}}, "moving_variance_initializer": {"class_name": "Ones", "config": {}}, "beta_regularizer": null, "gamma_regularizer": null, "beta_constraint": null, "gamma_constraint": null}, "name": "batch_normalization_1", "inbound_nodes": [[["activation_2", 0, 0, {}]]]}, {"class_name": "Conv2D", "config": {"name": "conv2d_10", "trainable": true, "dtype": "float32", "filters": 512, "kernel_size": [3, 3], "strides": [1, 1], "padding": "same", "data_format": "channels_last", "dilation_rate": [1, 1], "groups": 1, "activation": "relu", "use_bias": true, "kernel_initializer": {"class_name": "GlorotUniform", "config": {"seed": null}}, "bias_initializer": {"class_name": "Zeros", "config": {}}, "kernel_regularizer": null, "bias_regularizer": null, "activity_regularizer": null, "kernel_constraint": null, "bias_constraint": null}, "name": "conv2d_10", "inbound_nodes": [[["max_pooling2d_7", 0, 0, {}]]]}, {"class_name": "Conv2D", "config": {"name": "conv2d_17", "trainable": true, "dtype": "float32", "filters": 64, "kernel_size": [3, 3], "strides": [1, 1], "padding": "same", "data_format": "channels_last", "dilation_rate": [1, 1], "groups": 1, "activation": "linear", "use_bias": true, "kernel_initializer": {"class_name": "GlorotUniform", "config": {"seed": null}}, "bias_initializer": {"class_name": "Zeros", "config": {}}, "kernel_regularizer": null, "bias_regularizer": null, "activity_regularizer": null, "kernel_constraint": null, "bias_constraint": null}, "name": "conv2d_17", "inbound_nodes": [[["dropout_13", 0, 0, {}]]]}, {"class_name": "Dropout", "config": {"name": "dropout_18", "trainable": true, "dtype": "float32", "rate": 0.25, "noise_shape": null, "seed": null}, "name": "dropout_18", "inbound_nodes": [[["max_pooling2d_15", 0, 0, {}]]]}, {"class_name": "MaxPooling2D", "config": {"name": "max_pooling2d_19", "trainable": true, "dtype": "float32", "pool_size": [3, 3], "padding": "valid", "strides": [3, 3], "data_format": "channels_last"}, "name": "max_pooling2d_19", "inbound_nodes": [[["batch_normalization_19", 0, 0, {}]]]}, {"class_name": "MaxPooling2D", "config": {"name": "max_pooling2d_23", "trainable": true, "dtype": "float32", "pool_size": [3, 3], "padding": "valid", "strides": [3, 3], "data_format": "channels_last"}, "name": "max_pooling2d_23", "inbound_nodes": [[["batch_normalization_22", 0, 0, {}]]]}, {"class_name": "MaxPooling2D", "config": {"name": "max_pooling2d_1", "trainable": true, "dtype": "float32", "pool_size": [2, 2], "padding": "valid", "strides": [2, 2], "data_format": "channels_last"}, "name": "max_pooling2d_1", "inbound_nodes": [[["batch_normalization_1", 0, 0, {}]]]}, {"class_name": "Conv2D", "config": {"name": "conv2d_11", "trainable": true, "dtype": "float32", "filters": 512, "kernel_size": [3, 3], "strides": [1, 1], "padding": "same", "data_format": "channels_last", "dilation_rate": [1, 1], "groups": 1, "activation": "relu", "use_bias": true, "kernel_initializer": {"class_name": "GlorotUniform", "config": {"seed": null}}, "bias_initializer": {"class_name": "Zeros", "config": {}}, "kernel_regularizer": null, "bias_regularizer": null, "activity_regularizer": null, "kernel_constraint": null, "bias_constraint": null}, "name": "conv2d_11", "inbound_nodes": [[["conv2d_10", 0, 0, {}]]]}, {"class_name": "Activation", "config": {"name": "activation_12", "trainable": true, "dtype": "float32", "activation": "relu"}, "name": "activation_12", "inbound_nodes": [[["conv2d_17", 0, 0, {}]]]}, {"class_name": "Conv2D", "config": {"name": "conv2d_22", "trainable": true, "dtype": "float32", "filters": 64, "kernel_size": [3, 3], "strides": [1, 1], "padding": "same", "data_format": "channels_last", "dilation_rate": [1, 1], "groups": 1, "activation": "linear", "use_bias": true, "kernel_initializer": {"class_name": "GlorotUniform", "config": {"seed": null}}, "bias_initializer": {"class_name": "Zeros", "config": {}}, "kernel_regularizer": null, "bias_regularizer": null, "activity_regularizer": null, "kernel_constraint": null, "bias_constraint": null}, "name": "conv2d_22", "inbound_nodes": [[["dropout_18", 0, 0, {}]]]}, {"class_name": "Dropout", "config": {"name": "dropout_23", "trainable": true, "dtype": "float32", "rate": 0.25, "noise_shape": null, "seed": null}, "name": "dropout_23", "inbound_nodes": [[["max_pooling2d_19", 0, 0, {}]]]}, {"class_name": "Dropout", "config": {"name": "dropout_28", "trainable": true, "dtype": "float32", "rate": 0.25, "noise_shape": null, "seed": null}, "name": "dropout_28", "inbound_nodes": [[["max_pooling2d_23", 0, 0, {}]]]}, {"class_name": "Dropout", "config": {"name": "dropout_1", "trainable": true, "dtype": "float32", "rate": 0.25, "noise_shape": null, "seed": null}, "name": "dropout_1", "inbound_nodes": [[["max_pooling2d_1", 0, 0, {}]]]}, {"class_name": "MaxPooling2D", "config": {"name": "max_pooling2d_8", "trainable": true, "dtype": "float32", "pool_size": [2, 2], "padding": "valid", "strides": [2, 2], "data_format": "channels_last"}, "name": "max_pooling2d_8", "inbound_nodes": [[["conv2d_11", 0, 0, {}]]]}, {"class_name": "BatchNormalization", "config": {"name": "batch_normalization_11", "trainable": true, "dtype": "float32", "axis": [3], "momentum": 0.99, "epsilon": 0.001, "center": true, "scale": true, "beta_initializer": {"class_name": "Zeros", "config": {}}, "gamma_initializer": {"class_name": "Ones", "config": {}}, "moving_mean_initializer": {"class_name": "Zeros", "config": {}}, "moving_variance_initializer": {"class_name": "Ones", "config": {}}, "beta_regularizer": null, "gamma_regularizer": null, "beta_constraint": null, "gamma_constraint": null}, "name": "batch_normalization_11", "inbound_nodes": [[["activation_12", 0, 0, {}]]]}, {"class_name": "Activation", "config": {"name": "activation_16", "trainable": true, "dtype": "float32", "activation": "relu"}, "name": "activation_16", "inbound_nodes": [[["conv2d_22", 0, 0, {}]]]}, {"class_name": "Conv2D", "config": {"name": "conv2d_27", "trainable": true, "dtype": "float32", "filters": 64, "kernel_size": [3, 3], "strides": [1, 1], "padding": "same", "data_format": "channels_last", "dilation_rate": [1, 1], "groups": 1, "activation": "linear", "use_bias": true, "kernel_initializer": {"class_name": "GlorotUniform", "config": {"seed": null}}, "bias_initializer": {"class_name": "Zeros", "config": {}}, "kernel_regularizer": null, "bias_regularizer": null, "activity_regularizer": null, "kernel_constraint": null, "bias_constraint": null}, "name": "conv2d_27", "inbound_nodes": [[["dropout_23", 0, 0, {}]]]}, {"class_name": "Conv2D", "config": {"name": "conv2d_32", "trainable": true, "dtype": "float32", "filters": 64, "kernel_size": [3, 3], "strides": [1, 1], "padding": "same", "data_format": "channels_last", "dilation_rate": [1, 1], "groups": 1, "activation": "linear", "use_bias": true, "kernel_initializer": {"class_name": "GlorotUniform", "config": {"seed": null}}, "bias_initializer": {"class_name": "Zeros", "config": {}}, "kernel_regularizer": null, "bias_regularizer": null, "activity_regularizer": null, "kernel_constraint": null, "bias_constraint": null}, "name": "conv2d_32", "inbound_nodes": [[["dropout_28", 0, 0, {}]]]}, {"class_name": "Conv2D", "config": {"name": "conv2d_3", "trainable": true, "dtype": "float32", "filters": 128, "kernel_size": [3, 3], "strides": [1, 1], "padding": "same", "data_format": "channels_last", "dilation_rate": [1, 1], "groups": 1, "activation": "linear", "use_bias": true, "kernel_initializer": {"class_name": "GlorotUniform", "config": {"seed": null}}, "bias_initializer": {"class_name": "Zeros", "config": {}}, "kernel_regularizer": null, "bias_regularizer": null, "activity_regularizer": null, "kernel_constraint": null, "bias_constraint": null}, "name": "conv2d_3", "inbound_nodes": [[["dropout_1", 0, 0, {}]]]}, {"class_name": "Dropout", "config": {"name": "dropout_9", "trainable": true, "dtype": "float32", "rate": 0.2, "noise_shape": null, "seed": null}, "name": "dropout_9", "inbound_nodes": [[["max_pooling2d_8", 0, 0, {}]]]}, {"class_name": "MaxPooling2D", "config": {"name": "max_pooling2d_12", "trainable": true, "dtype": "float32", "pool_size": [2, 2], "padding": "valid", "strides": [2, 2], "data_format": "channels_last"}, "name": "max_pooling2d_12", "inbound_nodes": [[["batch_normalization_11", 0, 0, {}]]]}, {"class_name": "BatchNormalization", "config": {"name": "batch_normalization_16", "trainable": true, "dtype": "float32", "axis": [3], "momentum": 0.99, "epsilon": 0.001, "center": true, "scale": true, "beta_initializer": {"class_name": "Zeros", "config": {}}, "gamma_initializer": {"class_name": "Ones", "config": {}}, "moving_mean_initializer": {"class_name": "Zeros", "config": {}}, "moving_variance_initializer": {"class_name": "Ones", "config": {}}, "beta_regularizer": null, "gamma_regularizer": null, "beta_constraint": null, "gamma_constraint": null}, "name": "batch_normalization_16", "inbound_nodes": [[["activation_16", 0, 0, {}]]]}, {"class_name": "Activation", "config": {"name": "activation_20", "trainable": true, "dtype": "float32", "activation": "relu"}, "name": "activation_20", "inbound_nodes": [[["conv2d_27", 0, 0, {}]]]}, {"class_name": "Activation", "config": {"name": "activation_24", "trainable": true, "dtype": "float32", "activation": "relu"}, "name": "activation_24", "inbound_nodes": [[["conv2d_32", 0, 0, {}]]]}, {"class_name": "Activation", "config": {"name": "activation_3", "trainable": true, "dtype": "float32", "activation": "relu"}, "name": "activation_3", "inbound_nodes": [[["conv2d_3", 0, 0, {}]]]}, {"class_name": "Conv2D", "config": {"name": "conv2d_12", "trainable": true, "dtype": "float32", "filters": 512, "kernel_size": [3, 3], "strides": [1, 1], "padding": "same", "data_format": "channels_last", "dilation_rate": [1, 1], "groups": 1, "activation": "relu", "use_bias": true, "kernel_initializer": {"class_name": "GlorotUniform", "config": {"seed": null}}, "bias_initializer": {"class_name": "Zeros", "config": {}}, "kernel_regularizer": null, "bias_regularizer": null, "activity_regularizer": null, "kernel_constraint": null, "bias_constraint": null}, "name": "conv2d_12", "inbound_nodes": [[["dropout_9", 0, 0, {}]]]}, {"class_name": "Dropout", "config": {"name": "dropout_14", "trainable": true, "dtype": "float32", "rate": 0.25, "noise_shape": null, "seed": null}, "name": "dropout_14", "inbound_nodes": [[["max_pooling2d_12", 0, 0, {}]]]}, {"class_name": "MaxPooling2D", "config": {"name": "max_pooling2d_16", "trainable": true, "dtype": "float32", "pool_size": [2, 2], "padding": "valid", "strides": [2, 2], "data_format": "channels_last"}, "name": "max_pooling2d_16", "inbound_nodes": [[["batch_normalization_16", 0, 0, {}]]]}, {"class_name": "BatchNormalization", "config": {"name": "batch_normalization_20", "trainable": true, "dtype": "float32", "axis": [3], "momentum": 0.99, "epsilon": 0.001, "center": true, "scale": true, "beta_initializer": {"class_name": "Zeros", "config": {}}, "gamma_initializer": {"class_name": "Ones", "config": {}}, "moving_mean_initializer": {"class_name": "Zeros", "config": {}}, "moving_variance_initializer": {"class_name": "Ones", "config": {}}, "beta_regularizer": null, "gamma_regularizer": null, "beta_constraint": null, "gamma_constraint": null}, "name": "batch_normalization_20", "inbound_nodes": [[["activation_20", 0, 0, {}]]]}, {"class_name": "BatchNormalization", "config": {"name": "batch_normalization_23", "trainable": true, "dtype": "float32", "axis": [3], "momentum": 0.99, "epsilon": 0.001, "center": true, "scale": true, "beta_initializer": {"class_name": "Zeros", "config": {}}, "gamma_initializer": {"class_name": "Ones", "config": {}}, "moving_mean_initializer": {"class_name": "Zeros", "config": {}}, "moving_variance_initializer": {"class_name": "Ones", "config": {}}, "beta_regularizer": null, "gamma_regularizer": null, "beta_constraint": null, "gamma_constraint": null}, "name": "batch_normalization_23", "inbound_nodes": [[["activation_24", 0, 0, {}]]]}, {"class_name": "BatchNormalization", "config": {"name": "batch_normalization_2", "trainable": true, "dtype": "float32", "axis": [3], "momentum": 0.99, "epsilon": 0.001, "center": true, "scale": true, "beta_initializer": {"class_name": "Zeros", "config": {}}, "gamma_initializer": {"class_name": "Ones", "config": {}}, "moving_mean_initializer": {"class_name": "Zeros", "config": {}}, "moving_variance_initializer": {"class_name": "Ones", "config": {}}, "beta_regularizer": null, "gamma_regularizer": null, "beta_constraint": null, "gamma_constraint": null}, "name": "batch_normalization_2", "inbound_nodes": [[["activation_3", 0, 0, {}]]]}, {"class_name": "Conv2D", "config": {"name": "conv2d_13", "trainable": true, "dtype": "float32", "filters": 512, "kernel_size": [3, 3], "strides": [1, 1], "padding": "same", "data_format": "channels_last", "dilation_rate": [1, 1], "groups": 1, "activation": "relu", "use_bias": true, "kernel_initializer": {"class_name": "GlorotUniform", "config": {"seed": null}}, "bias_initializer": {"class_name": "Zeros", "config": {}}, "kernel_regularizer": null, "bias_regularizer": null, "activity_regularizer": null, "kernel_constraint": null, "bias_constraint": null}, "name": "conv2d_13", "inbound_nodes": [[["conv2d_12", 0, 0, {}]]]}, {"class_name": "Conv2D", "config": {"name": "conv2d_18", "trainable": true, "dtype": "float32", "filters": 128, "kernel_size": [3, 3], "strides": [1, 1], "padding": "same", "data_format": "channels_last", "dilation_rate": [1, 1], "groups": 1, "activation": "linear", "use_bias": true, "kernel_initializer": {"class_name": "GlorotUniform", "config": {"seed": null}}, "bias_initializer": {"class_name": "Zeros", "config": {}}, "kernel_regularizer": null, "bias_regularizer": null, "activity_regularizer": null, "kernel_constraint": null, "bias_constraint": null}, "name": "conv2d_18", "inbound_nodes": [[["dropout_14", 0, 0, {}]]]}, {"class_name": "Dropout", "config": {"name": "dropout_19", "trainable": true, "dtype": "float32", "rate": 0.25, "noise_shape": null, "seed": null}, "name": "dropout_19", "inbound_nodes": [[["max_pooling2d_16", 0, 0, {}]]]}, {"class_name": "MaxPooling2D", "config": {"name": "max_pooling2d_20", "trainable": true, "dtype": "float32", "pool_size": [2, 2], "padding": "valid", "strides": [2, 2], "data_format": "channels_last"}, "name": "max_pooling2d_20", "inbound_nodes": [[["batch_normalization_20", 0, 0, {}]]]}, {"class_name": "MaxPooling2D", "config": {"name": "max_pooling2d_24", "trainable": true, "dtype": "float32", "pool_size": [2, 2], "padding": "valid", "strides": [2, 2], "data_format": "channels_last"}, "name": "max_pooling2d_24", "inbound_nodes": [[["batch_normalization_23", 0, 0, {}]]]}, {"class_name": "MaxPooling2D", "config": {"name": "max_pooling2d_2", "trainable": true, "dtype": "float32", "pool_size": [2, 2], "padding": "valid", "strides": [2, 2], "data_format": "channels_last"}, "name": "max_pooling2d_2", "inbound_nodes": [[["batch_normalization_2", 0, 0, {}]]]}, {"class_name": "MaxPooling2D", "config": {"name": "max_pooling2d_9", "trainable": true, "dtype": "float32", "pool_size": [2, 2], "padding": "valid", "strides": [2, 2], "data_format": "channels_last"}, "name": "max_pooling2d_9", "inbound_nodes": [[["conv2d_13", 0, 0, {}]]]}, {"class_name": "Activation", "config": {"name": "activation_13", "trainable": true, "dtype": "float32", "activation": "relu"}, "name": "activation_13", "inbound_nodes": [[["conv2d_18", 0, 0, {}]]]}, {"class_name": "Conv2D", "config": {"name": "conv2d_23", "trainable": true, "dtype": "float32", "filters": 128, "kernel_size": [3, 3], "strides": [1, 1], "padding": "same", "data_format": "channels_last", "dilation_rate": [1, 1], "groups": 1, "activation": "linear", "use_bias": true, "kernel_initializer": {"class_name": "GlorotUniform", "config": {"seed": null}}, "bias_initializer": {"class_name": "Zeros", "config": {}}, "kernel_regularizer": null, "bias_regularizer": null, "activity_regularizer": null, "kernel_constraint": null, "bias_constraint": null}, "name": "conv2d_23", "inbound_nodes": [[["dropout_19", 0, 0, {}]]]}, {"class_name": "Dropout", "config": {"name": "dropout_24", "trainable": true, "dtype": "float32", "rate": 0.25, "noise_shape": null, "seed": null}, "name": "dropout_24", "inbound_nodes": [[["max_pooling2d_20", 0, 0, {}]]]}, {"class_name": "Dropout", "config": {"name": "dropout_29", "trainable": true, "dtype": "float32", "rate": 0.25, "noise_shape": null, "seed": null}, "name": "dropout_29", "inbound_nodes": [[["max_pooling2d_24", 0, 0, {}]]]}, {"class_name": "Dropout", "config": {"name": "dropout_2", "trainable": true, "dtype": "float32", "rate": 0.25, "noise_shape": null, "seed": null}, "name": "dropout_2", "inbound_nodes": [[["max_pooling2d_2", 0, 0, {}]]]}, {"class_name": "Conv2D", "config": {"name": "conv2d_14", "trainable": true, "dtype": "float32", "filters": 512, "kernel_size": [3, 3], "strides": [1, 1], "padding": "same", "data_format": "channels_last", "dilation_rate": [1, 1], "groups": 1, "activation": "relu", "use_bias": true, "kernel_initializer": {"class_name": "GlorotUniform", "config": {"seed": null}}, "bias_initializer": {"class_name": "Zeros", "config": {}}, "kernel_regularizer": null, "bias_regularizer": null, "activity_regularizer": null, "kernel_constraint": null, "bias_constraint": null}, "name": "conv2d_14", "inbound_nodes": [[["max_pooling2d_9", 0, 0, {}]]]}, {"class_name": "BatchNormalization", "config": {"name": "batch_normalization_12", "trainable": true, "dtype": "float32", "axis": [3], "momentum": 0.99, "epsilon": 0.001, "center": true, "scale": true, "beta_initializer": {"class_name": "Zeros", "config": {}}, "gamma_initializer": {"class_name": "Ones", "config": {}}, "moving_mean_initializer": {"class_name": "Zeros", "config": {}}, "moving_variance_initializer": {"class_name": "Ones", "config": {}}, "beta_regularizer": null, "gamma_regularizer": null, "beta_constraint": null, "gamma_constraint": null}, "name": "batch_normalization_12", "inbound_nodes": [[["activation_13", 0, 0, {}]]]}, {"class_name": "Activation", "config": {"name": "activation_17", "trainable": true, "dtype": "float32", "activation": "relu"}, "name": "activation_17", "inbound_nodes": [[["conv2d_23", 0, 0, {}]]]}, {"class_name": "Conv2D", "config": {"name": "conv2d_28", "trainable": true, "dtype": "float32", "filters": 128, "kernel_size": [3, 3], "strides": [1, 1], "padding": "same", "data_format": "channels_last", "dilation_rate": [1, 1], "groups": 1, "activation": "linear", "use_bias": true, "kernel_initializer": {"class_name": "GlorotUniform", "config": {"seed": null}}, "bias_initializer": {"class_name": "Zeros", "config": {}}, "kernel_regularizer": null, "bias_regularizer": null, "activity_regularizer": null, "kernel_constraint": null, "bias_constraint": null}, "name": "conv2d_28", "inbound_nodes": [[["dropout_24", 0, 0, {}]]]}, {"class_name": "Conv2D", "config": {"name": "conv2d_33", "trainable": true, "dtype": "float32", "filters": 128, "kernel_size": [3, 3], "strides": [1, 1], "padding": "same", "data_format": "channels_last", "dilation_rate": [1, 1], "groups": 1, "activation": "linear", "use_bias": true, "kernel_initializer": {"class_name": "GlorotUniform", "config": {"seed": null}}, "bias_initializer": {"class_name": "Zeros", "config": {}}, "kernel_regularizer": null, "bias_regularizer": null, "activity_regularizer": null, "kernel_constraint": null, "bias_constraint": null}, "name": "conv2d_33", "inbound_nodes": [[["dropout_29", 0, 0, {}]]]}, {"class_name": "Conv2D", "config": {"name": "conv2d_4", "trainable": true, "dtype": "float32", "filters": 512, "kernel_size": [3, 3], "strides": [1, 1], "padding": "same", "data_format": "channels_last", "dilation_rate": [1, 1], "groups": 1, "activation": "relu", "use_bias": true, "kernel_initializer": {"class_name": "GlorotUniform", "config": {"seed": null}}, "bias_initializer": {"class_name": "Zeros", "config": {}}, "kernel_regularizer": null, "bias_regularizer": null, "activity_regularizer": null, "kernel_constraint": null, "bias_constraint": null}, "name": "conv2d_4", "inbound_nodes": [[["dropout_2", 0, 0, {}]]]}, {"class_name": "Conv2D", "config": {"name": "conv2d_15", "trainable": true, "dtype": "float32", "filters": 512, "kernel_size": [3, 3], "strides": [1, 1], "padding": "same", "data_format": "channels_last", "dilation_rate": [1, 1], "groups": 1, "activation": "relu", "use_bias": true, "kernel_initializer": {"class_name": "GlorotUniform", "config": {"seed": null}}, "bias_initializer": {"class_name": "Zeros", "config": {}}, "kernel_regularizer": null, "bias_regularizer": null, "activity_regularizer": null, "kernel_constraint": null, "bias_constraint": null}, "name": "conv2d_15", "inbound_nodes": [[["conv2d_14", 0, 0, {}]]]}, {"class_name": "MaxPooling2D", "config": {"name": "max_pooling2d_13", "trainable": true, "dtype": "float32", "pool_size": [2, 2], "padding": "valid", "strides": [2, 2], "data_format": "channels_last"}, "name": "max_pooling2d_13", "inbound_nodes": [[["batch_normalization_12", 0, 0, {}]]]}, {"class_name": "BatchNormalization", "config": {"name": "batch_normalization_17", "trainable": true, "dtype": "float32", "axis": [3], "momentum": 0.99, "epsilon": 0.001, "center": true, "scale": true, "beta_initializer": {"class_name": "Zeros", "config": {}}, "gamma_initializer": {"class_name": "Ones", "config": {}}, "moving_mean_initializer": {"class_name": "Zeros", "config": {}}, "moving_variance_initializer": {"class_name": "Ones", "config": {}}, "beta_regularizer": null, "gamma_regularizer": null, "beta_constraint": null, "gamma_constraint": null}, "name": "batch_normalization_17", "inbound_nodes": [[["activation_17", 0, 0, {}]]]}, {"class_name": "Activation", "config": {"name": "activation_21", "trainable": true, "dtype": "float32", "activation": "relu"}, "name": "activation_21", "inbound_nodes": [[["conv2d_28", 0, 0, {}]]]}, {"class_name": "Activation", "config": {"name": "activation_25", "trainable": true, "dtype": "float32", "activation": "relu"}, "name": "activation_25", "inbound_nodes": [[["conv2d_33", 0, 0, {}]]]}, {"class_name": "MaxPooling2D", "config": {"name": "max_pooling2d_3", "trainable": true, "dtype": "float32", "pool_size": [2, 2], "padding": "valid", "strides": [2, 2], "data_format": "channels_last"}, "name": "max_pooling2d_3", "inbound_nodes": [[["conv2d_4", 0, 0, {}]]]}, {"class_name": "MaxPooling2D", "config": {"name": "max_pooling2d_10", "trainable": true, "dtype": "float32", "pool_size": [2, 2], "padding": "valid", "strides": [2, 2], "data_format": "channels_last"}, "name": "max_pooling2d_10", "inbound_nodes": [[["conv2d_15", 0, 0, {}]]]}, {"class_name": "Dropout", "config": {"name": "dropout_15", "trainable": true, "dtype": "float32", "rate": 0.25, "noise_shape": null, "seed": null}, "name": "dropout_15", "inbound_nodes": [[["max_pooling2d_13", 0, 0, {}]]]}, {"class_name": "MaxPooling2D", "config": {"name": "max_pooling2d_17", "trainable": true, "dtype": "float32", "pool_size": [2, 2], "padding": "valid", "strides": [2, 2], "data_format": "channels_last"}, "name": "max_pooling2d_17", "inbound_nodes": [[["batch_normalization_17", 0, 0, {}]]]}, {"class_name": "BatchNormalization", "config": {"name": "batch_normalization_21", "trainable": true, "dtype": "float32", "axis": [3], "momentum": 0.99, "epsilon": 0.001, "center": true, "scale": true, "beta_initializer": {"class_name": "Zeros", "config": {}}, "gamma_initializer": {"class_name": "Ones", "config": {}}, "moving_mean_initializer": {"class_name": "Zeros", "config": {}}, "moving_variance_initializer": {"class_name": "Ones", "config": {}}, "beta_regularizer": null, "gamma_regularizer": null, "beta_constraint": null, "gamma_constraint": null}, "name": "batch_normalization_21", "inbound_nodes": [[["activation_21", 0, 0, {}]]]}, {"class_name": "BatchNormalization", "config": {"name": "batch_normalization_24", "trainable": true, "dtype": "float32", "axis": [3], "momentum": 0.99, "epsilon": 0.001, "center": true, "scale": true, "beta_initializer": {"class_name": "Zeros", "config": {}}, "gamma_initializer": {"class_name": "Ones", "config": {}}, "moving_mean_initializer": {"class_name": "Zeros", "config": {}}, "moving_variance_initializer": {"class_name": "Ones", "config": {}}, "beta_regularizer": null, "gamma_regularizer": null, "beta_constraint": null, "gamma_constraint": null}, "name": "batch_normalization_24", "inbound_nodes": [[["activation_25", 0, 0, {}]]]}, {"class_name": "Dropout", "config": {"name": "dropout_3", "trainable": true, "dtype": "float32", "rate": 0.2, "noise_shape": null, "seed": null}, "name": "dropout_3", "inbound_nodes": [[["max_pooling2d_3", 0, 0, {}]]]}, {"class_name": "Dropout", "config": {"name": "dropout_10", "trainable": true, "dtype": "float32", "rate": 0.2, "noise_shape": null, "seed": null}, "name": "dropout_10", "inbound_nodes": [[["max_pooling2d_10", 0, 0, {}]]]}, {"class_name": "Conv2D", "config": {"name": "conv2d_19", "trainable": true, "dtype": "float32", "filters": 512, "kernel_size": [3, 3], "strides": [1, 1], "padding": "same", "data_format": "channels_last", "dilation_rate": [1, 1], "groups": 1, "activation": "relu", "use_bias": true, "kernel_initializer": {"class_name": "GlorotUniform", "config": {"seed": null}}, "bias_initializer": {"class_name": "Zeros", "config": {}}, "kernel_regularizer": null, "bias_regularizer": null, "activity_regularizer": null, "kernel_constraint": null, "bias_constraint": null}, "name": "conv2d_19", "inbound_nodes": [[["dropout_15", 0, 0, {}]]]}, {"class_name": "Dropout", "config": {"name": "dropout_20", "trainable": true, "dtype": "float32", "rate": 0.25, "noise_shape": null, "seed": null}, "name": "dropout_20", "inbound_nodes": [[["max_pooling2d_17", 0, 0, {}]]]}, {"class_name": "MaxPooling2D", "config": {"name": "max_pooling2d_21", "trainable": true, "dtype": "float32", "pool_size": [2, 2], "padding": "valid", "strides": [2, 2], "data_format": "channels_last"}, "name": "max_pooling2d_21", "inbound_nodes": [[["batch_normalization_21", 0, 0, {}]]]}, {"class_name": "MaxPooling2D", "config": {"name": "max_pooling2d_25", "trainable": true, "dtype": "float32", "pool_size": [2, 2], "padding": "valid", "strides": [2, 2], "data_format": "channels_last"}, "name": "max_pooling2d_25", "inbound_nodes": [[["batch_normalization_24", 0, 0, {}]]]}, {"class_name": "Flatten", "config": {"name": "flatten", "trainable": true, "dtype": "float32", "data_format": "channels_last"}, "name": "flatten", "inbound_nodes": [[["dropout_3", 0, 0, {}]]]}, {"class_name": "Flatten", "config": {"name": "flatten_1", "trainable": true, "dtype": "float32", "data_format": "channels_last"}, "name": "flatten_1", "inbound_nodes": [[["dropout_10", 0, 0, {}]]]}, {"class_name": "Conv2D", "config": {"name": "conv2d_20", "trainable": true, "dtype": "float32", "filters": 512, "kernel_size": [3, 3], "strides": [1, 1], "padding": "same", "data_format": "channels_last", "dilation_rate": [1, 1], "groups": 1, "activation": "relu", "use_bias": true, "kernel_initializer": {"class_name": "GlorotUniform", "config": {"seed": null}}, "bias_initializer": {"class_name": "Zeros", "config": {}}, "kernel_regularizer": null, "bias_regularizer": null, "activity_regularizer": null, "kernel_constraint": null, "bias_constraint": null}, "name": "conv2d_20", "inbound_nodes": [[["conv2d_19", 0, 0, {}]]]}, {"class_name": "Conv2D", "config": {"name": "conv2d_24", "trainable": true, "dtype": "float32", "filters": 512, "kernel_size": [3, 3], "strides": [1, 1], "padding": "same", "data_format": "channels_last", "dilation_rate": [1, 1], "groups": 1, "activation": "relu", "use_bias": true, "kernel_initializer": {"class_name": "GlorotUniform", "config": {"seed": null}}, "bias_initializer": {"class_name": "Zeros", "config": {}}, "kernel_regularizer": null, "bias_regularizer": null, "activity_regularizer": null, "kernel_constraint": null, "bias_constraint": null}, "name": "conv2d_24", "inbound_nodes": [[["dropout_20", 0, 0, {}]]]}, {"class_name": "Dropout", "config": {"name": "dropout_25", "trainable": true, "dtype": "float32", "rate": 0.25, "noise_shape": null, "seed": null}, "name": "dropout_25", "inbound_nodes": [[["max_pooling2d_21", 0, 0, {}]]]}, {"class_name": "Dropout", "config": {"name": "dropout_30", "trainable": true, "dtype": "float32", "rate": 0.25, "noise_shape": null, "seed": null}, "name": "dropout_30", "inbound_nodes": [[["max_pooling2d_25", 0, 0, {}]]]}, {"class_name": "Dense", "config": {"name": "dense", "trainable": true, "dtype": "float32", "units": 128, "activation": "linear", "use_bias": true, "kernel_initializer": {"class_name": "GlorotUniform", "config": {"seed": null}}, "bias_initializer": {"class_name": "Zeros", "config": {}}, "kernel_regularizer": null, "bias_regularizer": null, "activity_regularizer": null, "kernel_constraint": null, "bias_constraint": null}, "name": "dense", "inbound_nodes": [[["flatten", 0, 0, {}]]]}, {"class_name": "Dense", "config": {"name": "dense_3", "trainable": true, "dtype": "float32", "units": 512, "activation": "linear", "use_bias": true, "kernel_initializer": {"class_name": "GlorotUniform", "config": {"seed": null}}, "bias_initializer": {"class_name": "Zeros", "config": {}}, "kernel_regularizer": null, "bias_regularizer": null, "activity_regularizer": null, "kernel_constraint": null, "bias_constraint": null}, "name": "dense_3", "inbound_nodes": [[["flatten_1", 0, 0, {}]]]}, {"class_name": "BatchNormalization", "config": {"name": "batch_normalization_13", "trainable": true, "dtype": "float32", "axis": [3], "momentum": 0.99, "epsilon": 0.001, "center": true, "scale": true, "beta_initializer": {"class_name": "Zeros", "config": {}}, "gamma_initializer": {"class_name": "Ones", "config": {}}, "moving_mean_initializer": {"class_name": "Zeros", "config": {}}, "moving_variance_initializer": {"class_name": "Ones", "config": {}}, "beta_regularizer": null, "gamma_regularizer": null, "beta_constraint": null, "gamma_constraint": null}, "name": "batch_normalization_13", "inbound_nodes": [[["conv2d_20", 0, 0, {}]]]}, {"class_name": "Conv2D", "config": {"name": "conv2d_25", "trainable": true, "dtype": "float32", "filters": 512, "kernel_size": [3, 3], "strides": [1, 1], "padding": "same", "data_format": "channels_last", "dilation_rate": [1, 1], "groups": 1, "activation": "relu", "use_bias": true, "kernel_initializer": {"class_name": "GlorotUniform", "config": {"seed": null}}, "bias_initializer": {"class_name": "Zeros", "config": {}}, "kernel_regularizer": null, "bias_regularizer": null, "activity_regularizer": null, "kernel_constraint": null, "bias_constraint": null}, "name": "conv2d_25", "inbound_nodes": [[["conv2d_24", 0, 0, {}]]]}, {"class_name": "Conv2D", "config": {"name": "conv2d_29", "trainable": true, "dtype": "float32", "filters": 512, "kernel_size": [3, 3], "strides": [1, 1], "padding": "same", "data_format": "channels_last", "dilation_rate": [1, 1], "groups": 1, "activation": "relu", "use_bias": true, "kernel_initializer": {"class_name": "GlorotUniform", "config": {"seed": null}}, "bias_initializer": {"class_name": "Zeros", "config": {}}, "kernel_regularizer": null, "bias_regularizer": null, "activity_regularizer": null, "kernel_constraint": null, "bias_constraint": null}, "name": "conv2d_29", "inbound_nodes": [[["dropout_25", 0, 0, {}]]]}, {"class_name": "Conv2D", "config": {"name": "conv2d_34", "trainable": true, "dtype": "float32", "filters": 512, "kernel_size": [3, 3], "strides": [1, 1], "padding": "same", "data_format": "channels_last", "dilation_rate": [1, 1], "groups": 1, "activation": "relu", "use_bias": true, "kernel_initializer": {"class_name": "GlorotUniform", "config": {"seed": null}}, "bias_initializer": {"class_name": "Zeros", "config": {}}, "kernel_regularizer": null, "bias_regularizer": null, "activity_regularizer": null, "kernel_constraint": null, "bias_constraint": null}, "name": "conv2d_34", "inbound_nodes": [[["dropout_30", 0, 0, {}]]]}, {"class_name": "BatchNormalization", "config": {"name": "batch_normalization_3", "trainable": true, "dtype": "float32", "axis": [1], "momentum": 0.99, "epsilon": 0.001, "center": true, "scale": true, "beta_initializer": {"class_name": "Zeros", "config": {}}, "gamma_initializer": {"class_name": "Ones", "config": {}}, "moving_mean_initializer": {"class_name": "Zeros", "config": {}}, "moving_variance_initializer": {"class_name": "Ones", "config": {}}, "beta_regularizer": null, "gamma_regularizer": null, "beta_constraint": null, "gamma_constraint": null}, "name": "batch_normalization_3", "inbound_nodes": [[["dense", 0, 0, {}]]]}, {"class_name": "BatchNormalization", "config": {"name": "batch_normalization_8", "trainable": true, "dtype": "float32", "axis": [1], "momentum": 0.99, "epsilon": 0.001, "center": true, "scale": true, "beta_initializer": {"class_name": "Zeros", "config": {}}, "gamma_initializer": {"class_name": "Ones", "config": {}}, "moving_mean_initializer": {"class_name": "Zeros", "config": {}}, "moving_variance_initializer": {"class_name": "Ones", "config": {}}, "beta_regularizer": null, "gamma_regularizer": null, "beta_constraint": null, "gamma_constraint": null}, "name": "batch_normalization_8", "inbound_nodes": [[["dense_3", 0, 0, {}]]]}, {"class_name": "MaxPooling2D", "config": {"name": "max_pooling2d_14", "trainable": true, "dtype": "float32", "pool_size": [2, 2], "padding": "valid", "strides": [2, 2], "data_format": "channels_last"}, "name": "max_pooling2d_14", "inbound_nodes": [[["batch_normalization_13", 0, 0, {}]]]}, {"class_name": "MaxPooling2D", "config": {"name": "max_pooling2d_18", "trainable": true, "dtype": "float32", "pool_size": [2, 2], "padding": "valid", "strides": [2, 2], "data_format": "channels_last"}, "name": "max_pooling2d_18", "inbound_nodes": [[["conv2d_25", 0, 0, {}]]]}, {"class_name": "Conv2D", "config": {"name": "conv2d_30", "trainable": true, "dtype": "float32", "filters": 512, "kernel_size": [3, 3], "strides": [1, 1], "padding": "same", "data_format": "channels_last", "dilation_rate": [1, 1], "groups": 1, "activation": "relu", "use_bias": true, "kernel_initializer": {"class_name": "GlorotUniform", "config": {"seed": null}}, "bias_initializer": {"class_name": "Zeros", "config": {}}, "kernel_regularizer": null, "bias_regularizer": null, "activity_regularizer": null, "kernel_constraint": null, "bias_constraint": null}, "name": "conv2d_30", "inbound_nodes": [[["conv2d_29", 0, 0, {}]]]}, {"class_name": "Conv2D", "config": {"name": "conv2d_35", "trainable": true, "dtype": "float32", "filters": 512, "kernel_size": [3, 3], "strides": [1, 1], "padding": "same", "data_format": "channels_last", "dilation_rate": [1, 1], "groups": 1, "activation": "relu", "use_bias": true, "kernel_initializer": {"class_name": "GlorotUniform", "config": {"seed": null}}, "bias_initializer": {"class_name": "Zeros", "config": {}}, "kernel_regularizer": null, "bias_regularizer": null, "activity_regularizer": null, "kernel_constraint": null, "bias_constraint": null}, "name": "conv2d_35", "inbound_nodes": [[["conv2d_34", 0, 0, {}]]]}, {"class_name": "Activation", "config": {"name": "activation_4", "trainable": true, "dtype": "float32", "activation": "relu"}, "name": "activation_4", "inbound_nodes": [[["batch_normalization_3", 0, 0, {}]]]}, {"class_name": "Activation", "config": {"name": "activation_9", "trainable": true, "dtype": "float32", "activation": "relu"}, "name": "activation_9", "inbound_nodes": [[["batch_normalization_8", 0, 0, {}]]]}, {"class_name": "Dropout", "config": {"name": "dropout_16", "trainable": true, "dtype": "float32", "rate": 0.5, "noise_shape": null, "seed": null}, "name": "dropout_16", "inbound_nodes": [[["max_pooling2d_14", 0, 0, {}]]]}, {"class_name": "Dropout", "config": {"name": "dropout_21", "trainable": true, "dtype": "float32", "rate": 0.5, "noise_shape": null, "seed": null}, "name": "dropout_21", "inbound_nodes": [[["max_pooling2d_18", 0, 0, {}]]]}, {"class_name": "MaxPooling2D", "config": {"name": "max_pooling2d_22", "trainable": true, "dtype": "float32", "pool_size": [2, 2], "padding": "valid", "strides": [2, 2], "data_format": "channels_last"}, "name": "max_pooling2d_22", "inbound_nodes": [[["conv2d_30", 0, 0, {}]]]}, {"class_name": "MaxPooling2D", "config": {"name": "max_pooling2d_26", "trainable": true, "dtype": "float32", "pool_size": [2, 2], "padding": "valid", "strides": [2, 2], "data_format": "channels_last"}, "name": "max_pooling2d_26", "inbound_nodes": [[["conv2d_35", 0, 0, {}]]]}, {"class_name": "Dropout", "config": {"name": "dropout_4", "trainable": true, "dtype": "float32", "rate": 0.2, "noise_shape": null, "seed": null}, "name": "dropout_4", "inbound_nodes": [[["activation_4", 0, 0, {}]]]}, {"class_name": "Dropout", "config": {"name": "dropout_11", "trainable": true, "dtype": "float32", "rate": 0.2, "noise_shape": null, "seed": null}, "name": "dropout_11", "inbound_nodes": [[["activation_9", 0, 0, {}]]]}, {"class_name": "Flatten", "config": {"name": "flatten_2", "trainable": true, "dtype": "float32", "data_format": "channels_last"}, "name": "flatten_2", "inbound_nodes": [[["dropout_16", 0, 0, {}]]]}, {"class_name": "Flatten", "config": {"name": "flatten_3", "trainable": true, "dtype": "float32", "data_format": "channels_last"}, "name": "flatten_3", "inbound_nodes": [[["dropout_21", 0, 0, {}]]]}, {"class_name": "Dropout", "config": {"name": "dropout_26", "trainable": true, "dtype": "float32", "rate": 0.5, "noise_shape": null, "seed": null}, "name": "dropout_26", "inbound_nodes": [[["max_pooling2d_22", 0, 0, {}]]]}, {"class_name": "Dropout", "config": {"name": "dropout_31", "trainable": true, "dtype": "float32", "rate": 0.5, "noise_shape": null, "seed": null}, "name": "dropout_31", "inbound_nodes": [[["max_pooling2d_26", 0, 0, {}]]]}, {"class_name": "Dense", "config": {"name": "dense_1", "trainable": true, "dtype": "float32", "units": 64, "activation": "linear", "use_bias": true, "kernel_initializer": {"class_name": "GlorotUniform", "config": {"seed": null}}, "bias_initializer": {"class_name": "Zeros", "config": {}}, "kernel_regularizer": {"class_name": "L1L2", "config": {"L1L2": 0.009999999776482582}}, "bias_regularizer": null, "activity_regularizer": null, "kernel_constraint": null, "bias_constraint": null}, "name": "dense_1", "inbound_nodes": [[["dropout_4", 0, 0, {}]]]}, {"class_name": "Dense", "config": {"name": "dense_4", "trainable": true, "dtype": "float32", "units": 512, "activation": "linear", "use_bias": true, "kernel_initializer": {"class_name": "GlorotUniform", "config": {"seed": null}}, "bias_initializer": {"class_name": "Zeros", "config": {}}, "kernel_regularizer": {"class_name": "L1L2", "config": {"L1L2": 0.009999999776482582}}, "bias_regularizer": null, "activity_regularizer": null, "kernel_constraint": null, "bias_constraint": null}, "name": "dense_4", "inbound_nodes": [[["dropout_11", 0, 0, {}]]]}, {"class_name": "Dense", "config": {"name": "dense_6", "trainable": true, "dtype": "float32", "units": 512, "activation": "linear", "use_bias": true, "kernel_initializer": {"class_name": "GlorotUniform", "config": {"seed": null}}, "bias_initializer": {"class_name": "Zeros", "config": {}}, "kernel_regularizer": null, "bias_regularizer": null, "activity_regularizer": null, "kernel_constraint": null, "bias_constraint": null}, "name": "dense_6", "inbound_nodes": [[["flatten_2", 0, 0, {}]]]}, {"class_name": "Dense", "config": {"name": "dense_8", "trainable": true, "dtype": "float32", "units": 512, "activation": "linear", "use_bias": true, "kernel_initializer": {"class_name": "GlorotUniform", "config": {"seed": null}}, "bias_initializer": {"class_name": "Zeros", "config": {}}, "kernel_regularizer": {"class_name": "L1L2", "config": {"L1L2": 0.009999999776482582}}, "bias_regularizer": null, "activity_regularizer": null, "kernel_constraint": null, "bias_constraint": null}, "name": "dense_8", "inbound_nodes": [[["flatten_3", 0, 0, {}]]]}, {"class_name": "Flatten", "config": {"name": "flatten_4", "trainable": true, "dtype": "float32", "data_format": "channels_last"}, "name": "flatten_4", "inbound_nodes": [[["dropout_26", 0, 0, {}]]]}, {"class_name": "Flatten", "config": {"name": "flatten_5", "trainable": true, "dtype": "float32", "data_format": "channels_last"}, "name": "flatten_5", "inbound_nodes": [[["dropout_31", 0, 0, {}]]]}, {"class_name": "BatchNormalization", "config": {"name": "batch_normalization_4", "trainable": true, "dtype": "float32", "axis": [1], "momentum": 0.99, "epsilon": 0.001, "center": true, "scale": true, "beta_initializer": {"class_name": "Zeros", "config": {}}, "gamma_initializer": {"class_name": "Ones", "config": {}}, "moving_mean_initializer": {"class_name": "Zeros", "config": {}}, "moving_variance_initializer": {"class_name": "Ones", "config": {}}, "beta_regularizer": null, "gamma_regularizer": null, "beta_constraint": null, "gamma_constraint": null}, "name": "batch_normalization_4", "inbound_nodes": [[["dense_1", 0, 0, {}]]]}, {"class_name": "BatchNormalization", "config": {"name": "batch_normalization_9", "trainable": true, "dtype": "float32", "axis": [1], "momentum": 0.99, "epsilon": 0.001, "center": true, "scale": true, "beta_initializer": {"class_name": "Zeros", "config": {}}, "gamma_initializer": {"class_name": "Ones", "config": {}}, "moving_mean_initializer": {"class_name": "Zeros", "config": {}}, "moving_variance_initializer": {"class_name": "Ones", "config": {}}, "beta_regularizer": null, "gamma_regularizer": null, "beta_constraint": null, "gamma_constraint": null}, "name": "batch_normalization_9", "inbound_nodes": [[["dense_4", 0, 0, {}]]]}, {"class_name": "BatchNormalization", "config": {"name": "batch_normalization_14", "trainable": true, "dtype": "float32", "axis": [1], "momentum": 0.99, "epsilon": 0.001, "center": true, "scale": true, "beta_initializer": {"class_name": "Zeros", "config": {}}, "gamma_initializer": {"class_name": "Ones", "config": {}}, "moving_mean_initializer": {"class_name": "Zeros", "config": {}}, "moving_variance_initializer": {"class_name": "Ones", "config": {}}, "beta_regularizer": null, "gamma_regularizer": null, "beta_constraint": null, "gamma_constraint": null}, "name": "batch_normalization_14", "inbound_nodes": [[["dense_6", 0, 0, {}]]]}, {"class_name": "BatchNormalization", "config": {"name": "batch_normalization_18", "trainable": true, "dtype": "float32", "axis": [1], "momentum": 0.99, "epsilon": 0.001, "center": true, "scale": true, "beta_initializer": {"class_name": "Zeros", "config": {}}, "gamma_initializer": {"class_name": "Ones", "config": {}}, "moving_mean_initializer": {"class_name": "Zeros", "config": {}}, "moving_variance_initializer": {"class_name": "Ones", "config": {}}, "beta_regularizer": null, "gamma_regularizer": null, "beta_constraint": null, "gamma_constraint": null}, "name": "batch_normalization_18", "inbound_nodes": [[["dense_8", 0, 0, {}]]]}, {"class_name": "Dense", "config": {"name": "dense_10", "trainable": true, "dtype": "float32", "units": 512, "activation": "linear", "use_bias": true, "kernel_initializer": {"class_name": "GlorotUniform", "config": {"seed": null}}, "bias_initializer": {"class_name": "Zeros", "config": {}}, "kernel_regularizer": null, "bias_regularizer": null, "activity_regularizer": null, "kernel_constraint": null, "bias_constraint": null}, "name": "dense_10", "inbound_nodes": [[["flatten_4", 0, 0, {}]]]}, {"class_name": "Dense", "config": {"name": "dense_12", "trainable": true, "dtype": "float32", "units": 512, "activation": "linear", "use_bias": true, "kernel_initializer": {"class_name": "GlorotUniform", "config": {"seed": null}}, "bias_initializer": {"class_name": "Zeros", "config": {}}, "kernel_regularizer": null, "bias_regularizer": null, "activity_regularizer": null, "kernel_constraint": null, "bias_constraint": null}, "name": "dense_12", "inbound_nodes": [[["flatten_5", 0, 0, {}]]]}, {"class_name": "Activation", "config": {"name": "activation_5", "trainable": true, "dtype": "float32", "activation": "relu"}, "name": "activation_5", "inbound_nodes": [[["batch_normalization_4", 0, 0, {}]]]}, {"class_name": "Activation", "config": {"name": "activation_10", "trainable": true, "dtype": "float32", "activation": "relu"}, "name": "activation_10", "inbound_nodes": [[["batch_normalization_9", 0, 0, {}]]]}, {"class_name": "Activation", "config": {"name": "activation_14", "trainable": true, "dtype": "float32", "activation": "relu"}, "name": "activation_14", "inbound_nodes": [[["batch_normalization_14", 0, 0, {}]]]}, {"class_name": "Activation", "config": {"name": "activation_18", "trainable": true, "dtype": "float32", "activation": "relu"}, "name": "activation_18", "inbound_nodes": [[["batch_normalization_18", 0, 0, {}]]]}, {"class_name": "Activation", "config": {"name": "activation_22", "trainable": true, "dtype": "float32", "activation": "relu"}, "name": "activation_22", "inbound_nodes": [[["dense_10", 0, 0, {}]]]}, {"class_name": "Activation", "config": {"name": "activation_26", "trainable": true, "dtype": "float32", "activation": "relu"}, "name": "activation_26", "inbound_nodes": [[["dense_12", 0, 0, {}]]]}, {"class_name": "Dropout", "config": {"name": "dropout_5", "trainable": true, "dtype": "float32", "rate": 0.25, "noise_shape": null, "seed": null}, "name": "dropout_5", "inbound_nodes": [[["activation_5", 0, 0, {}]]]}, {"class_name": "Dropout", "config": {"name": "dropout_12", "trainable": true, "dtype": "float32", "rate": 0.25, "noise_shape": null, "seed": null}, "name": "dropout_12", "inbound_nodes": [[["activation_10", 0, 0, {}]]]}, {"class_name": "Dropout", "config": {"name": "dropout_17", "trainable": true, "dtype": "float32", "rate": 0.5, "noise_shape": null, "seed": null}, "name": "dropout_17", "inbound_nodes": [[["activation_14", 0, 0, {}]]]}, {"class_name": "Dropout", "config": {"name": "dropout_22", "trainable": true, "dtype": "float32", "rate": 0.5, "noise_shape": null, "seed": null}, "name": "dropout_22", "inbound_nodes": [[["activation_18", 0, 0, {}]]]}, {"class_name": "Dropout", "config": {"name": "dropout_27", "trainable": true, "dtype": "float32", "rate": 0.5, "noise_shape": null, "seed": null}, "name": "dropout_27", "inbound_nodes": [[["activation_22", 0, 0, {}]]]}, {"class_name": "Dropout", "config": {"name": "dropout_32", "trainable": true, "dtype": "float32", "rate": 0.5, "noise_shape": null, "seed": null}, "name": "dropout_32", "inbound_nodes": [[["activation_26", 0, 0, {}]]]}, {"class_name": "Dense", "config": {"name": "dense_2", "trainable": true, "dtype": "float32", "units": 7, "activation": "linear", "use_bias": true, "kernel_initializer": {"class_name": "GlorotUniform", "config": {"seed": null}}, "bias_initializer": {"class_name": "Zeros", "config": {}}, "kernel_regularizer": null, "bias_regularizer": null, "activity_regularizer": null, "kernel_constraint": null, "bias_constraint": null}, "name": "dense_2", "inbound_nodes": [[["dropout_5", 0, 0, {}]]]}, {"class_name": "Dense", "config": {"name": "dense_5", "trainable": true, "dtype": "float32", "units": 5, "activation": "linear", "use_bias": true, "kernel_initializer": {"class_name": "GlorotUniform", "config": {"seed": null}}, "bias_initializer": {"class_name": "Zeros", "config": {}}, "kernel_regularizer": null, "bias_regularizer": null, "activity_regularizer": null, "kernel_constraint": null, "bias_constraint": null}, "name": "dense_5", "inbound_nodes": [[["dropout_12", 0, 0, {}]]]}, {"class_name": "Dense", "config": {"name": "dense_7", "trainable": true, "dtype": "float32", "units": 2, "activation": "linear", "use_bias": true, "kernel_initializer": {"class_name": "GlorotUniform", "config": {"seed": null}}, "bias_initializer": {"class_name": "Zeros", "config": {}}, "kernel_regularizer": null, "bias_regularizer": null, "activity_regularizer": null, "kernel_constraint": null, "bias_constraint": null}, "name": "dense_7", "inbound_nodes": [[["dropout_17", 0, 0, {}]]]}, {"class_name": "Dense", "config": {"name": "dense_9", "trainable": true, "dtype": "float32", "units": 4, "activation": "linear", "use_bias": true, "kernel_initializer": {"class_name": "GlorotUniform", "config": {"seed": null}}, "bias_initializer": {"class_name": "Zeros", "config": {}}, "kernel_regularizer": null, "bias_regularizer": null, "activity_regularizer": null, "kernel_constraint": null, "bias_constraint": null}, "name": "dense_9", "inbound_nodes": [[["dropout_22", 0, 0, {}]]]}, {"class_name": "Dense", "config": {"name": "dense_11", "trainable": true, "dtype": "float32", "units": 2, "activation": "linear", "use_bias": true, "kernel_initializer": {"class_name": "GlorotUniform", "config": {"seed": null}}, "bias_initializer": {"class_name": "Zeros", "config": {}}, "kernel_regularizer": null, "bias_regularizer": null, "activity_regularizer": null, "kernel_constraint": null, "bias_constraint": null}, "name": "dense_11", "inbound_nodes": [[["dropout_27", 0, 0, {}]]]}, {"class_name": "Dense", "config": {"name": "dense_13", "trainable": true, "dtype": "float32", "units": 2, "activation": "linear", "use_bias": true, "kernel_initializer": {"class_name": "GlorotUniform", "config": {"seed": null}}, "bias_initializer": {"class_name": "Zeros", "config": {}}, "kernel_regularizer": null, "bias_regularizer": null, "activity_regularizer": null, "kernel_constraint": null, "bias_constraint": null}, "name": "dense_13", "inbound_nodes": [[["dropout_32", 0, 0, {}]]]}, {"class_name": "Activation", "config": {"name": "age_output", "trainable": true, "dtype": "float32", "activation": "softmax"}, "name": "age_output", "inbound_nodes": [[["dense_2", 0, 0, {}]]]}, {"class_name": "Activation", "config": {"name": "expression_output", "trainable": true, "dtype": "float32", "activation": "softmax"}, "name": "expression_output", "inbound_nodes": [[["dense_5", 0, 0, {}]]]}, {"class_name": "Activation", "config": {"name": "gender_output", "trainable": true, "dtype": "float32", "activation": "sigmoid"}, "name": "gender_output", "inbound_nodes": [[["dense_7", 0, 0, {}]]]}, {"class_name": "Activation", "config": {"name": "hair_output", "trainable": true, "dtype": "float32", "activation": "softmax"}, "name": "hair_output", "inbound_nodes": [[["dense_9", 0, 0, {}]]]}, {"class_name": "Activation", "config": {"name": "bald_output", "trainable": true, "dtype": "float32", "activation": "sigmoid"}, "name": "bald_output", "inbound_nodes": [[["dense_11", 0, 0, {}]]]}, {"class_name": "Activation", "config": {"name": "eyeglasses_output", "trainable": true, "dtype": "float32", "activation": "sigmoid"}, "name": "eyeglasses_output", "inbound_nodes": [[["dense_13", 0, 0, {}]]]}], "input_layers": [["input_2", 0, 0]], "output_layers": [["age_output", 0, 0], ["expression_output", 0, 0], ["gender_output", 0, 0], ["hair_output", 0, 0], ["bald_output", 0, 0], ["eyeglasses_output", 0, 0]]}}, "training_config": {"loss": {"age_output": "categorical_crossentropy", "expression_output": "categorical_crossentropy", "gender_output": "binary_crossentropy", "hair_output": "categorical_crossentropy", "eyeglasses_output": "binary_crossentropy", "bald_output": "binary_crossentropy"}, "metrics": [[{"class_name": "MeanMetricWrapper", "config": {"name": "age_output_accuracy", "dtype": "float32", "fn": "categorical_accuracy"}}], [{"class_name": "MeanMetricWrapper", "config": {"name": "expression_output_accuracy", "dtype": "float32", "fn": "categorical_accuracy"}}], [{"class_name": "MeanMetricWrapper", "config": {"name": "gender_output_accuracy", "dtype": "float32", "fn": "categorical_accuracy"}}], [{"class_name": "MeanMetricWrapper", "config": {"name": "hair_output_accuracy", "dtype": "float32", "fn": "categorical_accuracy"}}], [{"class_name": "MeanMetricWrapper", "config": {"name": "bald_output_accuracy", "dtype": "float32", "fn": "categorical_accuracy"}}], [{"class_name": "MeanMetricWrapper", "config": {"name": "eyeglasses_output_accuracy", "dtype": "float32", "fn": "categorical_accuracy"}}]], "weighted_metrics": null, "loss_weights": null, "optimizer_config": {"class_name": "Adam", "config": {"name": "Adam", "learning_rate": 0.0005000000237487257, "decay": 5e-06, "beta_1": 0.8999999761581421, "beta_2": 0.9990000128746033, "epsilon": 1e-07, "amsgrad": false}}}}, "weightsManifest": [{"paths": ["group1-shard1of58.bin", "group1-shard2of58.bin", "group1-shard3of58.bin", "group1-shard4of58.bin", "group1-shard5of58.bin", "group1-shard6of58.bin", "group1-shard7of58.bin", "group1-shard8of58.bin", "group1-shard9of58.bin", "group1-shard10of58.bin", "group1-shard11of58.bin", "group1-shard12of58.bin", "group1-shard13of58.bin", "group1-shard14of58.bin", "group1-shard15of58.bin", "group1-shard16of58.bin", "group1-shard17of58.bin", "group1-shard18of58.bin", "group1-shard19of58.bin", "group1-shard20of58.bin", "group1-shard21of58.bin", "group1-shard22of58.bin", "group1-shard23of58.bin", "group1-shard24of58.bin", "group1-shard25of58.bin", "group1-shard26of58.bin", "group1-shard27of58.bin", "group1-shard28of58.bin", "group1-shard29of58.bin", "group1-shard30of58.bin", "group1-shard31of58.bin", "group1-shard32of58.bin", "group1-shard33of58.bin", "group1-shard34of58.bin", "group1-shard35of58.bin", "group1-shard36of58.bin", "group1-shard37of58.bin", "group1-shard38of58.bin", "group1-shard39of58.bin", "group1-shard40of58.bin", "group1-shard41of58.bin", "group1-shard42of58.bin", "group1-shard43of58.bin", "group1-shard44of58.bin", "group1-shard45of58.bin", "group1-shard46of58.bin", "group1-shard47of58.bin", "group1-shard48of58.bin", "group1-shard49of58.bin", "group1-shard50of58.bin", "group1-shard51of58.bin", "group1-shard52of58.bin", "group1-shard53of58.bin", "group1-shard54of58.bin", "group1-shard55of58.bin", "group1-shard56of58.bin", "group1-shard57of58.bin", "group1-shard58of58.bin"], "weights": [{"name": "batch_normalization/gamma", "shape": [32], "dtype": "float32", "quantization": {"dtype": "uint16", "min": 0.7880784273147583, "scale": 7.754954009704753e-06, "original_dtype": "float32"}}, {"name": "batch_normalization/beta", "shape": [32], "dtype": "float32", "quantization": {"dtype": "uint16", "min": -0.17945226830212688, "scale": 3.9995602278266665e-06, "original_dtype": "float32"}}, {"name": "batch_normalization/moving_mean", "shape": [32], "dtype": "float32", "quantization": {"dtype": "uint16", "min": 0.00010641589324222878, "scale": 0.005891406704941261, "original_dtype": "float32"}}, {"name": "batch_normalization/moving_variance", "shape": [32], "dtype": "float32", "quantization": {"dtype": "uint16", "min": 0.0010099823120981455, "scale": 0.5609776587322451, "original_dtype": "float32"}}, {"name": "batch_normalization_1/gamma", "shape": [64], "dtype": "float32", "quantization": {"dtype": "uint16", "min": 0.8625702857971191, "scale": 4.096730419160973e-06, "original_dtype": "float32"}}, {"name": "batch_normalization_1/beta", "shape": [64], "dtype": "float32", "quantization": {"dtype": "uint16", "min": -0.12443252744687051, "scale": 4.752961323409875e-06, "original_dtype": "float32"}}, {"name": "batch_normalization_1/moving_mean", "shape": [64], "dtype": "float32", "quantization": {"dtype": "uint16", "min": 0.40357059240341187, "scale": 1.7812286242200334e-05, "original_dtype": "float32"}}, {"name": "batch_normalization_1/moving_variance", "shape": [64], "dtype": "float32", "quantization": {"dtype": "uint16", "min": 0.8769022226333618, "scale": 6.279185933871046e-05, "original_dtype": "float32"}}, {"name": "batch_normalization_10/gamma", "shape": [32], "dtype": "float32", "quantization": {"dtype": "uint16", "min": 0.7381612658500671, "scale": 6.713074641723586e-06, "original_dtype": "float32"}}, {"name": "batch_normalization_10/beta", "shape": [32], "dtype": "float32", "quantization": {"dtype": "uint16", "min": -0.08519907115734877, "scale": 2.3577338708586667e-06, "original_dtype": "float32"}}, {"name": "batch_normalization_10/moving_mean", "shape": [32], "dtype": "float32", "quantization": {"dtype": "uint16", "min": 0.0006279126973822713, "scale": 0.00392646020595206, "original_dtype": "float32"}}, {"name": "batch_normalization_10/moving_variance", "shape": [32], "dtype": "float32", "quantization": {"dtype": "uint16", "min": 0.004223259165883064, "scale": 0.2519354769186821, "original_dtype": "float32"}}, {"name": "batch_normalization_11/gamma", "shape": [64], "dtype": "float32", "quantization": {"dtype": "uint16", "min": 0.878585159778595, "scale": 4.468527521977592e-06, "original_dtype": "float32"}}, {"name": "batch_normalization_11/beta", "shape": [64], "dtype": "float32", "quantization": {"dtype": "uint16", "min": -0.1262632432614783, "scale": 4.3896274253051836e-06, "original_dtype": "float32"}}, {"name": "batch_normalization_11/moving_mean", "shape": [64], "dtype": "float32", "quantization": {"dtype": "uint16", "min": 0.38814103603363037, "scale": 1.765729961364704e-05, "original_dtype": "float32"}}, {"name": "batch_normalization_11/moving_variance", "shape": [64], "dtype": "float32", "quantization": {"dtype": "uint16", "min": 0.47105953097343445, "scale": 9.629107443848145e-05, "original_dtype": "float32"}}, {"name": "batch_normalization_12/gamma", "shape": [128], "dtype": "float32", "quantization": {"dtype": "uint16", "min": 0.8098413944244385, "scale": 4.7219338929652256e-06, "original_dtype": "float32"}}, {"name": "batch_normalization_12/beta", "shape": [128], "dtype": "float32", "quantization": {"dtype": "uint16", "min": -0.1823962476329317, "scale": 3.338817251513513e-06, "original_dtype": "float32"}}, {"name": "batch_normalization_12/moving_mean", "shape": [128], "dtype": "float32", "quantization": {"dtype": "uint16", "min": 0.318521112203598, "scale": 5.591585487525214e-05, "original_dtype": "float32"}}, {"name": "batch_normalization_12/moving_variance", "shape": [128], "dtype": "float32", "quantization": {"dtype": "uint16", "min": 0.6833517551422119, "scale": 0.0003357265928185049, "original_dtype": "float32"}}, {"name": "batch_normalization_13/gamma", "shape": [512], "dtype": "float32", "quantization": {"dtype": "uint16", "min": 0.6836956739425659, "scale": 7.695503071879344e-06, "original_dtype": "float32"}}, {"name": "batch_normalization_13/beta", "shape": [512], "dtype": "float32", "quantization": {"dtype": "uint16", "min": -0.18040840477331138, "scale": 4.397952384712986e-06, "original_dtype": "float32"}}, {"name": "batch_normalization_13/moving_mean", "shape": [512], "dtype": "float32", "quantization": {"dtype": "uint16", "min": 1.708407035766244e-40, "scale": 0.000810078249612862, "original_dtype": "float32"}}, {"name": "batch_normalization_13/moving_variance", "shape": [512], "dtype": "float32", "quantization": {"dtype": "uint16", "min": 2.687788545467502e-40, "scale": 0.012653324112354085, "original_dtype": "float32"}}, {"name": "batch_normalization_14/gamma", "shape": [512], "dtype": "float32", "quantization": {"dtype": "uint16", "min": 0.8445702195167542, "scale": 5.310341378157623e-06, "original_dtype": "float32"}}, {"name": "batch_normalization_14/beta", "shape": [512], "dtype": "float32", "quantization": {"dtype": "uint16", "min": -0.18819921858738894, "scale": 3.587138446343066e-06, "original_dtype": "float32"}}, {"name": "batch_normalization_14/moving_mean", "shape": [512], "dtype": "float32", "quantization": {"dtype": "uint16", "min": -92.41505028953212, "scale": 0.0029599337098690703, "original_dtype": "float32"}}, {"name": "batch_normalization_14/moving_variance", "shape": [512], "dtype": "float32", "quantization": {"dtype": "uint16", "min": 1154.5455322265625, "scale": 0.06467077281879435, "original_dtype": "float32"}}, {"name": "batch_normalization_15/gamma", "shape": [32], "dtype": "float32", "quantization": {"dtype": "uint16", "min": 0.791658878326416, "scale": 8.088630879417368e-06, "original_dtype": "float32"}}, {"name": "batch_normalization_15/beta", "shape": [32], "dtype": "float32", "quantization": {"dtype": "uint16", "min": -0.08565162122829416, "scale": 4.423468534229931e-06, "original_dtype": "float32"}}, {"name": "batch_normalization_15/moving_mean", "shape": [32], "dtype": "float32", "quantization": {"dtype": "uint16", "min": 0.00040200029616244137, "scale": 0.00657280078380852, "original_dtype": "float32"}}, {"name": "batch_normalization_15/moving_variance", "shape": [32], "dtype": "float32", "quantization": {"dtype": "uint16", "min": 0.0004945169785059988, "scale": 0.6669460899593045, "original_dtype": "float32"}}, {"name": "batch_normalization_16/gamma", "shape": [64], "dtype": "float32", "quantization": {"dtype": "uint16", "min": 0.857285737991333, "scale": 4.2386665091031095e-06, "original_dtype": "float32"}}, {"name": "batch_normalization_16/beta", "shape": [64], "dtype": "float32", "quantization": {"dtype": "uint16", "min": -0.06877160776922957, "scale": 5.7578372211344245e-06, "original_dtype": "float32"}}, {"name": "batch_normalization_16/moving_mean", "shape": [64], "dtype": "float32", "quantization": {"dtype": "uint16", "min": 0.24033236503601074, "scale": 1.7090961354142825e-05, "original_dtype": "float32"}}, {"name": "batch_normalization_16/moving_variance", "shape": [64], "dtype": "float32", "quantization": {"dtype": "uint16", "min": 0.35829779505729675, "scale": 7.190855733406229e-05, "original_dtype": "float32"}}, {"name": "batch_normalization_17/gamma", "shape": [128], "dtype": "float32", "quantization": {"dtype": "uint16", "min": 0.7667029500007629, "scale": 6.106119548063888e-06, "original_dtype": "float32"}}, {"name": "batch_normalization_17/beta", "shape": [128], "dtype": "float32", "quantization": {"dtype": "uint16", "min": -0.11805242534141078, "scale": 5.658730003902348e-06, "original_dtype": "float32"}}, {"name": "batch_normalization_17/moving_mean", "shape": [128], "dtype": "float32", "quantization": {"dtype": "uint16", "min": 0.07785224169492722, "scale": 5.7342391456302196e-05, "original_dtype": "float32"}}, {"name": "batch_normalization_17/moving_variance", "shape": [128], "dtype": "float32", "quantization": {"dtype": "uint16", "min": 0.1723184585571289, "scale": 0.0004710650675045941, "original_dtype": "float32"}}, {"name": "batch_normalization_18/gamma", "shape": [512], "dtype": "float32", "quantization": {"dtype": "uint16", "min": 0.5980791449546814, "scale": 7.56418913264037e-06, "original_dtype": "float32"}}, {"name": "batch_normalization_18/beta", "shape": [512], "dtype": "float32", "quantization": {"dtype": "uint16", "min": -0.3626564672303034, "scale": 7.62331764967425e-06, "original_dtype": "float32"}}, {"name": "batch_normalization_18/moving_mean", "shape": [512], "dtype": "float32", "quantization": {"dtype": "uint16", "min": -9.445191441119249, "scale": 0.00024313198726110094, "original_dtype": "float32"}}, {"name": "batch_normalization_18/moving_variance", "shape": [512], "dtype": "float32", "quantization": {"dtype": "uint16", "min": 1.419119119644165, "scale": 0.0017463138922588534, "original_dtype": "float32"}}, {"name": "batch_normalization_19/gamma", "shape": [32], "dtype": "float32", "quantization": {"dtype": "uint16", "min": 0.7544394135475159, "scale": 6.468427747867742e-06, "original_dtype": "float32"}}, {"name": "batch_normalization_19/beta", "shape": [32], "dtype": "float32", "quantization": {"dtype": "uint16", "min": -0.13710117980916267, "scale": 3.3651893622925962e-06, "original_dtype": "float32"}}, {"name": "batch_normalization_19/moving_mean", "shape": [32], "dtype": "float32", "quantization": {"dtype": "uint16", "min": 0.0014006905257701874, "scale": 0.0045474898602443714, "original_dtype": "float32"}}, {"name": "batch_normalization_19/moving_variance", "shape": [32], "dtype": "float32", "quantization": {"dtype": "uint16", "min": 0.030264396220445633, "scale": 0.3473069168856913, "original_dtype": "float32"}}, {"name": "batch_normalization_2/gamma", "shape": [128], "dtype": "float32", "quantization": {"dtype": "uint16", "min": 0.8120384216308594, "scale": 6.056881482080745e-06, "original_dtype": "float32"}}, {"name": "batch_normalization_2/beta", "shape": [128], "dtype": "float32", "quantization": {"dtype": "uint16", "min": -0.15409189553726288, "scale": 6.498751446048791e-06, "original_dtype": "float32"}}, {"name": "batch_normalization_2/moving_mean", "shape": [128], "dtype": "float32", "quantization": {"dtype": "uint16", "min": 0.17477044463157654, "scale": 4.4136201706887235e-05, "original_dtype": "float32"}}, {"name": "batch_normalization_2/moving_variance", "shape": [128], "dtype": "float32", "quantization": {"dtype": "uint16", "min": 0.4044310748577118, "scale": 0.00023346273642778852, "original_dtype": "float32"}}, {"name": "batch_normalization_20/gamma", "shape": [64], "dtype": "float32", "quantization": {"dtype": "uint16", "min": 0.8583623766899109, "scale": 4.184473440377365e-06, "original_dtype": "float32"}}, {"name": "batch_normalization_20/beta", "shape": [64], "dtype": "float32", "quantization": {"dtype": "uint16", "min": -0.05186999947528431, "scale": 3.844215480270089e-06, "original_dtype": "float32"}}, {"name": "batch_normalization_20/moving_mean", "shape": [64], "dtype": "float32", "quantization": {"dtype": "uint16", "min": 0.3921652138233185, "scale": 1.4758373349120562e-05, "original_dtype": "float32"}}, {"name": "batch_normalization_20/moving_variance", "shape": [64], "dtype": "float32", "quantization": {"dtype": "uint16", "min": 0.6383309960365295, "scale": 5.028370889762796e-05, "original_dtype": "float32"}}, {"name": "batch_normalization_21/gamma", "shape": [128], "dtype": "float32", "quantization": {"dtype": "uint16", "min": 0.6848244667053223, "scale": 5.690251297505813e-06, "original_dtype": "float32"}}, {"name": "batch_normalization_21/beta", "shape": [128], "dtype": "float32", "quantization": {"dtype": "uint16", "min": -0.0193698359646106, "scale": 2.4823575502512627e-06, "original_dtype": "float32"}}, {"name": "batch_normalization_21/moving_mean", "shape": [128], "dtype": "float32", "quantization": {"dtype": "uint16", "min": 0.1591532975435257, "scale": 8.083810006452569e-05, "original_dtype": "float32"}}, {"name": "batch_normalization_21/moving_variance", "shape": [128], "dtype": "float32", "quantization": {"dtype": "uint16", "min": 0.5230214595794678, "scale": 0.0008058752467541889, "original_dtype": "float32"}}, {"name": "batch_normalization_22/gamma", "shape": [32], "dtype": "float32", "quantization": {"dtype": "uint16", "min": 0.8094548583030701, "scale": 6.1556604804040965e-06, "original_dtype": "float32"}}, {"name": "batch_normalization_22/beta", "shape": [32], "dtype": "float32", "quantization": {"dtype": "uint16", "min": -0.10849440123525193, "scale": 1.860520650877181e-06, "original_dtype": "float32"}}, {"name": "batch_normalization_22/moving_mean", "shape": [32], "dtype": "float32", "quantization": {"dtype": "uint16", "min": 0.00037716160295531154, "scale": 0.005595833065652516, "original_dtype": "float32"}}, {"name": "batch_normalization_22/moving_variance", "shape": [32], "dtype": "float32", "quantization": {"dtype": "uint16", "min": 0.001506870612502098, "scale": 0.45688081239039274, "original_dtype": "float32"}}, {"name": "batch_normalization_23/gamma", "shape": [64], "dtype": "float32", "quantization": {"dtype": "uint16", "min": 0.8661742210388184, "scale": 3.861104031399312e-06, "original_dtype": "float32"}}, {"name": "batch_normalization_23/beta", "shape": [64], "dtype": "float32", "quantization": {"dtype": "uint16", "min": -0.03377843347341197, "scale": 3.0864796667956847e-06, "original_dtype": "float32"}}, {"name": "batch_normalization_23/moving_mean", "shape": [64], "dtype": "float32", "quantization": {"dtype": "uint16", "min": 0.4120045006275177, "scale": 1.6958187198879027e-05, "original_dtype": "float32"}}, {"name": "batch_normalization_23/moving_variance", "shape": [64], "dtype": "float32", "quantization": {"dtype": "uint16", "min": 0.6308677196502686, "scale": 0.00010554681537698314, "original_dtype": "float32"}}, {"name": "batch_normalization_24/gamma", "shape": [128], "dtype": "float32", "quantization": {"dtype": "uint16", "min": 0.7205847501754761, "scale": 4.65455385934136e-06, "original_dtype": "float32"}}, {"name": "batch_normalization_24/beta", "shape": [128], "dtype": "float32", "quantization": {"dtype": "uint16", "min": -0.04983240819826837, "scale": 3.2075442970049156e-06, "original_dtype": "float32"}}, {"name": "batch_normalization_24/moving_mean", "shape": [128], "dtype": "float32", "quantization": {"dtype": "uint16", "min": 0.15010620653629303, "scale": 6.852985960927719e-05, "original_dtype": "float32"}}, {"name": "batch_normalization_24/moving_variance", "shape": [128], "dtype": "float32", "quantization": {"dtype": "uint16", "min": 0.35558488965034485, "scale": 0.0004660318793116877, "original_dtype": "float32"}}, {"name": "batch_normalization_3/gamma", "shape": [128], "dtype": "float32", "quantization": {"dtype": "uint16", "min": 0.871235728263855, "scale": 3.1450879449219344e-06, "original_dtype": "float32"}}, {"name": "batch_normalization_3/beta", "shape": [128], "dtype": "float32", "quantization": {"dtype": "uint16", "min": -0.4119921624660492, "scale": 4.966548385577916e-06, "original_dtype": "float32"}}, {"name": "batch_normalization_3/moving_mean", "shape": [128], "dtype": "float32", "quantization": {"dtype": "uint16", "min": -76.52560083562888, "scale": 0.002554600108012715, "original_dtype": "float32"}}, {"name": "batch_normalization_3/moving_variance", "shape": [128], "dtype": "float32", "quantization": {"dtype": "uint16", "min": 1745.560546875, "scale": 0.04624500654468986, "original_dtype": "float32"}}, {"name": "batch_normalization_4/gamma", "shape": [64], "dtype": "float32", "quantization": {"dtype": "uint16", "min": 1.037498116493225, "scale": 8.949084204431256e-06, "original_dtype": "float32"}}, {"name": "batch_normalization_4/beta", "shape": [64], "dtype": "float32", "quantization": {"dtype": "uint16", "min": -0.10833436907965759, "scale": 1.0310685169854153e-05, "original_dtype": "float32"}}, {"name": "batch_normalization_4/moving_mean", "shape": [64], "dtype": "float32", "quantization": {"dtype": "uint16", "min": -0.16451518571630555, "scale": 4.830725443866148e-06, "original_dtype": "float32"}}, {"name": "batch_normalization_4/moving_variance", "shape": [64], "dtype": "float32", "quantization": {"dtype": "uint16", "min": 0.023896969854831696, "scale": 1.0620025863743505e-06, "original_dtype": "float32"}}, {"name": "batch_normalization_5/gamma", "shape": [32], "dtype": "float32", "quantization": {"dtype": "uint16", "min": 0.8620938658714294, "scale": 5.9539314774105565e-06, "original_dtype": "float32"}}, {"name": "batch_normalization_5/beta", "shape": [32], "dtype": "float32", "quantization": {"dtype": "uint16", "min": -0.11540060681707665, "scale": 2.9838553798856275e-06, "original_dtype": "float32"}}, {"name": "batch_normalization_5/moving_mean", "shape": [32], "dtype": "float32", "quantization": {"dtype": "uint16", "min": 0.0001654989318922162, "scale": 0.0037483244212463663, "original_dtype": "float32"}}, {"name": "batch_normalization_5/moving_variance", "shape": [32], "dtype": "float32", "quantization": {"dtype": "uint16", "min": 0.0005944623844698071, "scale": 0.21174262785496475, "original_dtype": "float32"}}, {"name": "batch_normalization_6/gamma", "shape": [64], "dtype": "float32", "quantization": {"dtype": "uint16", "min": 0.8882807493209839, "scale": 3.411852268420687e-06, "original_dtype": "float32"}}, {"name": "batch_normalization_6/beta", "shape": [64], "dtype": "float32", "quantization": {"dtype": "uint16", "min": -0.048910074045922416, "scale": 4.543012636626641e-06, "original_dtype": "float32"}}, {"name": "batch_normalization_6/moving_mean", "shape": [64], "dtype": "float32", "quantization": {"dtype": "uint16", "min": 0.32719090580940247, "scale": 2.1677789111845714e-05, "original_dtype": "float32"}}, {"name": "batch_normalization_6/moving_variance", "shape": [64], "dtype": "float32", "quantization": {"dtype": "uint16", "min": 0.46623337268829346, "scale": 7.946612751801336e-05, "original_dtype": "float32"}}, {"name": "batch_normalization_7/gamma", "shape": [128], "dtype": "float32", "quantization": {"dtype": "uint16", "min": 0.8003566861152649, "scale": 5.505549204634194e-06, "original_dtype": "float32"}}, {"name": "batch_normalization_7/beta", "shape": [128], "dtype": "float32", "quantization": {"dtype": "uint16", "min": -0.21844023110037622, "scale": 5.707871207221746e-06, "original_dtype": "float32"}}, {"name": "batch_normalization_7/moving_mean", "shape": [128], "dtype": "float32", "quantization": {"dtype": "uint16", "min": 0.3216899633407593, "scale": 6.068011502374853e-05, "original_dtype": "float32"}}, {"name": "batch_normalization_7/moving_variance", "shape": [128], "dtype": "float32", "quantization": {"dtype": "uint16", "min": 1.0183465480804443, "scale": 0.0006477913922354768, "original_dtype": "float32"}}, {"name": "batch_normalization_8/gamma", "shape": [512], "dtype": "float32", "quantization": {"dtype": "uint16", "min": 0.6931321620941162, "scale": 7.941847108745044e-06, "original_dtype": "float32"}}, {"name": "batch_normalization_8/beta", "shape": [512], "dtype": "float32", "quantization": {"dtype": "uint16", "min": -0.20803651143386398, "scale": 5.574397412482958e-06, "original_dtype": "float32"}}, {"name": "batch_normalization_8/moving_mean", "shape": [512], "dtype": "float32", "quantization": {"dtype": "uint16", "min": -22339.927976403353, "scale": 0.6265756430247196, "original_dtype": "float32"}}, {"name": "batch_normalization_8/moving_variance", "shape": [512], "dtype": "float32", "quantization": {"dtype": "uint16", "min": 26918094.0, "scale": 5501.76098268101, "original_dtype": "float32"}}, {"name": "batch_normalization_9/gamma", "shape": [512], "dtype": "float32", "quantization": {"dtype": "uint16", "min": 0.7417575716972351, "scale": 8.06643796056234e-06, "original_dtype": "float32"}}, {"name": "batch_normalization_9/beta", "shape": [512], "dtype": "float32", "quantization": {"dtype": "uint16", "min": -0.25718782205048507, "scale": 7.539290653137663e-06, "original_dtype": "float32"}}, {"name": "batch_normalization_9/moving_mean", "shape": [512], "dtype": "float32", "quantization": {"dtype": "uint16", "min": -0.7209839926364812, "scale": 2.0348385432278198e-05, "original_dtype": "float32"}}, {"name": "batch_normalization_9/moving_variance", "shape": [512], "dtype": "float32", "quantization": {"dtype": "uint16", "min": 0.01713896170258522, "scale": 8.314925652306277e-06, "original_dtype": "float32"}}, {"name": "conv2d_1/kernel", "shape": [3, 3, 3, 32], "dtype": "float32", "quantization": {"dtype": "uint16", "min": -0.693673842794755, "scale": 2.0306016884598078e-05, "original_dtype": "float32"}}, {"name": "conv2d_1/bias", "shape": [32], "dtype": "float32", "quantization": {"dtype": "uint16", "min": -0.08795424242607469, "scale": 5.954521862167402e-06, "original_dtype": "float32"}}, {"name": "conv2d_10/kernel", "shape": [3, 3, 512, 512], "dtype": "float32", "quantization": {"dtype": "uint16", "min": -0.3351491908368797, "scale": 9.938886475397518e-06, "original_dtype": "float32"}}, {"name": "conv2d_10/bias", "shape": [512], "dtype": "float32", "quantization": {"dtype": "uint16", "min": -0.06232711440880948, "scale": 2.3207027742789396e-06, "original_dtype": "float32"}}, {"name": "conv2d_11/kernel", "shape": [3, 3, 512, 512], "dtype": "float32", "quantization": {"dtype": "uint16", "min": -0.3248354979835441, "scale": 9.330063705869258e-06, "original_dtype": "float32"}}, {"name": "conv2d_11/bias", "shape": [512], "dtype": "float32", "quantization": {"dtype": "uint16", "min": -0.08979657578542902, "scale": 2.561518022176775e-06, "original_dtype": "float32"}}, {"name": "conv2d_12/kernel", "shape": [3, 3, 512, 512], "dtype": "float32", "quantization": {"dtype": "uint16", "min": -0.3197824227470659, "scale": 9.332625791538477e-06, "original_dtype": "float32"}}, {"name": "conv2d_12/bias", "shape": [512], "dtype": "float32", "quantization": {"dtype": "uint16", "min": -0.06796971888175461, "scale": 2.468215516077951e-06, "original_dtype": "float32"}}, {"name": "conv2d_13/kernel", "shape": [3, 3, 512, 512], "dtype": "float32", "quantization": {"dtype": "uint16", "min": -0.29863997950764537, "scale": 8.175197906040115e-06, "original_dtype": "float32"}}, {"name": "conv2d_13/bias", "shape": [512], "dtype": "float32", "quantization": {"dtype": "uint16", "min": -0.04984900593948627, "scale": 1.9885513778317483e-06, "original_dtype": "float32"}}, {"name": "conv2d_14/kernel", "shape": [3, 3, 512, 512], "dtype": "float32", "quantization": {"dtype": "uint16", "min": -0.2591596756218281, "scale": 8.421384143167223e-06, "original_dtype": "float32"}}, {"name": "conv2d_14/bias", "shape": [512], "dtype": "float32", "quantization": {"dtype": "uint16", "min": -0.014711534325296332, "scale": 1.6751917929055262e-06, "original_dtype": "float32"}}, {"name": "conv2d_15/kernel", "shape": [3, 3, 512, 512], "dtype": "float32", "quantization": {"dtype": "uint16", "min": -0.24190328262977692, "scale": 7.83340185323587e-06, "original_dtype": "float32"}}, {"name": "conv2d_15/bias", "shape": [512], "dtype": "float32", "quantization": {"dtype": "uint16", "min": -0.005207823991290631, "scale": 7.015794141574337e-07, "original_dtype": "float32"}}, {"name": "conv2d_16/kernel", "shape": [3, 3, 3, 32], "dtype": "float32", "quantization": {"dtype": "uint16", "min": -0.6363215702435168, "scale": 2.0241167103843137e-05, "original_dtype": "float32"}}, {"name": "conv2d_16/bias", "shape": [32], "dtype": "float32", "quantization": {"dtype": "uint16", "min": -0.07234854170484274, "scale": 5.131102248570408e-06, "original_dtype": "float32"}}, {"name": "conv2d_17/kernel", "shape": [3, 3, 32, 64], "dtype": "float32", "quantization": {"dtype": "uint16", "min": -0.2679899434635148, "scale": 8.180401204624993e-06, "original_dtype": "float32"}}, {"name": "conv2d_17/bias", "shape": [64], "dtype": "float32", "quantization": {"dtype": "uint16", "min": -0.12190938570322157, "scale": 3.248751118007237e-06, "original_dtype": "float32"}}, {"name": "conv2d_18/kernel", "shape": [3, 3, 64, 128], "dtype": "float32", "quantization": {"dtype": "uint16", "min": -0.2422819509396266, "scale": 7.278138452330397e-06, "original_dtype": "float32"}}, {"name": "conv2d_18/bias", "shape": [128], "dtype": "float32", "quantization": {"dtype": "uint16", "min": -0.18138154329956738, "scale": 3.939993555034481e-06, "original_dtype": "float32"}}, {"name": "conv2d_19/kernel", "shape": [3, 3, 128, 512], "dtype": "float32", "quantization": {"dtype": "uint16", "min": -0.2298834331879911, "scale": 6.361090046431586e-06, "original_dtype": "float32"}}, {"name": "conv2d_19/bias", "shape": [512], "dtype": "float32", "quantization": {"dtype": "uint16", "min": -0.10507480046328377, "scale": 2.7813017936759513e-06, "original_dtype": "float32"}}, {"name": "conv2d_2/kernel", "shape": [3, 3, 32, 64], "dtype": "float32", "quantization": {"dtype": "uint16", "min": -0.3316139985778889, "scale": 9.731314334533231e-06, "original_dtype": "float32"}}, {"name": "conv2d_2/bias", "shape": [64], "dtype": "float32", "quantization": {"dtype": "uint16", "min": -0.21776941511190265, "scale": 6.2493016647603134e-06, "original_dtype": "float32"}}, {"name": "conv2d_20/kernel", "shape": [3, 3, 512, 512], "dtype": "float32", "quantization": {"dtype": "uint16", "min": -0.2141729368480563, "scale": 6.509222163573422e-06, "original_dtype": "float32"}}, {"name": "conv2d_20/bias", "shape": [512], "dtype": "float32", "quantization": {"dtype": "uint16", "min": -0.07102966573920141, "scale": 2.157579227216713e-06, "original_dtype": "float32"}}, {"name": "conv2d_21/kernel", "shape": [3, 3, 3, 32], "dtype": "float32", "quantization": {"dtype": "uint16", "min": -0.6672817394436383, "scale": 1.9597689783654097e-05, "original_dtype": "float32"}}, {"name": "conv2d_21/bias", "shape": [32], "dtype": "float32", "quantization": {"dtype": "uint16", "min": -0.15490733342975813, "scale": 9.348662246817026e-06, "original_dtype": "float32"}}, {"name": "conv2d_22/kernel", "shape": [3, 3, 32, 64], "dtype": "float32", "quantization": {"dtype": "uint16", "min": -0.36943348581566093, "scale": 9.369112774610356e-06, "original_dtype": "float32"}}, {"name": "conv2d_22/bias", "shape": [64], "dtype": "float32", "quantization": {"dtype": "uint16", "min": -0.23449053857658841, "scale": 5.013909907983844e-06, "original_dtype": "float32"}}, {"name": "conv2d_23/kernel", "shape": [3, 3, 64, 128], "dtype": "float32", "quantization": {"dtype": "uint16", "min": -0.2883184564648408, "scale": 8.347620268821934e-06, "original_dtype": "float32"}}, {"name": "conv2d_23/bias", "shape": [128], "dtype": "float32", "quantization": {"dtype": "uint16", "min": -0.25242516570383833, "scale": 4.597489585717846e-06, "original_dtype": "float32"}}, {"name": "conv2d_24/kernel", "shape": [3, 3, 128, 512], "dtype": "float32", "quantization": {"dtype": "uint16", "min": -0.29339959022245193, "scale": 7.950562019956424e-06, "original_dtype": "float32"}}, {"name": "conv2d_24/bias", "shape": [512], "dtype": "float32", "quantization": {"dtype": "uint16", "min": -0.14051849531349295, "scale": 2.982774258405709e-06, "original_dtype": "float32"}}, {"name": "conv2d_25/kernel", "shape": [3, 3, 512, 512], "dtype": "float32", "quantization": {"dtype": "uint16", "min": -0.24932708812131027, "scale": 7.178805335904819e-06, "original_dtype": "float32"}}, {"name": "conv2d_25/bias", "shape": [512], "dtype": "float32", "quantization": {"dtype": "uint16", "min": -0.08290102961789719, "scale": 2.7044114835876945e-06, "original_dtype": "float32"}}, {"name": "conv2d_26/kernel", "shape": [3, 3, 3, 32], "dtype": "float32", "quantization": {"dtype": "uint16", "min": -0.6284153872317704, "scale": 1.927772830332445e-05, "original_dtype": "float32"}}, {"name": "conv2d_26/bias", "shape": [32], "dtype": "float32", "quantization": {"dtype": "uint16", "min": -0.11353866557837296, "scale": 5.546859425393178e-06, "original_dtype": "float32"}}, {"name": "conv2d_27/kernel", "shape": [3, 3, 32, 64], "dtype": "float32", "quantization": {"dtype": "uint16", "min": -0.24952181983778077, "scale": 8.066785847594103e-06, "original_dtype": "float32"}}, {"name": "conv2d_27/bias", "shape": [64], "dtype": "float32", "quantization": {"dtype": "uint16", "min": -0.15212676180832863, "scale": 3.903188243959682e-06, "original_dtype": "float32"}}, {"name": "conv2d_28/kernel", "shape": [3, 3, 64, 128], "dtype": "float32", "quantization": {"dtype": "uint16", "min": -0.23033641588317727, "scale": 6.856066671126838e-06, "original_dtype": "float32"}}, {"name": "conv2d_28/bias", "shape": [128], "dtype": "float32", "quantization": {"dtype": "uint16", "min": -0.14063954627913158, "scale": 4.152579020879048e-06, "original_dtype": "float32"}}, {"name": "conv2d_29/kernel", "shape": [3, 3, 128, 512], "dtype": "float32", "quantization": {"dtype": "uint16", "min": -0.20585341950507732, "scale": 6.151121123082452e-06, "original_dtype": "float32"}}, {"name": "conv2d_29/bias", "shape": [512], "dtype": "float32", "quantization": {"dtype": "uint16", "min": -0.1213132803392072, "scale": 2.8393980184717894e-06, "original_dtype": "float32"}}, {"name": "conv2d_3/kernel", "shape": [3, 3, 64, 128], "dtype": "float32", "quantization": {"dtype": "uint16", "min": -0.2493279638000363, "scale": 7.291783809552724e-06, "original_dtype": "float32"}}, {"name": "conv2d_3/bias", "shape": [128], "dtype": "float32", "quantization": {"dtype": "uint16", "min": -0.23215092769874773, "scale": 5.347621111645345e-06, "original_dtype": "float32"}}, {"name": "conv2d_30/kernel", "shape": [3, 3, 512, 512], "dtype": "float32", "quantization": {"dtype": "uint16", "min": -0.25528969907161253, "scale": 6.5693033908446136e-06, "original_dtype": "float32"}}, {"name": "conv2d_30/bias", "shape": [512], "dtype": "float32", "quantization": {"dtype": "uint16", "min": -0.07620423414177485, "scale": 3.0636099598687327e-06, "original_dtype": "float32"}}, {"name": "conv2d_31/kernel", "shape": [3, 3, 3, 32], "dtype": "float32", "quantization": {"dtype": "uint16", "min": -0.619797150669613, "scale": 1.9256132931606332e-05, "original_dtype": "float32"}}, {"name": "conv2d_31/bias", "shape": [32], "dtype": "float32", "quantization": {"dtype": "uint16", "min": -0.1343880448009763, "scale": 5.021599461960103e-06, "original_dtype": "float32"}}, {"name": "conv2d_32/kernel", "shape": [3, 3, 32, 64], "dtype": "float32", "quantization": {"dtype": "uint16", "min": -0.24490644830292052, "scale": 7.86772193211644e-06, "original_dtype": "float32"}}, {"name": "conv2d_32/bias", "shape": [64], "dtype": "float32", "quantization": {"dtype": "uint16", "min": -0.16424215631207767, "scale": 4.322389502396907e-06, "original_dtype": "float32"}}, {"name": "conv2d_33/kernel", "shape": [3, 3, 64, 128], "dtype": "float32", "quantization": {"dtype": "uint16", "min": -0.22067848452443414, "scale": 6.491307345700499e-06, "original_dtype": "float32"}}, {"name": "conv2d_33/bias", "shape": [128], "dtype": "float32", "quantization": {"dtype": "uint16", "min": -0.12416105499786544, "scale": 4.005970671674048e-06, "original_dtype": "float32"}}, {"name": "conv2d_34/kernel", "shape": [3, 3, 128, 512], "dtype": "float32", "quantization": {"dtype": "uint16", "min": -0.2444928888689965, "scale": 6.648887437969012e-06, "original_dtype": "float32"}}, {"name": "conv2d_34/bias", "shape": [512], "dtype": "float32", "quantization": {"dtype": "uint16", "min": -0.10868336123022751, "scale": 2.414488286277909e-06, "original_dtype": "float32"}}, {"name": "conv2d_35/kernel", "shape": [3, 3, 512, 512], "dtype": "float32", "quantization": {"dtype": "uint16", "min": -0.22525538574428702, "scale": 6.203502678094435e-06, "original_dtype": "float32"}}, {"name": "conv2d_35/bias", "shape": [512], "dtype": "float32", "quantization": {"dtype": "uint16", "min": -0.07380747183221714, "scale": 2.9873101482258932e-06, "original_dtype": "float32"}}, {"name": "conv2d_4/kernel", "shape": [3, 3, 128, 512], "dtype": "float32", "quantization": {"dtype": "uint16", "min": -0.25284284650915645, "scale": 7.394579197764351e-06, "original_dtype": "float32"}}, {"name": "conv2d_4/bias", "shape": [512], "dtype": "float32", "quantization": {"dtype": "uint16", "min": -0.19721222281401424, "scale": 4.4405165904263315e-06, "original_dtype": "float32"}}, {"name": "conv2d_5/kernel", "shape": [3, 3, 3, 32], "dtype": "float32", "quantization": {"dtype": "uint16", "min": -0.6832501242705956, "scale": 2.037120227401895e-05, "original_dtype": "float32"}}, {"name": "conv2d_5/bias", "shape": [32], "dtype": "float32", "quantization": {"dtype": "uint16", "min": -0.07968353173380233, "scale": 8.506835884894024e-06, "original_dtype": "float32"}}, {"name": "conv2d_6/kernel", "shape": [3, 3, 32, 64], "dtype": "float32", "quantization": {"dtype": "uint16", "min": -0.2938916795284859, "scale": 9.255847805759822e-06, "original_dtype": "float32"}}, {"name": "conv2d_6/bias", "shape": [64], "dtype": "float32", "quantization": {"dtype": "uint16", "min": -0.24305004383298565, "scale": 5.160955617127143e-06, "original_dtype": "float32"}}, {"name": "conv2d_7/kernel", "shape": [3, 3, 64, 128], "dtype": "float32", "quantization": {"dtype": "uint16", "min": -0.2769073145098696, "scale": 7.856863991313971e-06, "original_dtype": "float32"}}, {"name": "conv2d_7/bias", "shape": [128], "dtype": "float32", "quantization": {"dtype": "uint16", "min": -0.20903477984839175, "scale": 5.23437535616356e-06, "original_dtype": "float32"}}, {"name": "conv2d_8/kernel", "shape": [3, 3, 128, 512], "dtype": "float32", "quantization": {"dtype": "uint16", "min": -0.28505268678577306, "scale": 7.652215693156507e-06, "original_dtype": "float32"}}, {"name": "conv2d_8/bias", "shape": [512], "dtype": "float32", "quantization": {"dtype": "uint16", "min": -0.15516704117154934, "scale": 3.1241476467583974e-06, "original_dtype": "float32"}}, {"name": "conv2d_9/kernel", "shape": [3, 3, 512, 512], "dtype": "float32", "quantization": {"dtype": "uint16", "min": -0.31313528627864357, "scale": 8.849129211514258e-06, "original_dtype": "float32"}}, {"name": "conv2d_9/bias", "shape": [512], "dtype": "float32", "quantization": {"dtype": "uint16", "min": -0.1119766956483862, "scale": 2.970755727811164e-06, "original_dtype": "float32"}}, {"name": "dense/kernel", "shape": [41472, 128], "dtype": "float32", "quantization": {"dtype": "uint16", "min": -0.23163847406655197, "scale": 7.221325998894908e-06, "original_dtype": "float32"}}, {"name": "dense/bias", "shape": [128], "dtype": "float32", "quantization": {"dtype": "uint16", "min": -4.9925493791193956e-05, "scale": 1.6609166569478012e-09, "original_dtype": "float32"}}, {"name": "dense_1/kernel", "shape": [128, 64], "dtype": "float32", "quantization": {"dtype": "uint16", "min": -0.05552213193515195, "scale": 1.7378362995759476e-06, "original_dtype": "float32"}}, {"name": "dense_1/bias", "shape": [64], "dtype": "float32", "quantization": {"dtype": "uint16", "min": -0.0033248403477463663, "scale": 1.3845424951055078e-07, "original_dtype": "float32"}}, {"name": "dense_10/kernel", "shape": [41472, 512], "dtype": "float32", "quantization": {"dtype": "uint16", "min": -0.20888562629968122, "scale": 7.377207356513551e-06, "original_dtype": "float32"}}, {"name": "dense_10/bias", "shape": [512], "dtype": "float32", "quantization": {"dtype": "uint16", "min": -0.09816385450193627, "scale": 3.0133796200250574e-06, "original_dtype": "float32"}}, {"name": "dense_11/kernel", "shape": [512, 2], "dtype": "float32", "quantization": {"dtype": "uint16", "min": -0.1718445085520565, "scale": 5.310398904575293e-06, "original_dtype": "float32"}}, {"name": "dense_11/bias", "shape": [2], "dtype": "float32", "quantization": {"dtype": "uint16", "min": -0.20254417265626598, "scale": 6.204827149963728e-06, "original_dtype": "float32"}}, {"name": "dense_12/kernel", "shape": [41472, 512], "dtype": "float32", "quantization": {"dtype": "uint16", "min": -0.2000793810975609, "scale": 6.805652610550049e-06, "original_dtype": "float32"}}, {"name": "dense_12/bias", "shape": [512], "dtype": "float32", "quantization": {"dtype": "uint16", "min": -0.12054387990084303, "scale": 3.83836586215071e-06, "original_dtype": "float32"}}, {"name": "dense_13/kernel", "shape": [512, 2], "dtype": "float32", "quantization": {"dtype": "uint16", "min": -0.1659168934543773, "scale": 5.059521649570863e-06, "original_dtype": "float32"}}, {"name": "dense_13/bias", "shape": [2], "dtype": "float32", "quantization": {"dtype": "uint16", "min": -0.20422660829051006, "scale": 6.062115476580191e-06, "original_dtype": "float32"}}, {"name": "dense_2/kernel", "shape": [64, 7], "dtype": "float32", "quantization": {"dtype": "uint16", "min": -0.6286538033929435, "scale": 1.6234635833818235e-05, "original_dtype": "float32"}}, {"name": "dense_2/bias", "shape": [7], "dtype": "float32", "quantization": {"dtype": "uint16", "min": -0.17086894885438836, "scale": 4.8489967891023425e-06, "original_dtype": "float32"}}, {"name": "dense_3/kernel", "shape": [512, 512], "dtype": "float32", "quantization": {"dtype": "uint16", "min": -0.281560741313455, "scale": 7.903237560025122e-06, "original_dtype": "float32"}}, {"name": "dense_3/bias", "shape": [512], "dtype": "float32", "quantization": {"dtype": "uint16", "min": -7.684975214078502e-05, "scale": 2.632742450866222e-09, "original_dtype": "float32"}}, {"name": "dense_4/kernel", "shape": [512, 512], "dtype": "float32", "quantization": {"dtype": "uint16", "min": -0.026603504452472688, "scale": 9.63022785609871e-07, "original_dtype": "float32"}}, {"name": "dense_4/bias", "shape": [512], "dtype": "float32", "quantization": {"dtype": "uint16", "min": -0.0008707939920630191, "scale": 2.918993001015752e-08, "original_dtype": "float32"}}, {"name": "dense_5/kernel", "shape": [512, 5], "dtype": "float32", "quantization": {"dtype": "uint16", "min": -0.3191651604314177, "scale": 6.831007435982657e-06, "original_dtype": "float32"}}, {"name": "dense_5/bias", "shape": [5], "dtype": "float32", "quantization": {"dtype": "uint16", "min": -0.07588488562895902, "scale": 2.0818898663637594e-06, "original_dtype": "float32"}}, {"name": "dense_6/kernel", "shape": [41472, 512], "dtype": "float32", "quantization": {"dtype": "uint16", "min": -0.22610930460327194, "scale": 7.01766929246654e-06, "original_dtype": "float32"}}, {"name": "dense_6/bias", "shape": [512], "dtype": "float32", "quantization": {"dtype": "uint16", "min": -1.4334596871431176e-05, "scale": 4.3386896914044544e-10, "original_dtype": "float32"}}, {"name": "dense_7/kernel", "shape": [512, 2], "dtype": "float32", "quantization": {"dtype": "uint16", "min": -0.19306871400819342, "scale": 5.9819895897193934e-06, "original_dtype": "float32"}}, {"name": "dense_7/bias", "shape": [2], "dtype": "float32", "quantization": {"dtype": "uint16", "min": -0.03839353241036065, "scale": 1.1522668790624445e-06, "original_dtype": "float32"}}, {"name": "dense_8/kernel", "shape": [41472, 512], "dtype": "float32", "quantization": {"dtype": "uint16", "min": -0.03610861416747807, "scale": 1.1353482004615166e-06, "original_dtype": "float32"}}, {"name": "dense_8/bias", "shape": [512], "dtype": "float32", "quantization": {"dtype": "uint16", "min": -4.626310710193198e-05, "scale": 1.619573152526938e-09, "original_dtype": "float32"}}, {"name": "dense_9/kernel", "shape": [512, 4], "dtype": "float32", "quantization": {"dtype": "uint16", "min": -0.23704674088264607, "scale": 6.124447510209174e-06, "original_dtype": "float32"}}, {"name": "dense_9/bias", "shape": [4], "dtype": "float32", "quantization": {"dtype": "uint16", "min": -0.07928135327354188, "scale": 1.8364493125834908e-06, "original_dtype": "float32"}}]}]}