{"format": "layers-model", "generatedBy": "keras v2.8.0", "convertedBy": "TensorFlow.js Converter v3.20.0", "modelTopology": {"keras_version": "2.8.0", "backend": "tensorflow", "model_config": {"class_name": "Model", "config": {"name": "face_descriptor_by_rebeca", "layers": [{"class_name": "InputLayer", "config": {"batch_input_shape": [null, 218, 218, 3], "dtype": "float32", "sparse": false, "ragged": false, "name": "input_1"}, "name": "input_1", "inbound_nodes": []}, {"class_name": "Conv2D", "config": {"name": "conv2d_4", "trainable": true, "dtype": "float32", "filters": 16, "kernel_size": [3, 3], "strides": [1, 1], "padding": "same", "data_format": "channels_last", "dilation_rate": [1, 1], "groups": 1, "activation": "linear", "use_bias": true, "kernel_initializer": {"class_name": "GlorotUniform", "config": {"seed": null}}, "bias_initializer": {"class_name": "Zeros", "config": {}}, "kernel_regularizer": null, "bias_regularizer": null, "activity_regularizer": null, "kernel_constraint": null, "bias_constraint": null}, "name": "conv2d_4", "inbound_nodes": [[["input_1", 0, 0, {}]]]}, {"class_name": "Activation", "config": {"name": "activation_4", "trainable": true, "dtype": "float32", "activation": "relu"}, "name": "activation_4", "inbound_nodes": [[["conv2d_4", 0, 0, {}]]]}, {"class_name": "BatchNormalization", "config": {"name": "batch_normalization_4", "trainable": true, "dtype": "float32", "axis": [3], "momentum": 0.99, "epsilon": 0.001, "center": true, "scale": true, "beta_initializer": {"class_name": "Zeros", "config": {}}, "gamma_initializer": {"class_name": "Ones", "config": {}}, "moving_mean_initializer": {"class_name": "Zeros", "config": {}}, "moving_variance_initializer": {"class_name": "Ones", "config": {}}, "beta_regularizer": null, "gamma_regularizer": null, "beta_constraint": null, "gamma_constraint": null}, "name": "batch_normalization_4", "inbound_nodes": [[["activation_4", 0, 0, {}]]]}, {"class_name": "MaxPooling2D", "config": {"name": "max_pooling2d_4", "trainable": true, "dtype": "float32", "pool_size": [3, 3], "padding": "valid", "strides": [3, 3], "data_format": "channels_last"}, "name": "max_pooling2d_4", "inbound_nodes": [[["batch_normalization_4", 0, 0, {}]]]}, {"class_name": "Conv2D", "config": {"name": "conv2d", "trainable": true, "dtype": "float32", "filters": 16, "kernel_size": [3, 3], "strides": [1, 1], "padding": "same", "data_format": "channels_last", "dilation_rate": [1, 1], "groups": 1, "activation": "linear", "use_bias": true, "kernel_initializer": {"class_name": "GlorotUniform", "config": {"seed": null}}, "bias_initializer": {"class_name": "Zeros", "config": {}}, "kernel_regularizer": null, "bias_regularizer": null, "activity_regularizer": null, "kernel_constraint": null, "bias_constraint": null}, "name": "conv2d", "inbound_nodes": [[["input_1", 0, 0, {}]]]}, {"class_name": "Dropout", "config": {"name": "dropout_5", "trainable": true, "dtype": "float32", "rate": 0.25, "noise_shape": null, "seed": null}, "name": "dropout_5", "inbound_nodes": [[["max_pooling2d_4", 0, 0, {}]]]}, {"class_name": "Activation", "config": {"name": "activation", "trainable": true, "dtype": "float32", "activation": "relu"}, "name": "activation", "inbound_nodes": [[["conv2d", 0, 0, {}]]]}, {"class_name": "Conv2D", "config": {"name": "conv2d_5", "trainable": true, "dtype": "float32", "filters": 32, "kernel_size": [3, 3], "strides": [1, 1], "padding": "same", "data_format": "channels_last", "dilation_rate": [1, 1], "groups": 1, "activation": "linear", "use_bias": true, "kernel_initializer": {"class_name": "GlorotUniform", "config": {"seed": null}}, "bias_initializer": {"class_name": "Zeros", "config": {}}, "kernel_regularizer": null, "bias_regularizer": null, "activity_regularizer": null, "kernel_constraint": null, "bias_constraint": null}, "name": "conv2d_5", "inbound_nodes": [[["dropout_5", 0, 0, {}]]]}, {"class_name": "BatchNormalization", "config": {"name": "batch_normalization", "trainable": true, "dtype": "float32", "axis": [3], "momentum": 0.99, "epsilon": 0.001, "center": true, "scale": true, "beta_initializer": {"class_name": "Zeros", "config": {}}, "gamma_initializer": {"class_name": "Ones", "config": {}}, "moving_mean_initializer": {"class_name": "Zeros", "config": {}}, "moving_variance_initializer": {"class_name": "Ones", "config": {}}, "beta_regularizer": null, "gamma_regularizer": null, "beta_constraint": null, "gamma_constraint": null}, "name": "batch_normalization", "inbound_nodes": [[["activation", 0, 0, {}]]]}, {"class_name": "Activation", "config": {"name": "activation_5", "trainable": true, "dtype": "float32", "activation": "relu"}, "name": "activation_5", "inbound_nodes": [[["conv2d_5", 0, 0, {}]]]}, {"class_name": "MaxPooling2D", "config": {"name": "max_pooling2d", "trainable": true, "dtype": "float32", "pool_size": [3, 3], "padding": "valid", "strides": [3, 3], "data_format": "channels_last"}, "name": "max_pooling2d", "inbound_nodes": [[["batch_normalization", 0, 0, {}]]]}, {"class_name": "BatchNormalization", "config": {"name": "batch_normalization_5", "trainable": true, "dtype": "float32", "axis": [3], "momentum": 0.99, "epsilon": 0.001, "center": true, "scale": true, "beta_initializer": {"class_name": "Zeros", "config": {}}, "gamma_initializer": {"class_name": "Ones", "config": {}}, "moving_mean_initializer": {"class_name": "Zeros", "config": {}}, "moving_variance_initializer": {"class_name": "Ones", "config": {}}, "beta_regularizer": null, "gamma_regularizer": null, "beta_constraint": null, "gamma_constraint": null}, "name": "batch_normalization_5", "inbound_nodes": [[["activation_5", 0, 0, {}]]]}, {"class_name": "Conv2D", "config": {"name": "conv2d_9", "trainable": true, "dtype": "float32", "filters": 16, "kernel_size": [3, 3], "strides": [1, 1], "padding": "same", "data_format": "channels_last", "dilation_rate": [1, 1], "groups": 1, "activation": "linear", "use_bias": true, "kernel_initializer": {"class_name": "GlorotUniform", "config": {"seed": null}}, "bias_initializer": {"class_name": "Zeros", "config": {}}, "kernel_regularizer": null, "bias_regularizer": null, "activity_regularizer": null, "kernel_constraint": null, "bias_constraint": null}, "name": "conv2d_9", "inbound_nodes": [[["input_1", 0, 0, {}]]]}, {"class_name": "Conv2D", "config": {"name": "conv2d_12", "trainable": true, "dtype": "float32", "filters": 16, "kernel_size": [3, 3], "strides": [1, 1], "padding": "same", "data_format": "channels_last", "dilation_rate": [1, 1], "groups": 1, "activation": "linear", "use_bias": true, "kernel_initializer": {"class_name": "GlorotUniform", "config": {"seed": null}}, "bias_initializer": {"class_name": "Zeros", "config": {}}, "kernel_regularizer": null, "bias_regularizer": null, "activity_regularizer": null, "kernel_constraint": null, "bias_constraint": null}, "name": "conv2d_12", "inbound_nodes": [[["input_1", 0, 0, {}]]]}, {"class_name": "Conv2D", "config": {"name": "conv2d_15", "trainable": true, "dtype": "float32", "filters": 16, "kernel_size": [3, 3], "strides": [1, 1], "padding": "same", "data_format": "channels_last", "dilation_rate": [1, 1], "groups": 1, "activation": "linear", "use_bias": true, "kernel_initializer": {"class_name": "GlorotUniform", "config": {"seed": null}}, "bias_initializer": {"class_name": "Zeros", "config": {}}, "kernel_regularizer": null, "bias_regularizer": null, "activity_regularizer": null, "kernel_constraint": null, "bias_constraint": null}, "name": "conv2d_15", "inbound_nodes": [[["input_1", 0, 0, {}]]]}, {"class_name": "Conv2D", "config": {"name": "conv2d_18", "trainable": true, "dtype": "float32", "filters": 16, "kernel_size": [3, 3], "strides": [1, 1], "padding": "same", "data_format": "channels_last", "dilation_rate": [1, 1], "groups": 1, "activation": "linear", "use_bias": true, "kernel_initializer": {"class_name": "GlorotUniform", "config": {"seed": null}}, "bias_initializer": {"class_name": "Zeros", "config": {}}, "kernel_regularizer": null, "bias_regularizer": null, "activity_regularizer": null, "kernel_constraint": null, "bias_constraint": null}, "name": "conv2d_18", "inbound_nodes": [[["input_1", 0, 0, {}]]]}, {"class_name": "Dropout", "config": {"name": "dropout", "trainable": true, "dtype": "float32", "rate": 0.25, "noise_shape": null, "seed": null}, "name": "dropout", "inbound_nodes": [[["max_pooling2d", 0, 0, {}]]]}, {"class_name": "MaxPooling2D", "config": {"name": "max_pooling2d_5", "trainable": true, "dtype": "float32", "pool_size": [2, 2], "padding": "valid", "strides": [2, 2], "data_format": "channels_last"}, "name": "max_pooling2d_5", "inbound_nodes": [[["batch_normalization_5", 0, 0, {}]]]}, {"class_name": "Activation", "config": {"name": "activation_8", "trainable": true, "dtype": "float32", "activation": "relu"}, "name": "activation_8", "inbound_nodes": [[["conv2d_9", 0, 0, {}]]]}, {"class_name": "Activation", "config": {"name": "activation_12", "trainable": true, "dtype": "float32", "activation": "relu"}, "name": "activation_12", "inbound_nodes": [[["conv2d_12", 0, 0, {}]]]}, {"class_name": "Activation", "config": {"name": "activation_16", "trainable": true, "dtype": "float32", "activation": "relu"}, "name": "activation_16", "inbound_nodes": [[["conv2d_15", 0, 0, {}]]]}, {"class_name": "Activation", "config": {"name": "activation_20", "trainable": true, "dtype": "float32", "activation": "relu"}, "name": "activation_20", "inbound_nodes": [[["conv2d_18", 0, 0, {}]]]}, {"class_name": "Conv2D", "config": {"name": "conv2d_1", "trainable": true, "dtype": "float32", "filters": 32, "kernel_size": [3, 3], "strides": [1, 1], "padding": "same", "data_format": "channels_last", "dilation_rate": [1, 1], "groups": 1, "activation": "linear", "use_bias": true, "kernel_initializer": {"class_name": "GlorotUniform", "config": {"seed": null}}, "bias_initializer": {"class_name": "Zeros", "config": {}}, "kernel_regularizer": null, "bias_regularizer": null, "activity_regularizer": null, "kernel_constraint": null, "bias_constraint": null}, "name": "conv2d_1", "inbound_nodes": [[["dropout", 0, 0, {}]]]}, {"class_name": "Dropout", "config": {"name": "dropout_6", "trainable": true, "dtype": "float32", "rate": 0.25, "noise_shape": null, "seed": null}, "name": "dropout_6", "inbound_nodes": [[["max_pooling2d_5", 0, 0, {}]]]}, {"class_name": "BatchNormalization", "config": {"name": "batch_normalization_9", "trainable": true, "dtype": "float32", "axis": [3], "momentum": 0.99, "epsilon": 0.001, "center": true, "scale": true, "beta_initializer": {"class_name": "Zeros", "config": {}}, "gamma_initializer": {"class_name": "Ones", "config": {}}, "moving_mean_initializer": {"class_name": "Zeros", "config": {}}, "moving_variance_initializer": {"class_name": "Ones", "config": {}}, "beta_regularizer": null, "gamma_regularizer": null, "beta_constraint": null, "gamma_constraint": null}, "name": "batch_normalization_9", "inbound_nodes": [[["activation_8", 0, 0, {}]]]}, {"class_name": "BatchNormalization", "config": {"name": "batch_normalization_13", "trainable": true, "dtype": "float32", "axis": [3], "momentum": 0.99, "epsilon": 0.001, "center": true, "scale": true, "beta_initializer": {"class_name": "Zeros", "config": {}}, "gamma_initializer": {"class_name": "Ones", "config": {}}, "moving_mean_initializer": {"class_name": "Zeros", "config": {}}, "moving_variance_initializer": {"class_name": "Ones", "config": {}}, "beta_regularizer": null, "gamma_regularizer": null, "beta_constraint": null, "gamma_constraint": null}, "name": "batch_normalization_13", "inbound_nodes": [[["activation_12", 0, 0, {}]]]}, {"class_name": "BatchNormalization", "config": {"name": "batch_normalization_17", "trainable": true, "dtype": "float32", "axis": [3], "momentum": 0.99, "epsilon": 0.001, "center": true, "scale": true, "beta_initializer": {"class_name": "Zeros", "config": {}}, "gamma_initializer": {"class_name": "Ones", "config": {}}, "moving_mean_initializer": {"class_name": "Zeros", "config": {}}, "moving_variance_initializer": {"class_name": "Ones", "config": {}}, "beta_regularizer": null, "gamma_regularizer": null, "beta_constraint": null, "gamma_constraint": null}, "name": "batch_normalization_17", "inbound_nodes": [[["activation_16", 0, 0, {}]]]}, {"class_name": "BatchNormalization", "config": {"name": "batch_normalization_21", "trainable": true, "dtype": "float32", "axis": [3], "momentum": 0.99, "epsilon": 0.001, "center": true, "scale": true, "beta_initializer": {"class_name": "Zeros", "config": {}}, "gamma_initializer": {"class_name": "Ones", "config": {}}, "moving_mean_initializer": {"class_name": "Zeros", "config": {}}, "moving_variance_initializer": {"class_name": "Ones", "config": {}}, "beta_regularizer": null, "gamma_regularizer": null, "beta_constraint": null, "gamma_constraint": null}, "name": "batch_normalization_21", "inbound_nodes": [[["activation_20", 0, 0, {}]]]}, {"class_name": "Activation", "config": {"name": "activation_1", "trainable": true, "dtype": "float32", "activation": "relu"}, "name": "activation_1", "inbound_nodes": [[["conv2d_1", 0, 0, {}]]]}, {"class_name": "Conv2D", "config": {"name": "conv2d_6", "trainable": true, "dtype": "float32", "filters": 64, "kernel_size": [3, 3], "strides": [1, 1], "padding": "same", "data_format": "channels_last", "dilation_rate": [1, 1], "groups": 1, "activation": "linear", "use_bias": true, "kernel_initializer": {"class_name": "GlorotUniform", "config": {"seed": null}}, "bias_initializer": {"class_name": "Zeros", "config": {}}, "kernel_regularizer": null, "bias_regularizer": null, "activity_regularizer": null, "kernel_constraint": null, "bias_constraint": null}, "name": "conv2d_6", "inbound_nodes": [[["dropout_6", 0, 0, {}]]]}, {"class_name": "MaxPooling2D", "config": {"name": "max_pooling2d_9", "trainable": true, "dtype": "float32", "pool_size": [3, 3], "padding": "valid", "strides": [3, 3], "data_format": "channels_last"}, "name": "max_pooling2d_9", "inbound_nodes": [[["batch_normalization_9", 0, 0, {}]]]}, {"class_name": "MaxPooling2D", "config": {"name": "max_pooling2d_12", "trainable": true, "dtype": "float32", "pool_size": [3, 3], "padding": "valid", "strides": [3, 3], "data_format": "channels_last"}, "name": "max_pooling2d_12", "inbound_nodes": [[["batch_normalization_13", 0, 0, {}]]]}, {"class_name": "MaxPooling2D", "config": {"name": "max_pooling2d_15", "trainable": true, "dtype": "float32", "pool_size": [3, 3], "padding": "valid", "strides": [3, 3], "data_format": "channels_last"}, "name": "max_pooling2d_15", "inbound_nodes": [[["batch_normalization_17", 0, 0, {}]]]}, {"class_name": "MaxPooling2D", "config": {"name": "max_pooling2d_18", "trainable": true, "dtype": "float32", "pool_size": [3, 3], "padding": "valid", "strides": [3, 3], "data_format": "channels_last"}, "name": "max_pooling2d_18", "inbound_nodes": [[["batch_normalization_21", 0, 0, {}]]]}, {"class_name": "BatchNormalization", "config": {"name": "batch_normalization_1", "trainable": true, "dtype": "float32", "axis": [3], "momentum": 0.99, "epsilon": 0.001, "center": true, "scale": true, "beta_initializer": {"class_name": "Zeros", "config": {}}, "gamma_initializer": {"class_name": "Ones", "config": {}}, "moving_mean_initializer": {"class_name": "Zeros", "config": {}}, "moving_variance_initializer": {"class_name": "Ones", "config": {}}, "beta_regularizer": null, "gamma_regularizer": null, "beta_constraint": null, "gamma_constraint": null}, "name": "batch_normalization_1", "inbound_nodes": [[["activation_1", 0, 0, {}]]]}, {"class_name": "Activation", "config": {"name": "activation_6", "trainable": true, "dtype": "float32", "activation": "relu"}, "name": "activation_6", "inbound_nodes": [[["conv2d_6", 0, 0, {}]]]}, {"class_name": "Dropout", "config": {"name": "dropout_11", "trainable": true, "dtype": "float32", "rate": 0.25, "noise_shape": null, "seed": null}, "name": "dropout_11", "inbound_nodes": [[["max_pooling2d_9", 0, 0, {}]]]}, {"class_name": "Dropout", "config": {"name": "dropout_15", "trainable": true, "dtype": "float32", "rate": 0.25, "noise_shape": null, "seed": null}, "name": "dropout_15", "inbound_nodes": [[["max_pooling2d_12", 0, 0, {}]]]}, {"class_name": "Dropout", "config": {"name": "dropout_19", "trainable": true, "dtype": "float32", "rate": 0.25, "noise_shape": null, "seed": null}, "name": "dropout_19", "inbound_nodes": [[["max_pooling2d_15", 0, 0, {}]]]}, {"class_name": "Dropout", "config": {"name": "dropout_23", "trainable": true, "dtype": "float32", "rate": 0.25, "noise_shape": null, "seed": null}, "name": "dropout_23", "inbound_nodes": [[["max_pooling2d_18", 0, 0, {}]]]}, {"class_name": "MaxPooling2D", "config": {"name": "max_pooling2d_1", "trainable": true, "dtype": "float32", "pool_size": [2, 2], "padding": "valid", "strides": [2, 2], "data_format": "channels_last"}, "name": "max_pooling2d_1", "inbound_nodes": [[["batch_normalization_1", 0, 0, {}]]]}, {"class_name": "BatchNormalization", "config": {"name": "batch_normalization_6", "trainable": true, "dtype": "float32", "axis": [3], "momentum": 0.99, "epsilon": 0.001, "center": true, "scale": true, "beta_initializer": {"class_name": "Zeros", "config": {}}, "gamma_initializer": {"class_name": "Ones", "config": {}}, "moving_mean_initializer": {"class_name": "Zeros", "config": {}}, "moving_variance_initializer": {"class_name": "Ones", "config": {}}, "beta_regularizer": null, "gamma_regularizer": null, "beta_constraint": null, "gamma_constraint": null}, "name": "batch_normalization_6", "inbound_nodes": [[["activation_6", 0, 0, {}]]]}, {"class_name": "Conv2D", "config": {"name": "conv2d_10", "trainable": true, "dtype": "float32", "filters": 32, "kernel_size": [3, 3], "strides": [1, 1], "padding": "same", "data_format": "channels_last", "dilation_rate": [1, 1], "groups": 1, "activation": "linear", "use_bias": true, "kernel_initializer": {"class_name": "GlorotUniform", "config": {"seed": null}}, "bias_initializer": {"class_name": "Zeros", "config": {}}, "kernel_regularizer": null, "bias_regularizer": null, "activity_regularizer": null, "kernel_constraint": null, "bias_constraint": null}, "name": "conv2d_10", "inbound_nodes": [[["dropout_11", 0, 0, {}]]]}, {"class_name": "Conv2D", "config": {"name": "conv2d_13", "trainable": true, "dtype": "float32", "filters": 32, "kernel_size": [3, 3], "strides": [1, 1], "padding": "same", "data_format": "channels_last", "dilation_rate": [1, 1], "groups": 1, "activation": "linear", "use_bias": true, "kernel_initializer": {"class_name": "GlorotUniform", "config": {"seed": null}}, "bias_initializer": {"class_name": "Zeros", "config": {}}, "kernel_regularizer": null, "bias_regularizer": null, "activity_regularizer": null, "kernel_constraint": null, "bias_constraint": null}, "name": "conv2d_13", "inbound_nodes": [[["dropout_15", 0, 0, {}]]]}, {"class_name": "Conv2D", "config": {"name": "conv2d_16", "trainable": true, "dtype": "float32", "filters": 32, "kernel_size": [3, 3], "strides": [1, 1], "padding": "same", "data_format": "channels_last", "dilation_rate": [1, 1], "groups": 1, "activation": "linear", "use_bias": true, "kernel_initializer": {"class_name": "GlorotUniform", "config": {"seed": null}}, "bias_initializer": {"class_name": "Zeros", "config": {}}, "kernel_regularizer": null, "bias_regularizer": null, "activity_regularizer": null, "kernel_constraint": null, "bias_constraint": null}, "name": "conv2d_16", "inbound_nodes": [[["dropout_19", 0, 0, {}]]]}, {"class_name": "Conv2D", "config": {"name": "conv2d_19", "trainable": true, "dtype": "float32", "filters": 32, "kernel_size": [3, 3], "strides": [1, 1], "padding": "same", "data_format": "channels_last", "dilation_rate": [1, 1], "groups": 1, "activation": "linear", "use_bias": true, "kernel_initializer": {"class_name": "GlorotUniform", "config": {"seed": null}}, "bias_initializer": {"class_name": "Zeros", "config": {}}, "kernel_regularizer": null, "bias_regularizer": null, "activity_regularizer": null, "kernel_constraint": null, "bias_constraint": null}, "name": "conv2d_19", "inbound_nodes": [[["dropout_23", 0, 0, {}]]]}, {"class_name": "Dropout", "config": {"name": "dropout_1", "trainable": true, "dtype": "float32", "rate": 0.25, "noise_shape": null, "seed": null}, "name": "dropout_1", "inbound_nodes": [[["max_pooling2d_1", 0, 0, {}]]]}, {"class_name": "MaxPooling2D", "config": {"name": "max_pooling2d_6", "trainable": true, "dtype": "float32", "pool_size": [2, 2], "padding": "valid", "strides": [2, 2], "data_format": "channels_last"}, "name": "max_pooling2d_6", "inbound_nodes": [[["batch_normalization_6", 0, 0, {}]]]}, {"class_name": "Activation", "config": {"name": "activation_9", "trainable": true, "dtype": "float32", "activation": "relu"}, "name": "activation_9", "inbound_nodes": [[["conv2d_10", 0, 0, {}]]]}, {"class_name": "Activation", "config": {"name": "activation_13", "trainable": true, "dtype": "float32", "activation": "relu"}, "name": "activation_13", "inbound_nodes": [[["conv2d_13", 0, 0, {}]]]}, {"class_name": "Activation", "config": {"name": "activation_17", "trainable": true, "dtype": "float32", "activation": "relu"}, "name": "activation_17", "inbound_nodes": [[["conv2d_16", 0, 0, {}]]]}, {"class_name": "Activation", "config": {"name": "activation_21", "trainable": true, "dtype": "float32", "activation": "relu"}, "name": "activation_21", "inbound_nodes": [[["conv2d_19", 0, 0, {}]]]}, {"class_name": "Conv2D", "config": {"name": "conv2d_2", "trainable": true, "dtype": "float32", "filters": 64, "kernel_size": [3, 3], "strides": [1, 1], "padding": "same", "data_format": "channels_last", "dilation_rate": [1, 1], "groups": 1, "activation": "linear", "use_bias": true, "kernel_initializer": {"class_name": "GlorotUniform", "config": {"seed": null}}, "bias_initializer": {"class_name": "Zeros", "config": {}}, "kernel_regularizer": null, "bias_regularizer": null, "activity_regularizer": null, "kernel_constraint": null, "bias_constraint": null}, "name": "conv2d_2", "inbound_nodes": [[["dropout_1", 0, 0, {}]]]}, {"class_name": "Dropout", "config": {"name": "dropout_7", "trainable": true, "dtype": "float32", "rate": 0.25, "noise_shape": null, "seed": null}, "name": "dropout_7", "inbound_nodes": [[["max_pooling2d_6", 0, 0, {}]]]}, {"class_name": "BatchNormalization", "config": {"name": "batch_normalization_10", "trainable": true, "dtype": "float32", "axis": [3], "momentum": 0.99, "epsilon": 0.001, "center": true, "scale": true, "beta_initializer": {"class_name": "Zeros", "config": {}}, "gamma_initializer": {"class_name": "Ones", "config": {}}, "moving_mean_initializer": {"class_name": "Zeros", "config": {}}, "moving_variance_initializer": {"class_name": "Ones", "config": {}}, "beta_regularizer": null, "gamma_regularizer": null, "beta_constraint": null, "gamma_constraint": null}, "name": "batch_normalization_10", "inbound_nodes": [[["activation_9", 0, 0, {}]]]}, {"class_name": "BatchNormalization", "config": {"name": "batch_normalization_14", "trainable": true, "dtype": "float32", "axis": [3], "momentum": 0.99, "epsilon": 0.001, "center": true, "scale": true, "beta_initializer": {"class_name": "Zeros", "config": {}}, "gamma_initializer": {"class_name": "Ones", "config": {}}, "moving_mean_initializer": {"class_name": "Zeros", "config": {}}, "moving_variance_initializer": {"class_name": "Ones", "config": {}}, "beta_regularizer": null, "gamma_regularizer": null, "beta_constraint": null, "gamma_constraint": null}, "name": "batch_normalization_14", "inbound_nodes": [[["activation_13", 0, 0, {}]]]}, {"class_name": "BatchNormalization", "config": {"name": "batch_normalization_18", "trainable": true, "dtype": "float32", "axis": [3], "momentum": 0.99, "epsilon": 0.001, "center": true, "scale": true, "beta_initializer": {"class_name": "Zeros", "config": {}}, "gamma_initializer": {"class_name": "Ones", "config": {}}, "moving_mean_initializer": {"class_name": "Zeros", "config": {}}, "moving_variance_initializer": {"class_name": "Ones", "config": {}}, "beta_regularizer": null, "gamma_regularizer": null, "beta_constraint": null, "gamma_constraint": null}, "name": "batch_normalization_18", "inbound_nodes": [[["activation_17", 0, 0, {}]]]}, {"class_name": "BatchNormalization", "config": {"name": "batch_normalization_22", "trainable": true, "dtype": "float32", "axis": [3], "momentum": 0.99, "epsilon": 0.001, "center": true, "scale": true, "beta_initializer": {"class_name": "Zeros", "config": {}}, "gamma_initializer": {"class_name": "Ones", "config": {}}, "moving_mean_initializer": {"class_name": "Zeros", "config": {}}, "moving_variance_initializer": {"class_name": "Ones", "config": {}}, "beta_regularizer": null, "gamma_regularizer": null, "beta_constraint": null, "gamma_constraint": null}, "name": "batch_normalization_22", "inbound_nodes": [[["activation_21", 0, 0, {}]]]}, {"class_name": "Activation", "config": {"name": "activation_2", "trainable": true, "dtype": "float32", "activation": "relu"}, "name": "activation_2", "inbound_nodes": [[["conv2d_2", 0, 0, {}]]]}, {"class_name": "Conv2D", "config": {"name": "conv2d_7", "trainable": true, "dtype": "float32", "filters": 128, "kernel_size": [3, 3], "strides": [1, 1], "padding": "same", "data_format": "channels_last", "dilation_rate": [1, 1], "groups": 1, "activation": "relu", "use_bias": true, "kernel_initializer": {"class_name": "GlorotUniform", "config": {"seed": null}}, "bias_initializer": {"class_name": "Zeros", "config": {}}, "kernel_regularizer": null, "bias_regularizer": null, "activity_regularizer": null, "kernel_constraint": null, "bias_constraint": null}, "name": "conv2d_7", "inbound_nodes": [[["dropout_7", 0, 0, {}]]]}, {"class_name": "MaxPooling2D", "config": {"name": "max_pooling2d_10", "trainable": true, "dtype": "float32", "pool_size": [2, 2], "padding": "valid", "strides": [2, 2], "data_format": "channels_last"}, "name": "max_pooling2d_10", "inbound_nodes": [[["batch_normalization_10", 0, 0, {}]]]}, {"class_name": "MaxPooling2D", "config": {"name": "max_pooling2d_13", "trainable": true, "dtype": "float32", "pool_size": [2, 2], "padding": "valid", "strides": [2, 2], "data_format": "channels_last"}, "name": "max_pooling2d_13", "inbound_nodes": [[["batch_normalization_14", 0, 0, {}]]]}, {"class_name": "MaxPooling2D", "config": {"name": "max_pooling2d_16", "trainable": true, "dtype": "float32", "pool_size": [2, 2], "padding": "valid", "strides": [2, 2], "data_format": "channels_last"}, "name": "max_pooling2d_16", "inbound_nodes": [[["batch_normalization_18", 0, 0, {}]]]}, {"class_name": "MaxPooling2D", "config": {"name": "max_pooling2d_19", "trainable": true, "dtype": "float32", "pool_size": [2, 2], "padding": "valid", "strides": [2, 2], "data_format": "channels_last"}, "name": "max_pooling2d_19", "inbound_nodes": [[["batch_normalization_22", 0, 0, {}]]]}, {"class_name": "BatchNormalization", "config": {"name": "batch_normalization_2", "trainable": true, "dtype": "float32", "axis": [3], "momentum": 0.99, "epsilon": 0.001, "center": true, "scale": true, "beta_initializer": {"class_name": "Zeros", "config": {}}, "gamma_initializer": {"class_name": "Ones", "config": {}}, "moving_mean_initializer": {"class_name": "Zeros", "config": {}}, "moving_variance_initializer": {"class_name": "Ones", "config": {}}, "beta_regularizer": null, "gamma_regularizer": null, "beta_constraint": null, "gamma_constraint": null}, "name": "batch_normalization_2", "inbound_nodes": [[["activation_2", 0, 0, {}]]]}, {"class_name": "BatchNormalization", "config": {"name": "batch_normalization_7", "trainable": true, "dtype": "float32", "axis": [3], "momentum": 0.99, "epsilon": 0.001, "center": true, "scale": true, "beta_initializer": {"class_name": "Zeros", "config": {}}, "gamma_initializer": {"class_name": "Ones", "config": {}}, "moving_mean_initializer": {"class_name": "Zeros", "config": {}}, "moving_variance_initializer": {"class_name": "Ones", "config": {}}, "beta_regularizer": null, "gamma_regularizer": null, "beta_constraint": null, "gamma_constraint": null}, "name": "batch_normalization_7", "inbound_nodes": [[["conv2d_7", 0, 0, {}]]]}, {"class_name": "Dropout", "config": {"name": "dropout_12", "trainable": true, "dtype": "float32", "rate": 0.25, "noise_shape": null, "seed": null}, "name": "dropout_12", "inbound_nodes": [[["max_pooling2d_10", 0, 0, {}]]]}, {"class_name": "Dropout", "config": {"name": "dropout_16", "trainable": true, "dtype": "float32", "rate": 0.25, "noise_shape": null, "seed": null}, "name": "dropout_16", "inbound_nodes": [[["max_pooling2d_13", 0, 0, {}]]]}, {"class_name": "Dropout", "config": {"name": "dropout_20", "trainable": true, "dtype": "float32", "rate": 0.25, "noise_shape": null, "seed": null}, "name": "dropout_20", "inbound_nodes": [[["max_pooling2d_16", 0, 0, {}]]]}, {"class_name": "Dropout", "config": {"name": "dropout_24", "trainable": true, "dtype": "float32", "rate": 0.25, "noise_shape": null, "seed": null}, "name": "dropout_24", "inbound_nodes": [[["max_pooling2d_19", 0, 0, {}]]]}, {"class_name": "MaxPooling2D", "config": {"name": "max_pooling2d_2", "trainable": true, "dtype": "float32", "pool_size": [2, 2], "padding": "valid", "strides": [2, 2], "data_format": "channels_last"}, "name": "max_pooling2d_2", "inbound_nodes": [[["batch_normalization_2", 0, 0, {}]]]}, {"class_name": "MaxPooling2D", "config": {"name": "max_pooling2d_7", "trainable": true, "dtype": "float32", "pool_size": [2, 2], "padding": "valid", "strides": [2, 2], "data_format": "channels_last"}, "name": "max_pooling2d_7", "inbound_nodes": [[["batch_normalization_7", 0, 0, {}]]]}, {"class_name": "Conv2D", "config": {"name": "conv2d_11", "trainable": true, "dtype": "float32", "filters": 64, "kernel_size": [3, 3], "strides": [1, 1], "padding": "same", "data_format": "channels_last", "dilation_rate": [1, 1], "groups": 1, "activation": "linear", "use_bias": true, "kernel_initializer": {"class_name": "GlorotUniform", "config": {"seed": null}}, "bias_initializer": {"class_name": "Zeros", "config": {}}, "kernel_regularizer": null, "bias_regularizer": null, "activity_regularizer": null, "kernel_constraint": null, "bias_constraint": null}, "name": "conv2d_11", "inbound_nodes": [[["dropout_12", 0, 0, {}]]]}, {"class_name": "Conv2D", "config": {"name": "conv2d_14", "trainable": true, "dtype": "float32", "filters": 64, "kernel_size": [3, 3], "strides": [1, 1], "padding": "same", "data_format": "channels_last", "dilation_rate": [1, 1], "groups": 1, "activation": "linear", "use_bias": true, "kernel_initializer": {"class_name": "GlorotUniform", "config": {"seed": null}}, "bias_initializer": {"class_name": "Zeros", "config": {}}, "kernel_regularizer": null, "bias_regularizer": null, "activity_regularizer": null, "kernel_constraint": null, "bias_constraint": null}, "name": "conv2d_14", "inbound_nodes": [[["dropout_16", 0, 0, {}]]]}, {"class_name": "Conv2D", "config": {"name": "conv2d_17", "trainable": true, "dtype": "float32", "filters": 64, "kernel_size": [3, 3], "strides": [1, 1], "padding": "same", "data_format": "channels_last", "dilation_rate": [1, 1], "groups": 1, "activation": "linear", "use_bias": true, "kernel_initializer": {"class_name": "GlorotUniform", "config": {"seed": null}}, "bias_initializer": {"class_name": "Zeros", "config": {}}, "kernel_regularizer": null, "bias_regularizer": null, "activity_regularizer": null, "kernel_constraint": null, "bias_constraint": null}, "name": "conv2d_17", "inbound_nodes": [[["dropout_20", 0, 0, {}]]]}, {"class_name": "Conv2D", "config": {"name": "conv2d_20", "trainable": true, "dtype": "float32", "filters": 64, "kernel_size": [3, 3], "strides": [1, 1], "padding": "same", "data_format": "channels_last", "dilation_rate": [1, 1], "groups": 1, "activation": "linear", "use_bias": true, "kernel_initializer": {"class_name": "GlorotUniform", "config": {"seed": null}}, "bias_initializer": {"class_name": "Zeros", "config": {}}, "kernel_regularizer": null, "bias_regularizer": null, "activity_regularizer": null, "kernel_constraint": null, "bias_constraint": null}, "name": "conv2d_20", "inbound_nodes": [[["dropout_24", 0, 0, {}]]]}, {"class_name": "Dropout", "config": {"name": "dropout_2", "trainable": true, "dtype": "float32", "rate": 0.25, "noise_shape": null, "seed": null}, "name": "dropout_2", "inbound_nodes": [[["max_pooling2d_2", 0, 0, {}]]]}, {"class_name": "Dropout", "config": {"name": "dropout_8", "trainable": true, "dtype": "float32", "rate": 0.2, "noise_shape": null, "seed": null}, "name": "dropout_8", "inbound_nodes": [[["max_pooling2d_7", 0, 0, {}]]]}, {"class_name": "Activation", "config": {"name": "activation_10", "trainable": true, "dtype": "float32", "activation": "relu"}, "name": "activation_10", "inbound_nodes": [[["conv2d_11", 0, 0, {}]]]}, {"class_name": "Activation", "config": {"name": "activation_14", "trainable": true, "dtype": "float32", "activation": "relu"}, "name": "activation_14", "inbound_nodes": [[["conv2d_14", 0, 0, {}]]]}, {"class_name": "Activation", "config": {"name": "activation_18", "trainable": true, "dtype": "float32", "activation": "relu"}, "name": "activation_18", "inbound_nodes": [[["conv2d_17", 0, 0, {}]]]}, {"class_name": "Activation", "config": {"name": "activation_22", "trainable": true, "dtype": "float32", "activation": "relu"}, "name": "activation_22", "inbound_nodes": [[["conv2d_20", 0, 0, {}]]]}, {"class_name": "Conv2D", "config": {"name": "conv2d_3", "trainable": true, "dtype": "float32", "filters": 256, "kernel_size": [3, 3], "strides": [1, 1], "padding": "same", "data_format": "channels_last", "dilation_rate": [1, 1], "groups": 1, "activation": "relu", "use_bias": true, "kernel_initializer": {"class_name": "GlorotUniform", "config": {"seed": null}}, "bias_initializer": {"class_name": "Zeros", "config": {}}, "kernel_regularizer": null, "bias_regularizer": null, "activity_regularizer": null, "kernel_constraint": null, "bias_constraint": null}, "name": "conv2d_3", "inbound_nodes": [[["dropout_2", 0, 0, {}]]]}, {"class_name": "Conv2D", "config": {"name": "conv2d_8", "trainable": true, "dtype": "float32", "filters": 256, "kernel_size": [3, 3], "strides": [1, 1], "padding": "same", "data_format": "channels_last", "dilation_rate": [1, 1], "groups": 1, "activation": "relu", "use_bias": true, "kernel_initializer": {"class_name": "GlorotUniform", "config": {"seed": null}}, "bias_initializer": {"class_name": "Zeros", "config": {}}, "kernel_regularizer": null, "bias_regularizer": null, "activity_regularizer": null, "kernel_constraint": null, "bias_constraint": null}, "name": "conv2d_8", "inbound_nodes": [[["dropout_8", 0, 0, {}]]]}, {"class_name": "BatchNormalization", "config": {"name": "batch_normalization_11", "trainable": true, "dtype": "float32", "axis": [3], "momentum": 0.99, "epsilon": 0.001, "center": true, "scale": true, "beta_initializer": {"class_name": "Zeros", "config": {}}, "gamma_initializer": {"class_name": "Ones", "config": {}}, "moving_mean_initializer": {"class_name": "Zeros", "config": {}}, "moving_variance_initializer": {"class_name": "Ones", "config": {}}, "beta_regularizer": null, "gamma_regularizer": null, "beta_constraint": null, "gamma_constraint": null}, "name": "batch_normalization_11", "inbound_nodes": [[["activation_10", 0, 0, {}]]]}, {"class_name": "BatchNormalization", "config": {"name": "batch_normalization_15", "trainable": true, "dtype": "float32", "axis": [3], "momentum": 0.99, "epsilon": 0.001, "center": true, "scale": true, "beta_initializer": {"class_name": "Zeros", "config": {}}, "gamma_initializer": {"class_name": "Ones", "config": {}}, "moving_mean_initializer": {"class_name": "Zeros", "config": {}}, "moving_variance_initializer": {"class_name": "Ones", "config": {}}, "beta_regularizer": null, "gamma_regularizer": null, "beta_constraint": null, "gamma_constraint": null}, "name": "batch_normalization_15", "inbound_nodes": [[["activation_14", 0, 0, {}]]]}, {"class_name": "BatchNormalization", "config": {"name": "batch_normalization_19", "trainable": true, "dtype": "float32", "axis": [3], "momentum": 0.99, "epsilon": 0.001, "center": true, "scale": true, "beta_initializer": {"class_name": "Zeros", "config": {}}, "gamma_initializer": {"class_name": "Ones", "config": {}}, "moving_mean_initializer": {"class_name": "Zeros", "config": {}}, "moving_variance_initializer": {"class_name": "Ones", "config": {}}, "beta_regularizer": null, "gamma_regularizer": null, "beta_constraint": null, "gamma_constraint": null}, "name": "batch_normalization_19", "inbound_nodes": [[["activation_18", 0, 0, {}]]]}, {"class_name": "BatchNormalization", "config": {"name": "batch_normalization_23", "trainable": true, "dtype": "float32", "axis": [3], "momentum": 0.99, "epsilon": 0.001, "center": true, "scale": true, "beta_initializer": {"class_name": "Zeros", "config": {}}, "gamma_initializer": {"class_name": "Ones", "config": {}}, "moving_mean_initializer": {"class_name": "Zeros", "config": {}}, "moving_variance_initializer": {"class_name": "Ones", "config": {}}, "beta_regularizer": null, "gamma_regularizer": null, "beta_constraint": null, "gamma_constraint": null}, "name": "batch_normalization_23", "inbound_nodes": [[["activation_22", 0, 0, {}]]]}, {"class_name": "MaxPooling2D", "config": {"name": "max_pooling2d_3", "trainable": true, "dtype": "float32", "pool_size": [2, 2], "padding": "valid", "strides": [2, 2], "data_format": "channels_last"}, "name": "max_pooling2d_3", "inbound_nodes": [[["conv2d_3", 0, 0, {}]]]}, {"class_name": "MaxPooling2D", "config": {"name": "max_pooling2d_8", "trainable": true, "dtype": "float32", "pool_size": [2, 2], "padding": "valid", "strides": [2, 2], "data_format": "channels_last"}, "name": "max_pooling2d_8", "inbound_nodes": [[["conv2d_8", 0, 0, {}]]]}, {"class_name": "MaxPooling2D", "config": {"name": "max_pooling2d_11", "trainable": true, "dtype": "float32", "pool_size": [2, 2], "padding": "valid", "strides": [2, 2], "data_format": "channels_last"}, "name": "max_pooling2d_11", "inbound_nodes": [[["batch_normalization_11", 0, 0, {}]]]}, {"class_name": "MaxPooling2D", "config": {"name": "max_pooling2d_14", "trainable": true, "dtype": "float32", "pool_size": [2, 2], "padding": "valid", "strides": [2, 2], "data_format": "channels_last"}, "name": "max_pooling2d_14", "inbound_nodes": [[["batch_normalization_15", 0, 0, {}]]]}, {"class_name": "MaxPooling2D", "config": {"name": "max_pooling2d_17", "trainable": true, "dtype": "float32", "pool_size": [2, 2], "padding": "valid", "strides": [2, 2], "data_format": "channels_last"}, "name": "max_pooling2d_17", "inbound_nodes": [[["batch_normalization_19", 0, 0, {}]]]}, {"class_name": "MaxPooling2D", "config": {"name": "max_pooling2d_20", "trainable": true, "dtype": "float32", "pool_size": [2, 2], "padding": "valid", "strides": [2, 2], "data_format": "channels_last"}, "name": "max_pooling2d_20", "inbound_nodes": [[["batch_normalization_23", 0, 0, {}]]]}, {"class_name": "Dropout", "config": {"name": "dropout_3", "trainable": true, "dtype": "float32", "rate": 0.2, "noise_shape": null, "seed": null}, "name": "dropout_3", "inbound_nodes": [[["max_pooling2d_3", 0, 0, {}]]]}, {"class_name": "Dropout", "config": {"name": "dropout_9", "trainable": true, "dtype": "float32", "rate": 0.2, "noise_shape": null, "seed": null}, "name": "dropout_9", "inbound_nodes": [[["max_pooling2d_8", 0, 0, {}]]]}, {"class_name": "Dropout", "config": {"name": "dropout_13", "trainable": true, "dtype": "float32", "rate": 0.25, "noise_shape": null, "seed": null}, "name": "dropout_13", "inbound_nodes": [[["max_pooling2d_11", 0, 0, {}]]]}, {"class_name": "Dropout", "config": {"name": "dropout_17", "trainable": true, "dtype": "float32", "rate": 0.25, "noise_shape": null, "seed": null}, "name": "dropout_17", "inbound_nodes": [[["max_pooling2d_14", 0, 0, {}]]]}, {"class_name": "Dropout", "config": {"name": "dropout_21", "trainable": true, "dtype": "float32", "rate": 0.25, "noise_shape": null, "seed": null}, "name": "dropout_21", "inbound_nodes": [[["max_pooling2d_17", 0, 0, {}]]]}, {"class_name": "Dropout", "config": {"name": "dropout_25", "trainable": true, "dtype": "float32", "rate": 0.25, "noise_shape": null, "seed": null}, "name": "dropout_25", "inbound_nodes": [[["max_pooling2d_20", 0, 0, {}]]]}, {"class_name": "Flatten", "config": {"name": "flatten", "trainable": true, "dtype": "float32", "data_format": "channels_last"}, "name": "flatten", "inbound_nodes": [[["dropout_3", 0, 0, {}]]]}, {"class_name": "Flatten", "config": {"name": "flatten_1", "trainable": true, "dtype": "float32", "data_format": "channels_last"}, "name": "flatten_1", "inbound_nodes": [[["dropout_9", 0, 0, {}]]]}, {"class_name": "Flatten", "config": {"name": "flatten_2", "trainable": true, "dtype": "float32", "data_format": "channels_last"}, "name": "flatten_2", "inbound_nodes": [[["dropout_13", 0, 0, {}]]]}, {"class_name": "Flatten", "config": {"name": "flatten_3", "trainable": true, "dtype": "float32", "data_format": "channels_last"}, "name": "flatten_3", "inbound_nodes": [[["dropout_17", 0, 0, {}]]]}, {"class_name": "Flatten", "config": {"name": "flatten_4", "trainable": true, "dtype": "float32", "data_format": "channels_last"}, "name": "flatten_4", "inbound_nodes": [[["dropout_21", 0, 0, {}]]]}, {"class_name": "Flatten", "config": {"name": "flatten_5", "trainable": true, "dtype": "float32", "data_format": "channels_last"}, "name": "flatten_5", "inbound_nodes": [[["dropout_25", 0, 0, {}]]]}, {"class_name": "Dense", "config": {"name": "dense", "trainable": true, "dtype": "float32", "units": 256, "activation": "linear", "use_bias": true, "kernel_initializer": {"class_name": "GlorotUniform", "config": {"seed": null}}, "bias_initializer": {"class_name": "Zeros", "config": {}}, "kernel_regularizer": {"class_name": "L1L2", "config": {"L1L2": 0.009999999776482582}}, "bias_regularizer": null, "activity_regularizer": null, "kernel_constraint": null, "bias_constraint": null}, "name": "dense", "inbound_nodes": [[["flatten", 0, 0, {}]]]}, {"class_name": "Dense", "config": {"name": "dense_2", "trainable": true, "dtype": "float32", "units": 256, "activation": "linear", "use_bias": true, "kernel_initializer": {"class_name": "GlorotUniform", "config": {"seed": null}}, "bias_initializer": {"class_name": "Zeros", "config": {}}, "kernel_regularizer": null, "bias_regularizer": null, "activity_regularizer": null, "kernel_constraint": null, "bias_constraint": null}, "name": "dense_2", "inbound_nodes": [[["flatten_1", 0, 0, {}]]]}, {"class_name": "Dense", "config": {"name": "dense_4", "trainable": true, "dtype": "float32", "units": 256, "activation": "linear", "use_bias": true, "kernel_initializer": {"class_name": "GlorotUniform", "config": {"seed": null}}, "bias_initializer": {"class_name": "Zeros", "config": {}}, "kernel_regularizer": null, "bias_regularizer": null, "activity_regularizer": null, "kernel_constraint": null, "bias_constraint": null}, "name": "dense_4", "inbound_nodes": [[["flatten_2", 0, 0, {}]]]}, {"class_name": "Dense", "config": {"name": "dense_6", "trainable": true, "dtype": "float32", "units": 256, "activation": "linear", "use_bias": true, "kernel_initializer": {"class_name": "GlorotUniform", "config": {"seed": null}}, "bias_initializer": {"class_name": "Zeros", "config": {}}, "kernel_regularizer": null, "bias_regularizer": null, "activity_regularizer": null, "kernel_constraint": null, "bias_constraint": null}, "name": "dense_6", "inbound_nodes": [[["flatten_3", 0, 0, {}]]]}, {"class_name": "Dense", "config": {"name": "dense_8", "trainable": true, "dtype": "float32", "units": 256, "activation": "linear", "use_bias": true, "kernel_initializer": {"class_name": "GlorotUniform", "config": {"seed": null}}, "bias_initializer": {"class_name": "Zeros", "config": {}}, "kernel_regularizer": null, "bias_regularizer": null, "activity_regularizer": null, "kernel_constraint": null, "bias_constraint": null}, "name": "dense_8", "inbound_nodes": [[["flatten_4", 0, 0, {}]]]}, {"class_name": "Dense", "config": {"name": "dense_10", "trainable": true, "dtype": "float32", "units": 256, "activation": "linear", "use_bias": true, "kernel_initializer": {"class_name": "GlorotUniform", "config": {"seed": null}}, "bias_initializer": {"class_name": "Zeros", "config": {}}, "kernel_regularizer": null, "bias_regularizer": null, "activity_regularizer": null, "kernel_constraint": null, "bias_constraint": null}, "name": "dense_10", "inbound_nodes": [[["flatten_5", 0, 0, {}]]]}, {"class_name": "BatchNormalization", "config": {"name": "batch_normalization_3", "trainable": true, "dtype": "float32", "axis": [1], "momentum": 0.99, "epsilon": 0.001, "center": true, "scale": true, "beta_initializer": {"class_name": "Zeros", "config": {}}, "gamma_initializer": {"class_name": "Ones", "config": {}}, "moving_mean_initializer": {"class_name": "Zeros", "config": {}}, "moving_variance_initializer": {"class_name": "Ones", "config": {}}, "beta_regularizer": null, "gamma_regularizer": null, "beta_constraint": null, "gamma_constraint": null}, "name": "batch_normalization_3", "inbound_nodes": [[["dense", 0, 0, {}]]]}, {"class_name": "Activation", "config": {"name": "activation_7", "trainable": true, "dtype": "float32", "activation": "relu"}, "name": "activation_7", "inbound_nodes": [[["dense_2", 0, 0, {}]]]}, {"class_name": "Activation", "config": {"name": "activation_11", "trainable": true, "dtype": "float32", "activation": "relu"}, "name": "activation_11", "inbound_nodes": [[["dense_4", 0, 0, {}]]]}, {"class_name": "Activation", "config": {"name": "activation_15", "trainable": true, "dtype": "float32", "activation": "relu"}, "name": "activation_15", "inbound_nodes": [[["dense_6", 0, 0, {}]]]}, {"class_name": "Activation", "config": {"name": "activation_19", "trainable": true, "dtype": "float32", "activation": "relu"}, "name": "activation_19", "inbound_nodes": [[["dense_8", 0, 0, {}]]]}, {"class_name": "Activation", "config": {"name": "activation_23", "trainable": true, "dtype": "float32", "activation": "relu"}, "name": "activation_23", "inbound_nodes": [[["dense_10", 0, 0, {}]]]}, {"class_name": "Activation", "config": {"name": "activation_3", "trainable": true, "dtype": "float32", "activation": "relu"}, "name": "activation_3", "inbound_nodes": [[["batch_normalization_3", 0, 0, {}]]]}, {"class_name": "BatchNormalization", "config": {"name": "batch_normalization_8", "trainable": true, "dtype": "float32", "axis": [1], "momentum": 0.99, "epsilon": 0.001, "center": true, "scale": true, "beta_initializer": {"class_name": "Zeros", "config": {}}, "gamma_initializer": {"class_name": "Ones", "config": {}}, "moving_mean_initializer": {"class_name": "Zeros", "config": {}}, "moving_variance_initializer": {"class_name": "Ones", "config": {}}, "beta_regularizer": null, "gamma_regularizer": null, "beta_constraint": null, "gamma_constraint": null}, "name": "batch_normalization_8", "inbound_nodes": [[["activation_7", 0, 0, {}]]]}, {"class_name": "BatchNormalization", "config": {"name": "batch_normalization_12", "trainable": true, "dtype": "float32", "axis": [1], "momentum": 0.99, "epsilon": 0.001, "center": true, "scale": true, "beta_initializer": {"class_name": "Zeros", "config": {}}, "gamma_initializer": {"class_name": "Ones", "config": {}}, "moving_mean_initializer": {"class_name": "Zeros", "config": {}}, "moving_variance_initializer": {"class_name": "Ones", "config": {}}, "beta_regularizer": null, "gamma_regularizer": null, "beta_constraint": null, "gamma_constraint": null}, "name": "batch_normalization_12", "inbound_nodes": [[["activation_11", 0, 0, {}]]]}, {"class_name": "BatchNormalization", "config": {"name": "batch_normalization_16", "trainable": true, "dtype": "float32", "axis": [1], "momentum": 0.99, "epsilon": 0.001, "center": true, "scale": true, "beta_initializer": {"class_name": "Zeros", "config": {}}, "gamma_initializer": {"class_name": "Ones", "config": {}}, "moving_mean_initializer": {"class_name": "Zeros", "config": {}}, "moving_variance_initializer": {"class_name": "Ones", "config": {}}, "beta_regularizer": null, "gamma_regularizer": null, "beta_constraint": null, "gamma_constraint": null}, "name": "batch_normalization_16", "inbound_nodes": [[["activation_15", 0, 0, {}]]]}, {"class_name": "BatchNormalization", "config": {"name": "batch_normalization_20", "trainable": true, "dtype": "float32", "axis": [1], "momentum": 0.99, "epsilon": 0.001, "center": true, "scale": true, "beta_initializer": {"class_name": "Zeros", "config": {}}, "gamma_initializer": {"class_name": "Ones", "config": {}}, "moving_mean_initializer": {"class_name": "Zeros", "config": {}}, "moving_variance_initializer": {"class_name": "Ones", "config": {}}, "beta_regularizer": null, "gamma_regularizer": null, "beta_constraint": null, "gamma_constraint": null}, "name": "batch_normalization_20", "inbound_nodes": [[["activation_19", 0, 0, {}]]]}, {"class_name": "BatchNormalization", "config": {"name": "batch_normalization_24", "trainable": true, "dtype": "float32", "axis": [1], "momentum": 0.99, "epsilon": 0.001, "center": true, "scale": true, "beta_initializer": {"class_name": "Zeros", "config": {}}, "gamma_initializer": {"class_name": "Ones", "config": {}}, "moving_mean_initializer": {"class_name": "Zeros", "config": {}}, "moving_variance_initializer": {"class_name": "Ones", "config": {}}, "beta_regularizer": null, "gamma_regularizer": null, "beta_constraint": null, "gamma_constraint": null}, "name": "batch_normalization_24", "inbound_nodes": [[["activation_23", 0, 0, {}]]]}, {"class_name": "Dropout", "config": {"name": "dropout_4", "trainable": true, "dtype": "float32", "rate": 0.25, "noise_shape": null, "seed": null}, "name": "dropout_4", "inbound_nodes": [[["activation_3", 0, 0, {}]]]}, {"class_name": "Dropout", "config": {"name": "dropout_10", "trainable": true, "dtype": "float32", "rate": 0.5, "noise_shape": null, "seed": null}, "name": "dropout_10", "inbound_nodes": [[["batch_normalization_8", 0, 0, {}]]]}, {"class_name": "Dropout", "config": {"name": "dropout_14", "trainable": true, "dtype": "float32", "rate": 0.5, "noise_shape": null, "seed": null}, "name": "dropout_14", "inbound_nodes": [[["batch_normalization_12", 0, 0, {}]]]}, {"class_name": "Dropout", "config": {"name": "dropout_18", "trainable": true, "dtype": "float32", "rate": 0.5, "noise_shape": null, "seed": null}, "name": "dropout_18", "inbound_nodes": [[["batch_normalization_16", 0, 0, {}]]]}, {"class_name": "Dropout", "config": {"name": "dropout_22", "trainable": true, "dtype": "float32", "rate": 0.5, "noise_shape": null, "seed": null}, "name": "dropout_22", "inbound_nodes": [[["batch_normalization_20", 0, 0, {}]]]}, {"class_name": "Dropout", "config": {"name": "dropout_26", "trainable": true, "dtype": "float32", "rate": 0.5, "noise_shape": null, "seed": null}, "name": "dropout_26", "inbound_nodes": [[["batch_normalization_24", 0, 0, {}]]]}, {"class_name": "Dense", "config": {"name": "dense_1", "trainable": true, "dtype": "float32", "units": 7, "activation": "linear", "use_bias": true, "kernel_initializer": {"class_name": "GlorotUniform", "config": {"seed": null}}, "bias_initializer": {"class_name": "Zeros", "config": {}}, "kernel_regularizer": null, "bias_regularizer": null, "activity_regularizer": null, "kernel_constraint": null, "bias_constraint": null}, "name": "dense_1", "inbound_nodes": [[["dropout_4", 0, 0, {}]]]}, {"class_name": "Dense", "config": {"name": "dense_3", "trainable": true, "dtype": "float32", "units": 5, "activation": "linear", "use_bias": true, "kernel_initializer": {"class_name": "GlorotUniform", "config": {"seed": null}}, "bias_initializer": {"class_name": "Zeros", "config": {}}, "kernel_regularizer": null, "bias_regularizer": null, "activity_regularizer": null, "kernel_constraint": null, "bias_constraint": null}, "name": "dense_3", "inbound_nodes": [[["dropout_10", 0, 0, {}]]]}, {"class_name": "Dense", "config": {"name": "dense_5", "trainable": true, "dtype": "float32", "units": 2, "activation": "linear", "use_bias": true, "kernel_initializer": {"class_name": "GlorotUniform", "config": {"seed": null}}, "bias_initializer": {"class_name": "Zeros", "config": {}}, "kernel_regularizer": null, "bias_regularizer": null, "activity_regularizer": null, "kernel_constraint": null, "bias_constraint": null}, "name": "dense_5", "inbound_nodes": [[["dropout_14", 0, 0, {}]]]}, {"class_name": "Dense", "config": {"name": "dense_7", "trainable": true, "dtype": "float32", "units": 4, "activation": "linear", "use_bias": true, "kernel_initializer": {"class_name": "GlorotUniform", "config": {"seed": null}}, "bias_initializer": {"class_name": "Zeros", "config": {}}, "kernel_regularizer": null, "bias_regularizer": null, "activity_regularizer": null, "kernel_constraint": null, "bias_constraint": null}, "name": "dense_7", "inbound_nodes": [[["dropout_18", 0, 0, {}]]]}, {"class_name": "Dense", "config": {"name": "dense_9", "trainable": true, "dtype": "float32", "units": 2, "activation": "linear", "use_bias": true, "kernel_initializer": {"class_name": "GlorotUniform", "config": {"seed": null}}, "bias_initializer": {"class_name": "Zeros", "config": {}}, "kernel_regularizer": null, "bias_regularizer": null, "activity_regularizer": null, "kernel_constraint": null, "bias_constraint": null}, "name": "dense_9", "inbound_nodes": [[["dropout_22", 0, 0, {}]]]}, {"class_name": "Dense", "config": {"name": "dense_11", "trainable": true, "dtype": "float32", "units": 2, "activation": "linear", "use_bias": true, "kernel_initializer": {"class_name": "GlorotUniform", "config": {"seed": null}}, "bias_initializer": {"class_name": "Zeros", "config": {}}, "kernel_regularizer": null, "bias_regularizer": null, "activity_regularizer": null, "kernel_constraint": null, "bias_constraint": null}, "name": "dense_11", "inbound_nodes": [[["dropout_26", 0, 0, {}]]]}, {"class_name": "Activation", "config": {"name": "age_output", "trainable": true, "dtype": "float32", "activation": "softmax"}, "name": "age_output", "inbound_nodes": [[["dense_1", 0, 0, {}]]]}, {"class_name": "Activation", "config": {"name": "expression_output", "trainable": true, "dtype": "float32", "activation": "softmax"}, "name": "expression_output", "inbound_nodes": [[["dense_3", 0, 0, {}]]]}, {"class_name": "Activation", "config": {"name": "gender_output", "trainable": true, "dtype": "float32", "activation": "sigmoid"}, "name": "gender_output", "inbound_nodes": [[["dense_5", 0, 0, {}]]]}, {"class_name": "Activation", "config": {"name": "hair_output", "trainable": true, "dtype": "float32", "activation": "softmax"}, "name": "hair_output", "inbound_nodes": [[["dense_7", 0, 0, {}]]]}, {"class_name": "Activation", "config": {"name": "bald_output", "trainable": true, "dtype": "float32", "activation": "sigmoid"}, "name": "bald_output", "inbound_nodes": [[["dense_9", 0, 0, {}]]]}, {"class_name": "Activation", "config": {"name": "eyeglasses_output", "trainable": true, "dtype": "float32", "activation": "sigmoid"}, "name": "eyeglasses_output", "inbound_nodes": [[["dense_11", 0, 0, {}]]]}], "input_layers": [["input_1", 0, 0]], "output_layers": [["age_output", 0, 0], ["expression_output", 0, 0], ["gender_output", 0, 0], ["hair_output", 0, 0], ["bald_output", 0, 0], ["eyeglasses_output", 0, 0]]}}, "training_config": {"loss": {"age_output": "categorical_crossentropy", "expression_output": "categorical_crossentropy", "gender_output": "binary_crossentropy", "hair_output": "categorical_crossentropy", "eyeglasses_output": "binary_crossentropy", "bald_output": "binary_crossentropy"}, "metrics": [[{"class_name": "MeanMetricWrapper", "config": {"name": "age_output_accuracy", "dtype": "float32", "fn": "categorical_accuracy"}}], [{"class_name": "MeanMetricWrapper", "config": {"name": "expression_output_accuracy", "dtype": "float32", "fn": "categorical_accuracy"}}], [{"class_name": "MeanMetricWrapper", "config": {"name": "gender_output_accuracy", "dtype": "float32", "fn": "categorical_accuracy"}}], [{"class_name": "MeanMetricWrapper", "config": {"name": "hair_output_accuracy", "dtype": "float32", "fn": "categorical_accuracy"}}], [{"class_name": "MeanMetricWrapper", "config": {"name": "bald_output_accuracy", "dtype": "float32", "fn": "categorical_accuracy"}}], [{"class_name": "MeanMetricWrapper", "config": {"name": "eyeglasses_output_accuracy", "dtype": "float32", "fn": "categorical_accuracy"}}]], "weighted_metrics": null, "loss_weights": null, "optimizer_config": {"class_name": "Adam", "config": {"name": "Adam", "learning_rate": 9.999999747378752e-05, "decay": 1e-06, "beta_1": 0.8999999761581421, "beta_2": 0.9990000128746033, "epsilon": 1e-07, "amsgrad": false}}}}, "weightsManifest": [{"paths": ["group1-shard1of14.bin", "group1-shard2of14.bin", "group1-shard3of14.bin", "group1-shard4of14.bin", "group1-shard5of14.bin", "group1-shard6of14.bin", "group1-shard7of14.bin", "group1-shard8of14.bin", "group1-shard9of14.bin", "group1-shard10of14.bin", "group1-shard11of14.bin", "group1-shard12of14.bin", "group1-shard13of14.bin", "group1-shard14of14.bin"], "weights": [{"name": "batch_normalization/gamma", "shape": [16], "dtype": "float32", "quantization": {"dtype": "uint16", "min": 0.9093502163887024, "scale": 2.7050631464851014e-06, "original_dtype": "float32"}}, {"name": "batch_normalization/beta", "shape": [16], "dtype": "float32", "quantization": {"dtype": "uint16", "min": -0.11724379819466046, "scale": 2.10423558266019e-06, "original_dtype": "float32"}}, {"name": "batch_normalization/moving_mean", "shape": [16], "dtype": "float32", "quantization": {"dtype": "uint16", "min": 0.04702973738312721, "scale": 0.00317298849208855, "original_dtype": "float32"}}, {"name": "batch_normalization/moving_variance", "shape": [16], "dtype": "float32", "quantization": {"dtype": "uint16", "min": 0.5416004657745361, "scale": 0.17060183133778478, "original_dtype": "float32"}}, {"name": "batch_normalization_1/gamma", "shape": [32], "dtype": "float32", "quantization": {"dtype": "uint16", "min": 0.9453119039535522, "scale": 1.641439247378734e-06, "original_dtype": "float32"}}, {"name": "batch_normalization_1/beta", "shape": [32], "dtype": "float32", "quantization": {"dtype": "uint16", "min": -0.08662716619598768, "scale": 1.6948830231454614e-06, "original_dtype": "float32"}}, {"name": "batch_normalization_1/moving_mean", "shape": [32], "dtype": "float32", "quantization": {"dtype": "uint16", "min": 0.26215052604675293, "scale": 1.270611680708152e-05, "original_dtype": "float32"}}, {"name": "batch_normalization_1/moving_variance", "shape": [32], "dtype": "float32", "quantization": {"dtype": "uint16", "min": 0.1871367245912552, "scale": 3.201232523469582e-05, "original_dtype": "float32"}}, {"name": "batch_normalization_10/gamma", "shape": [32], "dtype": "float32", "quantization": {"dtype": "uint16", "min": 0.9525179266929626, "scale": 1.3337333951615228e-06, "original_dtype": "float32"}}, {"name": "batch_normalization_10/beta", "shape": [32], "dtype": "float32", "quantization": {"dtype": "uint16", "min": -0.04045600605027357, "scale": 1.6581009898058762e-06, "original_dtype": "float32"}}, {"name": "batch_normalization_10/moving_mean", "shape": [32], "dtype": "float32", "quantization": {"dtype": "uint16", "min": 0.22661910951137543, "scale": 8.220611715822459e-06, "original_dtype": "float32"}}, {"name": "batch_normalization_10/moving_variance", "shape": [32], "dtype": "float32", "quantization": {"dtype": "uint16", "min": 0.142882838845253, "scale": 1.7165850063224146e-05, "original_dtype": "float32"}}, {"name": "batch_normalization_11/gamma", "shape": [64], "dtype": "float32", "quantization": {"dtype": "uint16", "min": 0.9221097230911255, "scale": 2.252950979023092e-06, "original_dtype": "float32"}}, {"name": "batch_normalization_11/beta", "shape": [64], "dtype": "float32", "quantization": {"dtype": "uint16", "min": -0.10572819411754608, "scale": 1.2967833585339679e-06, "original_dtype": "float32"}}, {"name": "batch_normalization_11/moving_mean", "shape": [64], "dtype": "float32", "quantization": {"dtype": "uint16", "min": 0.08958762139081955, "scale": 1.5380664235386666e-05, "original_dtype": "float32"}}, {"name": "batch_normalization_11/moving_variance", "shape": [64], "dtype": "float32", "quantization": {"dtype": "uint16", "min": 0.07580321282148361, "scale": 2.118490424319537e-05, "original_dtype": "float32"}}, {"name": "batch_normalization_12/gamma", "shape": [256], "dtype": "float32", "quantization": {"dtype": "uint16", "min": 0.7237553596496582, "scale": 6.4587714952762974e-06, "original_dtype": "float32"}}, {"name": "batch_normalization_12/beta", "shape": [256], "dtype": "float32", "quantization": {"dtype": "uint16", "min": -0.13436069087068303, "scale": 4.126176668939687e-06, "original_dtype": "float32"}}, {"name": "batch_normalization_12/moving_mean", "shape": [256], "dtype": "float32", "quantization": {"dtype": "uint16", "min": 1.1643827042026792e-36, "scale": 0.00037921152589995446, "original_dtype": "float32"}}, {"name": "batch_normalization_12/moving_variance", "shape": [256], "dtype": "float32", "quantization": {"dtype": "uint16", "min": 1.1649699491527207e-36, "scale": 0.0030115485109489444, "original_dtype": "float32"}}, {"name": "batch_normalization_13/gamma", "shape": [16], "dtype": "float32", "quantization": {"dtype": "uint16", "min": 0.9505543112754822, "scale": 1.9399281396485307e-06, "original_dtype": "float32"}}, {"name": "batch_normalization_13/beta", "shape": [16], "dtype": "float32", "quantization": {"dtype": "uint16", "min": -0.05463712723520552, "scale": 1.953838050178999e-06, "original_dtype": "float32"}}, {"name": "batch_normalization_13/moving_mean", "shape": [16], "dtype": "float32", "quantization": {"dtype": "uint16", "min": 8.311633791890927e-06, "scale": 0.00295983195091493, "original_dtype": "float32"}}, {"name": "batch_normalization_13/moving_variance", "shape": [16], "dtype": "float32", "quantization": {"dtype": "uint16", "min": 1.5651350622647442e-05, "scale": 0.16616422140800563, "original_dtype": "float32"}}, {"name": "batch_normalization_14/gamma", "shape": [32], "dtype": "float32", "quantization": {"dtype": "uint16", "min": 0.9508360624313354, "scale": 1.7759555663270864e-06, "original_dtype": "float32"}}, {"name": "batch_normalization_14/beta", "shape": [32], "dtype": "float32", "quantization": {"dtype": "uint16", "min": -0.036787690299344186, "scale": 1.925049204570601e-06, "original_dtype": "float32"}}, {"name": "batch_normalization_14/moving_mean", "shape": [32], "dtype": "float32", "quantization": {"dtype": "uint16", "min": 0.22438466548919678, "scale": 1.0661533334175727e-05, "original_dtype": "float32"}}, {"name": "batch_normalization_14/moving_variance", "shape": [32], "dtype": "float32", "quantization": {"dtype": "uint16", "min": 0.17886023223400116, "scale": 1.5907282549883632e-05, "original_dtype": "float32"}}, {"name": "batch_normalization_15/gamma", "shape": [64], "dtype": "float32", "quantization": {"dtype": "uint16", "min": 0.9037125110626221, "scale": 2.7306321611882457e-06, "original_dtype": "float32"}}, {"name": "batch_normalization_15/beta", "shape": [64], "dtype": "float32", "quantization": {"dtype": "uint16", "min": -0.10581944137811661, "scale": 1.5422193363491945e-06, "original_dtype": "float32"}}, {"name": "batch_normalization_15/moving_mean", "shape": [64], "dtype": "float32", "quantization": {"dtype": "uint16", "min": 0.05496549606323242, "scale": 1.6608519804071142e-05, "original_dtype": "float32"}}, {"name": "batch_normalization_15/moving_variance", "shape": [64], "dtype": "float32", "quantization": {"dtype": "uint16", "min": 0.0471261665225029, "scale": 2.9191183668257234e-05, "original_dtype": "float32"}}, {"name": "batch_normalization_16/gamma", "shape": [256], "dtype": "float32", "quantization": {"dtype": "uint16", "min": 0.9375821352005005, "scale": 3.79099001498465e-06, "original_dtype": "float32"}}, {"name": "batch_normalization_16/beta", "shape": [256], "dtype": "float32", "quantization": {"dtype": "uint16", "min": -0.11425483071466164, "scale": 3.829300221693255e-06, "original_dtype": "float32"}}, {"name": "batch_normalization_16/moving_mean", "shape": [256], "dtype": "float32", "quantization": {"dtype": "uint16", "min": 1.1649364973557803e-36, "scale": 0.0003160893894346026, "original_dtype": "float32"}}, {"name": "batch_normalization_16/moving_variance", "shape": [256], "dtype": "float32", "quantization": {"dtype": "uint16", "min": 1.1654378258943772e-36, "scale": 0.0025098429725200514, "original_dtype": "float32"}}, {"name": "batch_normalization_17/gamma", "shape": [16], "dtype": "float32", "quantization": {"dtype": "uint16", "min": 0.9449411034584045, "scale": 2.046013220393195e-06, "original_dtype": "float32"}}, {"name": "batch_normalization_17/beta", "shape": [16], "dtype": "float32", "quantization": {"dtype": "uint16", "min": -0.04577115780020993, "scale": 9.82551043281168e-07, "original_dtype": "float32"}}, {"name": "batch_normalization_17/moving_mean", "shape": [16], "dtype": "float32", "quantization": {"dtype": "uint16", "min": 0.0005436428473331034, "scale": 0.0015620244063096701, "original_dtype": "float32"}}, {"name": "batch_normalization_17/moving_variance", "shape": [16], "dtype": "float32", "quantization": {"dtype": "uint16", "min": 0.0005232201074250042, "scale": 0.06408146893451808, "original_dtype": "float32"}}, {"name": "batch_normalization_18/gamma", "shape": [32], "dtype": "float32", "quantization": {"dtype": "uint16", "min": 0.9542969465255737, "scale": 1.2606716614398183e-06, "original_dtype": "float32"}}, {"name": "batch_normalization_18/beta", "shape": [32], "dtype": "float32", "quantization": {"dtype": "uint16", "min": -0.033103410217394005, "scale": 1.4009060608292005e-06, "original_dtype": "float32"}}, {"name": "batch_normalization_18/moving_mean", "shape": [32], "dtype": "float32", "quantization": {"dtype": "uint16", "min": 0.1556888222694397, "scale": 8.350442019190679e-06, "original_dtype": "float32"}}, {"name": "batch_normalization_18/moving_variance", "shape": [32], "dtype": "float32", "quantization": {"dtype": "uint16", "min": 0.15745213627815247, "scale": 1.892390081627269e-05, "original_dtype": "float32"}}, {"name": "batch_normalization_19/gamma", "shape": [64], "dtype": "float32", "quantization": {"dtype": "uint16", "min": 0.911309540271759, "scale": 2.6782417384676105e-06, "original_dtype": "float32"}}, {"name": "batch_normalization_19/beta", "shape": [64], "dtype": "float32", "quantization": {"dtype": "uint16", "min": -0.0760412766898516, "scale": 1.4115176100729805e-06, "original_dtype": "float32"}}, {"name": "batch_normalization_19/moving_mean", "shape": [64], "dtype": "float32", "quantization": {"dtype": "uint16", "min": 0.14696148037910461, "scale": 1.547970460373813e-05, "original_dtype": "float32"}}, {"name": "batch_normalization_19/moving_variance", "shape": [64], "dtype": "float32", "quantization": {"dtype": "uint16", "min": 0.11649740487337112, "scale": 4.308144767651653e-05, "original_dtype": "float32"}}, {"name": "batch_normalization_2/gamma", "shape": [64], "dtype": "float32", "quantization": {"dtype": "uint16", "min": 0.9475321769714355, "scale": 2.2533729910041063e-06, "original_dtype": "float32"}}, {"name": "batch_normalization_2/beta", "shape": [64], "dtype": "float32", "quantization": {"dtype": "uint16", "min": -0.0876905478439879, "scale": 3.174778170377173e-06, "original_dtype": "float32"}}, {"name": "batch_normalization_2/moving_mean", "shape": [64], "dtype": "float32", "quantization": {"dtype": "uint16", "min": 0.3196687400341034, "scale": 9.87275519705368e-06, "original_dtype": "float32"}}, {"name": "batch_normalization_2/moving_variance", "shape": [64], "dtype": "float32", "quantization": {"dtype": "uint16", "min": 0.3721509277820587, "scale": 2.7603443058002565e-05, "original_dtype": "float32"}}, {"name": "batch_normalization_20/gamma", "shape": [256], "dtype": "float32", "quantization": {"dtype": "uint16", "min": 0.823779284954071, "scale": 4.711668269625334e-06, "original_dtype": "float32"}}, {"name": "batch_normalization_20/beta", "shape": [256], "dtype": "float32", "quantization": {"dtype": "uint16", "min": -0.22471701387428825, "scale": 6.661637383994553e-06, "original_dtype": "float32"}}, {"name": "batch_normalization_20/moving_mean", "shape": [256], "dtype": "float32", "quantization": {"dtype": "uint16", "min": 1.1651936188084024e-36, "scale": 0.00047537862658819, "original_dtype": "float32"}}, {"name": "batch_normalization_20/moving_variance", "shape": [256], "dtype": "float32", "quantization": {"dtype": "uint16", "min": 1.1665984149136941e-36, "scale": 0.0030661329957870796, "original_dtype": "float32"}}, {"name": "batch_normalization_21/gamma", "shape": [16], "dtype": "float32", "quantization": {"dtype": "uint16", "min": 0.936328113079071, "scale": 3.0651685165087454e-06, "original_dtype": "float32"}}, {"name": "batch_normalization_21/beta", "shape": [16], "dtype": "float32", "quantization": {"dtype": "uint16", "min": -0.04377894135774833, "scale": 1.039830444105941e-06, "original_dtype": "float32"}}, {"name": "batch_normalization_21/moving_mean", "shape": [16], "dtype": "float32", "quantization": {"dtype": "uint16", "min": 4.153457848588005e-05, "scale": 0.0009718502916327158, "original_dtype": "float32"}}, {"name": "batch_normalization_21/moving_variance", "shape": [16], "dtype": "float32", "quantization": {"dtype": "uint16", "min": 2.5935843950719573e-05, "scale": 0.013782568637907222, "original_dtype": "float32"}}, {"name": "batch_normalization_22/gamma", "shape": [32], "dtype": "float32", "quantization": {"dtype": "uint16", "min": 0.9571686387062073, "scale": 1.3999056013914506e-06, "original_dtype": "float32"}}, {"name": "batch_normalization_22/beta", "shape": [32], "dtype": "float32", "quantization": {"dtype": "uint16", "min": -0.03135832718054735, "scale": 1.1600875728070495e-06, "original_dtype": "float32"}}, {"name": "batch_normalization_22/moving_mean", "shape": [32], "dtype": "float32", "quantization": {"dtype": "uint16", "min": 0.17439131438732147, "scale": 6.499763274343788e-06, "original_dtype": "float32"}}, {"name": "batch_normalization_22/moving_variance", "shape": [32], "dtype": "float32", "quantization": {"dtype": "uint16", "min": 0.20337647199630737, "scale": 1.5106507312462952e-05, "original_dtype": "float32"}}, {"name": "batch_normalization_23/gamma", "shape": [64], "dtype": "float32", "quantization": {"dtype": "uint16", "min": 0.9365079998970032, "scale": 2.4201559458370476e-06, "original_dtype": "float32"}}, {"name": "batch_normalization_23/beta", "shape": [64], "dtype": "float32", "quantization": {"dtype": "uint16", "min": -0.07512212389287969, "scale": 1.219772417764783e-06, "original_dtype": "float32"}}, {"name": "batch_normalization_23/moving_mean", "shape": [64], "dtype": "float32", "quantization": {"dtype": "uint16", "min": 0.11475344002246857, "scale": 1.677365814001471e-05, "original_dtype": "float32"}}, {"name": "batch_normalization_23/moving_variance", "shape": [64], "dtype": "float32", "quantization": {"dtype": "uint16", "min": 0.11170750111341476, "scale": 4.6487318334385196e-05, "original_dtype": "float32"}}, {"name": "batch_normalization_24/gamma", "shape": [256], "dtype": "float32", "quantization": {"dtype": "uint16", "min": 0.8326980471611023, "scale": 4.271904500150895e-06, "original_dtype": "float32"}}, {"name": "batch_normalization_24/beta", "shape": [256], "dtype": "float32", "quantization": {"dtype": "uint16", "min": -0.2197321307061602, "scale": 6.526438478857081e-06, "original_dtype": "float32"}}, {"name": "batch_normalization_24/moving_mean", "shape": [256], "dtype": "float32", "quantization": {"dtype": "uint16", "min": 1.1647364143558502e-36, "scale": 0.0002968969248321061, "original_dtype": "float32"}}, {"name": "batch_normalization_24/moving_variance", "shape": [256], "dtype": "float32", "quantization": {"dtype": "uint16", "min": 1.1679209716147116e-36, "scale": 0.005229263264918078, "original_dtype": "float32"}}, {"name": "batch_normalization_3/gamma", "shape": [256], "dtype": "float32", "quantization": {"dtype": "uint16", "min": 0.9688342213630676, "scale": 4.148413244206545e-06, "original_dtype": "float32"}}, {"name": "batch_normalization_3/beta", "shape": [256], "dtype": "float32", "quantization": {"dtype": "uint16", "min": -0.15953691929074004, "scale": 4.1638240712707825e-06, "original_dtype": "float32"}}, {"name": "batch_normalization_3/moving_mean", "shape": [256], "dtype": "float32", "quantization": {"dtype": "uint16", "min": -0.9592533506808314, "scale": 2.869953777766968e-05, "original_dtype": "float32"}}, {"name": "batch_normalization_3/moving_variance", "shape": [256], "dtype": "float32", "quantization": {"dtype": "uint16", "min": 0.11634500324726105, "scale": 7.191681476245803e-06, "original_dtype": "float32"}}, {"name": "batch_normalization_4/gamma", "shape": [16], "dtype": "float32", "quantization": {"dtype": "uint16", "min": 0.9256338477134705, "scale": 2.794575161889151e-06, "original_dtype": "float32"}}, {"name": "batch_normalization_4/beta", "shape": [16], "dtype": "float32", "quantization": {"dtype": "uint16", "min": -0.07297363417198795, "scale": 1.5413817073693671e-06, "original_dtype": "float32"}}, {"name": "batch_normalization_4/moving_mean", "shape": [16], "dtype": "float32", "quantization": {"dtype": "uint16", "min": 9.789996693143621e-05, "scale": 0.0019287632283416342, "original_dtype": "float32"}}, {"name": "batch_normalization_4/moving_variance", "shape": [16], "dtype": "float32", "quantization": {"dtype": "uint16", "min": 7.3713777055672836e-06, "scale": 0.059856094942881626, "original_dtype": "float32"}}, {"name": "batch_normalization_5/gamma", "shape": [32], "dtype": "float32", "quantization": {"dtype": "uint16", "min": 0.9549765586853027, "scale": 1.5999038095576836e-06, "original_dtype": "float32"}}, {"name": "batch_normalization_5/beta", "shape": [32], "dtype": "float32", "quantization": {"dtype": "uint16", "min": -0.052298062640931724, "scale": 1.2091198908961627e-06, "original_dtype": "float32"}}, {"name": "batch_normalization_5/moving_mean", "shape": [32], "dtype": "float32", "quantization": {"dtype": "uint16", "min": 0.19131828844547272, "scale": 8.173045781363228e-06, "original_dtype": "float32"}}, {"name": "batch_normalization_5/moving_variance", "shape": [32], "dtype": "float32", "quantization": {"dtype": "uint16", "min": 0.20059815049171448, "scale": 2.3817815505604255e-05, "original_dtype": "float32"}}, {"name": "batch_normalization_6/gamma", "shape": [64], "dtype": "float32", "quantization": {"dtype": "uint16", "min": 0.9626620411872864, "scale": 1.3028483028096084e-06, "original_dtype": "float32"}}, {"name": "batch_normalization_6/beta", "shape": [64], "dtype": "float32", "quantization": {"dtype": "uint16", "min": -0.08600818128089498, "scale": 1.8153228493825317e-06, "original_dtype": "float32"}}, {"name": "batch_normalization_6/moving_mean", "shape": [64], "dtype": "float32", "quantization": {"dtype": "uint16", "min": 0.18640819191932678, "scale": 1.1853819500256742e-05, "original_dtype": "float32"}}, {"name": "batch_normalization_6/moving_variance", "shape": [64], "dtype": "float32", "quantization": {"dtype": "uint16", "min": 0.17654258012771606, "scale": 5.121190242166331e-05, "original_dtype": "float32"}}, {"name": "batch_normalization_7/gamma", "shape": [128], "dtype": "float32", "quantization": {"dtype": "uint16", "min": 0.9348714351654053, "scale": 1.8815167701298016e-06, "original_dtype": "float32"}}, {"name": "batch_normalization_7/beta", "shape": [128], "dtype": "float32", "quantization": {"dtype": "uint16", "min": -0.08567836913370074, "scale": 1.326023696991329e-06, "original_dtype": "float32"}}, {"name": "batch_normalization_7/moving_mean", "shape": [128], "dtype": "float32", "quantization": {"dtype": "uint16", "min": 0.10870921611785889, "scale": 2.4308930584246938e-05, "original_dtype": "float32"}}, {"name": "batch_normalization_7/moving_variance", "shape": [128], "dtype": "float32", "quantization": {"dtype": "uint16", "min": 0.163089320063591, "scale": 7.948022239985124e-05, "original_dtype": "float32"}}, {"name": "batch_normalization_8/gamma", "shape": [256], "dtype": "float32", "quantization": {"dtype": "uint16", "min": 0.8797191977500916, "scale": 2.9899903563219106e-06, "original_dtype": "float32"}}, {"name": "batch_normalization_8/beta", "shape": [256], "dtype": "float32", "quantization": {"dtype": "uint16", "min": -0.09581099961732048, "scale": 3.4402513327583655e-06, "original_dtype": "float32"}}, {"name": "batch_normalization_8/moving_mean", "shape": [256], "dtype": "float32", "quantization": {"dtype": "uint16", "min": 1.1661433628555831e-36, "scale": 6.548324256664721e-05, "original_dtype": "float32"}}, {"name": "batch_normalization_8/moving_variance", "shape": [256], "dtype": "float32", "quantization": {"dtype": "uint16", "min": 1.1637565367864925e-36, "scale": 4.97255698579704e-05, "original_dtype": "float32"}}, {"name": "batch_normalization_9/gamma", "shape": [16], "dtype": "float32", "quantization": {"dtype": "uint16", "min": 0.9477717280387878, "scale": 2.259916905235569e-06, "original_dtype": "float32"}}, {"name": "batch_normalization_9/beta", "shape": [16], "dtype": "float32", "quantization": {"dtype": "uint16", "min": -0.0483445080644212, "scale": 1.2513137845068254e-06, "original_dtype": "float32"}}, {"name": "batch_normalization_9/moving_mean", "shape": [16], "dtype": "float32", "quantization": {"dtype": "uint16", "min": 0.00038991414476186037, "scale": 0.0022598666952015705, "original_dtype": "float32"}}, {"name": "batch_normalization_9/moving_variance", "shape": [16], "dtype": "float32", "quantization": {"dtype": "uint16", "min": 0.0010728503111749887, "scale": 0.09265221323471716, "original_dtype": "float32"}}, {"name": "conv2d/kernel", "shape": [3, 3, 3, 16], "dtype": "float32", "quantization": {"dtype": "uint16", "min": -0.19924600538458387, "scale": 6.653065493007342e-06, "original_dtype": "float32"}}, {"name": "conv2d/bias", "shape": [16], "dtype": "float32", "quantization": {"dtype": "uint16", "min": -0.06747220736501454, "scale": 1.9382995508478753e-06, "original_dtype": "float32"}}, {"name": "conv2d_1/kernel", "shape": [3, 3, 16, 32], "dtype": "float32", "quantization": {"dtype": "uint16", "min": -0.17073388219361738, "scale": 5.5766227526005155e-06, "original_dtype": "float32"}}, {"name": "conv2d_1/bias", "shape": [32], "dtype": "float32", "quantization": {"dtype": "uint16", "min": -0.07057326378487945, "scale": 2.026744314777848e-06, "original_dtype": "float32"}}, {"name": "conv2d_10/kernel", "shape": [3, 3, 16, 32], "dtype": "float32", "quantization": {"dtype": "uint16", "min": -0.1775707131864332, "scale": 5.339669619198112e-06, "original_dtype": "float32"}}, {"name": "conv2d_10/bias", "shape": [32], "dtype": "float32", "quantization": {"dtype": "uint16", "min": -0.07460745121745667, "scale": 2.1394657954076813e-06, "original_dtype": "float32"}}, {"name": "conv2d_11/kernel", "shape": [3, 3, 32, 64], "dtype": "float32", "quantization": {"dtype": "uint16", "min": -0.15052823464676, "scale": 4.231530504786214e-06, "original_dtype": "float32"}}, {"name": "conv2d_11/bias", "shape": [64], "dtype": "float32", "quantization": {"dtype": "uint16", "min": -0.08917432021322098, "scale": 1.6141024890622294e-06, "original_dtype": "float32"}}, {"name": "conv2d_12/kernel", "shape": [3, 3, 3, 16], "dtype": "float32", "quantization": {"dtype": "uint16", "min": -0.20009979854175225, "scale": 6.6177133492658745e-06, "original_dtype": "float32"}}, {"name": "conv2d_12/bias", "shape": [16], "dtype": "float32", "quantization": {"dtype": "uint16", "min": -0.06575675097993977, "scale": 1.9749144335637844e-06, "original_dtype": "float32"}}, {"name": "conv2d_13/kernel", "shape": [3, 3, 16, 32], "dtype": "float32", "quantization": {"dtype": "uint16", "min": -0.1900150316330191, "scale": 5.504810001535984e-06, "original_dtype": "float32"}}, {"name": "conv2d_13/bias", "shape": [32], "dtype": "float32", "quantization": {"dtype": "uint16", "min": -0.11122391164357397, "scale": 2.7155601260699733e-06, "original_dtype": "float32"}}, {"name": "conv2d_14/kernel", "shape": [3, 3, 32, 64], "dtype": "float32", "quantization": {"dtype": "uint16", "min": -0.13550156434167845, "scale": 4.126364709838555e-06, "original_dtype": "float32"}}, {"name": "conv2d_14/bias", "shape": [64], "dtype": "float32", "quantization": {"dtype": "uint16", "min": -0.10251469592806604, "scale": 1.646319933322617e-06, "original_dtype": "float32"}}, {"name": "conv2d_15/kernel", "shape": [3, 3, 3, 16], "dtype": "float32", "quantization": {"dtype": "uint16", "min": -0.1984843912287072, "scale": 6.182929139265691e-06, "original_dtype": "float32"}}, {"name": "conv2d_15/bias", "shape": [16], "dtype": "float32", "quantization": {"dtype": "uint16", "min": 0.013398522511124611, "scale": 7.398412605895233e-07, "original_dtype": "float32"}}, {"name": "conv2d_16/kernel", "shape": [3, 3, 16, 32], "dtype": "float32", "quantization": {"dtype": "uint16", "min": -0.1592877552880751, "scale": 5.365572650927177e-06, "original_dtype": "float32"}}, {"name": "conv2d_16/bias", "shape": [32], "dtype": "float32", "quantization": {"dtype": "uint16", "min": -0.0665652796252624, "scale": 1.7663600802776277e-06, "original_dtype": "float32"}}, {"name": "conv2d_17/kernel", "shape": [3, 3, 32, 64], "dtype": "float32", "quantization": {"dtype": "uint16", "min": -0.12739843248052218, "scale": 3.9023013594058315e-06, "original_dtype": "float32"}}, {"name": "conv2d_17/bias", "shape": [64], "dtype": "float32", "quantization": {"dtype": "uint16", "min": -0.0711534197073243, "scale": 1.7794138021688126e-06, "original_dtype": "float32"}}, {"name": "conv2d_18/kernel", "shape": [3, 3, 3, 16], "dtype": "float32", "quantization": {"dtype": "uint16", "min": -0.20796201105379555, "scale": 6.120309928302644e-06, "original_dtype": "float32"}}, {"name": "conv2d_18/bias", "shape": [16], "dtype": "float32", "quantization": {"dtype": "uint16", "min": -0.003155511401225903, "scale": 9.691374082389136e-07, "original_dtype": "float32"}}, {"name": "conv2d_19/kernel", "shape": [3, 3, 16, 32], "dtype": "float32", "quantization": {"dtype": "uint16", "min": -0.15682322403163507, "scale": 5.606235442449328e-06, "original_dtype": "float32"}}, {"name": "conv2d_19/bias", "shape": [32], "dtype": "float32", "quantization": {"dtype": "uint16", "min": -0.03091319927618452, "scale": 1.0962904913889113e-06, "original_dtype": "float32"}}, {"name": "conv2d_2/kernel", "shape": [3, 3, 32, 64], "dtype": "float32", "quantization": {"dtype": "uint16", "min": -0.13824552378811278, "scale": 4.210822813441954e-06, "original_dtype": "float32"}}, {"name": "conv2d_2/bias", "shape": [64], "dtype": "float32", "quantization": {"dtype": "uint16", "min": -0.05619061006541618, "scale": 2.6690072704800353e-06, "original_dtype": "float32"}}, {"name": "conv2d_20/kernel", "shape": [3, 3, 32, 64], "dtype": "float32", "quantization": {"dtype": "uint16", "min": -0.1348471141357421, "scale": 3.899456757634021e-06, "original_dtype": "float32"}}, {"name": "conv2d_20/bias", "shape": [64], "dtype": "float32", "quantization": {"dtype": "uint16", "min": -0.07100353215187913, "scale": 1.5711179198521702e-06, "original_dtype": "float32"}}, {"name": "conv2d_3/kernel", "shape": [3, 3, 64, 256], "dtype": "float32", "quantization": {"dtype": "uint16", "min": -0.11769816792828909, "scale": 3.0221637675770725e-06, "original_dtype": "float32"}}, {"name": "conv2d_3/bias", "shape": [256], "dtype": "float32", "quantization": {"dtype": "uint16", "min": -0.09530205730247358, "scale": 1.6255937178465797e-06, "original_dtype": "float32"}}, {"name": "conv2d_4/kernel", "shape": [3, 3, 3, 16], "dtype": "float32", "quantization": {"dtype": "uint16", "min": -0.2242251140052488, "scale": 6.328679480814248e-06, "original_dtype": "float32"}}, {"name": "conv2d_4/bias", "shape": [16], "dtype": "float32", "quantization": {"dtype": "uint16", "min": -0.02663714975275527, "scale": 1.69966499188076e-06, "original_dtype": "float32"}}, {"name": "conv2d_5/kernel", "shape": [3, 3, 16, 32], "dtype": "float32", "quantization": {"dtype": "uint16", "min": -0.17226091794725903, "scale": 5.482698938453135e-06, "original_dtype": "float32"}}, {"name": "conv2d_5/bias", "shape": [32], "dtype": "float32", "quantization": {"dtype": "uint16", "min": -0.02886501302890195, "scale": 1.1438030206412248e-06, "original_dtype": "float32"}}, {"name": "conv2d_6/kernel", "shape": [3, 3, 32, 64], "dtype": "float32", "quantization": {"dtype": "uint16", "min": -0.13162922658190498, "scale": 3.9850209373589954e-06, "original_dtype": "float32"}}, {"name": "conv2d_6/bias", "shape": [64], "dtype": "float32", "quantization": {"dtype": "uint16", "min": -0.07773783093791145, "scale": 2.0051544001112087e-06, "original_dtype": "float32"}}, {"name": "conv2d_7/kernel", "shape": [3, 3, 64, 128], "dtype": "float32", "quantization": {"dtype": "uint16", "min": -0.11887506742806023, "scale": 3.5108853607035125e-06, "original_dtype": "float32"}}, {"name": "conv2d_7/bias", "shape": [128], "dtype": "float32", "quantization": {"dtype": "uint16", "min": -0.04623734967316544, "scale": 1.1749383699632922e-06, "original_dtype": "float32"}}, {"name": "conv2d_8/kernel", "shape": [3, 3, 128, 256], "dtype": "float32", "quantization": {"dtype": "uint16", "min": -0.11452645449759513, "scale": 3.0135368513207853e-06, "original_dtype": "float32"}}, {"name": "conv2d_8/bias", "shape": [256], "dtype": "float32", "quantization": {"dtype": "uint16", "min": -0.04198384538606666, "scale": 8.470291204871616e-07, "original_dtype": "float32"}}, {"name": "conv2d_9/kernel", "shape": [3, 3, 3, 16], "dtype": "float32", "quantization": {"dtype": "uint16", "min": -0.1956345749986411, "scale": 6.082219026850337e-06, "original_dtype": "float32"}}, {"name": "conv2d_9/bias", "shape": [16], "dtype": "float32", "quantization": {"dtype": "uint16", "min": -0.010461763281295873, "scale": 9.322547924876022e-07, "original_dtype": "float32"}}, {"name": "dense/kernel", "shape": [20736, 256], "dtype": "float32", "quantization": {"dtype": "uint16", "min": -0.02109875996909257, "scale": 6.445321511865762e-07, "original_dtype": "float32"}}, {"name": "dense/bias", "shape": [256], "dtype": "float32", "quantization": {"dtype": "uint16", "min": -0.0003985693744718814, "scale": 1.2621342489372095e-08, "original_dtype": "float32"}}, {"name": "dense_1/kernel", "shape": [256, 7], "dtype": "float32", "quantization": {"dtype": "uint16", "min": -0.36343109841440235, "scale": 9.12341153293341e-06, "original_dtype": "float32"}}, {"name": "dense_1/bias", "shape": [7], "dtype": "float32", "quantization": {"dtype": "uint16", "min": -0.056112768954831256, "scale": 1.3668372336937922e-06, "original_dtype": "float32"}}, {"name": "dense_10/kernel", "shape": [20736, 256], "dtype": "float32", "quantization": {"dtype": "uint16", "min": -0.09408805796526531, "scale": 2.58789388467875e-06, "original_dtype": "float32"}}, {"name": "dense_10/bias", "shape": [256], "dtype": "float32", "quantization": {"dtype": "uint16", "min": -0.04096858591731475, "scale": 1.1352097846245323e-06, "original_dtype": "float32"}}, {"name": "dense_11/kernel", "shape": [256, 2], "dtype": "float32", "quantization": {"dtype": "uint16", "min": -0.22658723698443076, "scale": 7.0309751756114675e-06, "original_dtype": "float32"}}, {"name": "dense_11/bias", "shape": [2], "dtype": "float32", "quantization": {"dtype": "uint16", "min": -0.17136230953381645, "scale": 5.280810771458134e-06, "original_dtype": "float32"}}, {"name": "dense_2/kernel", "shape": [4096, 256], "dtype": "float32", "quantization": {"dtype": "uint16", "min": -0.09653063804431904, "scale": 2.8974258027469994e-06, "original_dtype": "float32"}}, {"name": "dense_2/bias", "shape": [256], "dtype": "float32", "quantization": {"dtype": "uint16", "min": -0.02453079194141997, "scale": 8.117134423553148e-07, "original_dtype": "float32"}}, {"name": "dense_3/kernel", "shape": [256, 5], "dtype": "float32", "quantization": {"dtype": "uint16", "min": -0.19803829482702767, "scale": 5.743903208626593e-06, "original_dtype": "float32"}}, {"name": "dense_3/bias", "shape": [5], "dtype": "float32", "quantization": {"dtype": "uint16", "min": -0.12075023631204809, "scale": 3.3474782743415418e-06, "original_dtype": "float32"}}, {"name": "dense_4/kernel", "shape": [20736, 256], "dtype": "float32", "quantization": {"dtype": "uint16", "min": -0.0709064906809635, "scale": 2.0731679633051723e-06, "original_dtype": "float32"}}, {"name": "dense_4/bias", "shape": [256], "dtype": "float32", "quantization": {"dtype": "uint16", "min": -0.02213617026973, "scale": 5.992141808708245e-07, "original_dtype": "float32"}}, {"name": "dense_5/kernel", "shape": [256, 2], "dtype": "float32", "quantization": {"dtype": "uint16", "min": -0.23081988419544747, "scale": 6.937569781354557e-06, "original_dtype": "float32"}}, {"name": "dense_5/bias", "shape": [2], "dtype": "float32", "quantization": {"dtype": "uint16", "min": -0.11279879497101117, "scale": 3.453940687458239e-06, "original_dtype": "float32"}}, {"name": "dense_6/kernel", "shape": [20736, 256], "dtype": "float32", "quantization": {"dtype": "uint16", "min": -0.08525056996493406, "scale": 2.4458634332214622e-06, "original_dtype": "float32"}}, {"name": "dense_6/bias", "shape": [256], "dtype": "float32", "quantization": {"dtype": "uint16", "min": -0.015513031739970932, "scale": 5.356894830612567e-07, "original_dtype": "float32"}}, {"name": "dense_7/kernel", "shape": [256, 4], "dtype": "float32", "quantization": {"dtype": "uint16", "min": -0.2625112224404632, "scale": 7.484282892101588e-06, "original_dtype": "float32"}}, {"name": "dense_7/bias", "shape": [4], "dtype": "float32", "quantization": {"dtype": "uint16", "min": -0.11875937606153385, "scale": 2.589098869858376e-06, "original_dtype": "float32"}}, {"name": "dense_8/kernel", "shape": [20736, 256], "dtype": "float32", "quantization": {"dtype": "uint16", "min": -0.08728696030317404, "scale": 2.351797394669919e-06, "original_dtype": "float32"}}, {"name": "dense_8/bias", "shape": [256], "dtype": "float32", "quantization": {"dtype": "uint16", "min": -0.032979627209401126, "scale": 9.041955148708978e-07, "original_dtype": "float32"}}, {"name": "dense_9/kernel", "shape": [256, 2], "dtype": "float32", "quantization": {"dtype": "uint16", "min": -0.2336069185241569, "scale": 7.264348483243887e-06, "original_dtype": "float32"}}, {"name": "dense_9/bias", "shape": [2], "dtype": "float32", "quantization": {"dtype": "uint16", "min": -0.1760531959830555, "scale": 5.3714057842035485e-06, "original_dtype": "float32"}}]}]}