{"format": "layers-model", "generatedBy": "keras v2.8.0", "convertedBy": "TensorFlow.js Converter v3.20.0", "modelTopology": {"keras_version": "2.8.0", "backend": "tensorflow", "model_config": {"class_name": "Model", "config": {"name": "face_descriptor_by_rebeca", "layers": [{"class_name": "InputLayer", "config": {"batch_input_shape": [null, 218, 218, 3], "dtype": "float32", "sparse": false, "ragged": false, "name": "input_19"}, "name": "input_19", "inbound_nodes": []}, {"class_name": "Conv2D", "config": {"name": "conv2d_148", "trainable": true, "dtype": "float32", "filters": 16, "kernel_size": [3, 3], "strides": [1, 1], "padding": "same", "data_format": "channels_last", "dilation_rate": [1, 1], "groups": 1, "activation": "linear", "use_bias": true, "kernel_initializer": {"class_name": "GlorotUniform", "config": {"seed": null}}, "bias_initializer": {"class_name": "Zeros", "config": {}}, "kernel_regularizer": null, "bias_regularizer": null, "activity_regularizer": null, "kernel_constraint": null, "bias_constraint": null}, "name": "conv2d_148", "inbound_nodes": [[["input_19", 0, 0, {}]]]}, {"class_name": "Activation", "config": {"name": "activation_61", "trainable": true, "dtype": "float32", "activation": "relu"}, "name": "activation_61", "inbound_nodes": [[["conv2d_148", 0, 0, {}]]]}, {"class_name": "BatchNormalization", "config": {"name": "batch_normalization_61", "trainable": true, "dtype": "float32", "axis": [3], "momentum": 0.99, "epsilon": 0.001, "center": true, "scale": true, "beta_initializer": {"class_name": "Zeros", "config": {}}, "gamma_initializer": {"class_name": "Ones", "config": {}}, "moving_mean_initializer": {"class_name": "Zeros", "config": {}}, "moving_variance_initializer": {"class_name": "Ones", "config": {}}, "beta_regularizer": null, "gamma_regularizer": null, "beta_constraint": null, "gamma_constraint": null}, "name": "batch_normalization_61", "inbound_nodes": [[["activation_61", 0, 0, {}]]]}, {"class_name": "MaxPooling2D", "config": {"name": "max_pooling2d_94", "trainable": true, "dtype": "float32", "pool_size": [3, 3], "padding": "valid", "strides": [3, 3], "data_format": "channels_last"}, "name": "max_pooling2d_94", "inbound_nodes": [[["batch_normalization_61", 0, 0, {}]]]}, {"class_name": "Dropout", "config": {"name": "dropout_80", "trainable": true, "dtype": "float32", "rate": 0.25, "noise_shape": null, "seed": null}, "name": "dropout_80", "inbound_nodes": [[["max_pooling2d_94", 0, 0, {}]]]}, {"class_name": "Conv2D", "config": {"name": "conv2d_149", "trainable": true, "dtype": "float32", "filters": 32, "kernel_size": [3, 3], "strides": [1, 1], "padding": "same", "data_format": "channels_last", "dilation_rate": [1, 1], "groups": 1, "activation": "linear", "use_bias": true, "kernel_initializer": {"class_name": "GlorotUniform", "config": {"seed": null}}, "bias_initializer": {"class_name": "Zeros", "config": {}}, "kernel_regularizer": null, "bias_regularizer": null, "activity_regularizer": null, "kernel_constraint": null, "bias_constraint": null}, "name": "conv2d_149", "inbound_nodes": [[["dropout_80", 0, 0, {}]]]}, {"class_name": "Activation", "config": {"name": "activation_62", "trainable": true, "dtype": "float32", "activation": "relu"}, "name": "activation_62", "inbound_nodes": [[["conv2d_149", 0, 0, {}]]]}, {"class_name": "BatchNormalization", "config": {"name": "batch_normalization_62", "trainable": true, "dtype": "float32", "axis": [3], "momentum": 0.99, "epsilon": 0.001, "center": true, "scale": true, "beta_initializer": {"class_name": "Zeros", "config": {}}, "gamma_initializer": {"class_name": "Ones", "config": {}}, "moving_mean_initializer": {"class_name": "Zeros", "config": {}}, "moving_variance_initializer": {"class_name": "Ones", "config": {}}, "beta_regularizer": null, "gamma_regularizer": null, "beta_constraint": null, "gamma_constraint": null}, "name": "batch_normalization_62", "inbound_nodes": [[["activation_62", 0, 0, {}]]]}, {"class_name": "MaxPooling2D", "config": {"name": "max_pooling2d_95", "trainable": true, "dtype": "float32", "pool_size": [2, 2], "padding": "valid", "strides": [2, 2], "data_format": "channels_last"}, "name": "max_pooling2d_95", "inbound_nodes": [[["batch_normalization_62", 0, 0, {}]]]}, {"class_name": "Dropout", "config": {"name": "dropout_81", "trainable": true, "dtype": "float32", "rate": 0.25, "noise_shape": null, "seed": null}, "name": "dropout_81", "inbound_nodes": [[["max_pooling2d_95", 0, 0, {}]]]}, {"class_name": "Conv2D", "config": {"name": "conv2d_150", "trainable": true, "dtype": "float32", "filters": 32, "kernel_size": [3, 3], "strides": [1, 1], "padding": "same", "data_format": "channels_last", "dilation_rate": [1, 1], "groups": 1, "activation": "linear", "use_bias": true, "kernel_initializer": {"class_name": "GlorotUniform", "config": {"seed": null}}, "bias_initializer": {"class_name": "Zeros", "config": {}}, "kernel_regularizer": null, "bias_regularizer": null, "activity_regularizer": null, "kernel_constraint": null, "bias_constraint": null}, "name": "conv2d_150", "inbound_nodes": [[["dropout_81", 0, 0, {}]]]}, {"class_name": "Conv2D", "config": {"name": "conv2d_144", "trainable": true, "dtype": "float32", "filters": 16, "kernel_size": [3, 3], "strides": [1, 1], "padding": "same", "data_format": "channels_last", "dilation_rate": [1, 1], "groups": 1, "activation": "linear", "use_bias": true, "kernel_initializer": {"class_name": "GlorotUniform", "config": {"seed": null}}, "bias_initializer": {"class_name": "Zeros", "config": {}}, "kernel_regularizer": null, "bias_regularizer": null, "activity_regularizer": null, "kernel_constraint": null, "bias_constraint": null}, "name": "conv2d_144", "inbound_nodes": [[["input_19", 0, 0, {}]]]}, {"class_name": "Activation", "config": {"name": "activation_63", "trainable": true, "dtype": "float32", "activation": "relu"}, "name": "activation_63", "inbound_nodes": [[["conv2d_150", 0, 0, {}]]]}, {"class_name": "Activation", "config": {"name": "activation_56", "trainable": true, "dtype": "float32", "activation": "relu"}, "name": "activation_56", "inbound_nodes": [[["conv2d_144", 0, 0, {}]]]}, {"class_name": "BatchNormalization", "config": {"name": "batch_normalization_63", "trainable": true, "dtype": "float32", "axis": [3], "momentum": 0.99, "epsilon": 0.001, "center": true, "scale": true, "beta_initializer": {"class_name": "Zeros", "config": {}}, "gamma_initializer": {"class_name": "Ones", "config": {}}, "moving_mean_initializer": {"class_name": "Zeros", "config": {}}, "moving_variance_initializer": {"class_name": "Ones", "config": {}}, "beta_regularizer": null, "gamma_regularizer": null, "beta_constraint": null, "gamma_constraint": null}, "name": "batch_normalization_63", "inbound_nodes": [[["activation_63", 0, 0, {}]]]}, {"class_name": "BatchNormalization", "config": {"name": "batch_normalization_56", "trainable": true, "dtype": "float32", "axis": [3], "momentum": 0.99, "epsilon": 0.001, "center": true, "scale": true, "beta_initializer": {"class_name": "Zeros", "config": {}}, "gamma_initializer": {"class_name": "Ones", "config": {}}, "moving_mean_initializer": {"class_name": "Zeros", "config": {}}, "moving_variance_initializer": {"class_name": "Ones", "config": {}}, "beta_regularizer": null, "gamma_regularizer": null, "beta_constraint": null, "gamma_constraint": null}, "name": "batch_normalization_56", "inbound_nodes": [[["activation_56", 0, 0, {}]]]}, {"class_name": "MaxPooling2D", "config": {"name": "max_pooling2d_96", "trainable": true, "dtype": "float32", "pool_size": [2, 2], "padding": "valid", "strides": [2, 2], "data_format": "channels_last"}, "name": "max_pooling2d_96", "inbound_nodes": [[["batch_normalization_63", 0, 0, {}]]]}, {"class_name": "MaxPooling2D", "config": {"name": "max_pooling2d_90", "trainable": true, "dtype": "float32", "pool_size": [3, 3], "padding": "valid", "strides": [3, 3], "data_format": "channels_last"}, "name": "max_pooling2d_90", "inbound_nodes": [[["batch_normalization_56", 0, 0, {}]]]}, {"class_name": "Dropout", "config": {"name": "dropout_82", "trainable": true, "dtype": "float32", "rate": 0.25, "noise_shape": null, "seed": null}, "name": "dropout_82", "inbound_nodes": [[["max_pooling2d_96", 0, 0, {}]]]}, {"class_name": "Conv2D", "config": {"name": "conv2d_159", "trainable": true, "dtype": "float32", "filters": 16, "kernel_size": [3, 3], "strides": [1, 1], "padding": "same", "data_format": "channels_last", "dilation_rate": [1, 1], "groups": 1, "activation": "linear", "use_bias": true, "kernel_initializer": {"class_name": "GlorotUniform", "config": {"seed": null}}, "bias_initializer": {"class_name": "Zeros", "config": {}}, "kernel_regularizer": null, "bias_regularizer": null, "activity_regularizer": null, "kernel_constraint": null, "bias_constraint": null}, "name": "conv2d_159", "inbound_nodes": [[["input_19", 0, 0, {}]]]}, {"class_name": "Conv2D", "config": {"name": "conv2d_164", "trainable": true, "dtype": "float32", "filters": 16, "kernel_size": [3, 3], "strides": [1, 1], "padding": "same", "data_format": "channels_last", "dilation_rate": [1, 1], "groups": 1, "activation": "linear", "use_bias": true, "kernel_initializer": {"class_name": "GlorotUniform", "config": {"seed": null}}, "bias_initializer": {"class_name": "Zeros", "config": {}}, "kernel_regularizer": null, "bias_regularizer": null, "activity_regularizer": null, "kernel_constraint": null, "bias_constraint": null}, "name": "conv2d_164", "inbound_nodes": [[["input_19", 0, 0, {}]]]}, {"class_name": "Conv2D", "config": {"name": "conv2d_169", "trainable": true, "dtype": "float32", "filters": 16, "kernel_size": [3, 3], "strides": [1, 1], "padding": "same", "data_format": "channels_last", "dilation_rate": [1, 1], "groups": 1, "activation": "linear", "use_bias": true, "kernel_initializer": {"class_name": "GlorotUniform", "config": {"seed": null}}, "bias_initializer": {"class_name": "Zeros", "config": {}}, "kernel_regularizer": null, "bias_regularizer": null, "activity_regularizer": null, "kernel_constraint": null, "bias_constraint": null}, "name": "conv2d_169", "inbound_nodes": [[["input_19", 0, 0, {}]]]}, {"class_name": "Conv2D", "config": {"name": "conv2d_174", "trainable": true, "dtype": "float32", "filters": 16, "kernel_size": [3, 3], "strides": [1, 1], "padding": "same", "data_format": "channels_last", "dilation_rate": [1, 1], "groups": 1, "activation": "linear", "use_bias": true, "kernel_initializer": {"class_name": "GlorotUniform", "config": {"seed": null}}, "bias_initializer": {"class_name": "Zeros", "config": {}}, "kernel_regularizer": null, "bias_regularizer": null, "activity_regularizer": null, "kernel_constraint": null, "bias_constraint": null}, "name": "conv2d_174", "inbound_nodes": [[["input_19", 0, 0, {}]]]}, {"class_name": "Dropout", "config": {"name": "dropout_74", "trainable": true, "dtype": "float32", "rate": 0.25, "noise_shape": null, "seed": null}, "name": "dropout_74", "inbound_nodes": [[["max_pooling2d_90", 0, 0, {}]]]}, {"class_name": "Conv2D", "config": {"name": "conv2d_151", "trainable": true, "dtype": "float32", "filters": 512, "kernel_size": [3, 3], "strides": [1, 1], "padding": "same", "data_format": "channels_last", "dilation_rate": [1, 1], "groups": 1, "activation": "relu", "use_bias": true, "kernel_initializer": {"class_name": "GlorotUniform", "config": {"seed": null}}, "bias_initializer": {"class_name": "Zeros", "config": {}}, "kernel_regularizer": null, "bias_regularizer": null, "activity_regularizer": null, "kernel_constraint": null, "bias_constraint": null}, "name": "conv2d_151", "inbound_nodes": [[["dropout_82", 0, 0, {}]]]}, {"class_name": "Activation", "config": {"name": "activation_66", "trainable": true, "dtype": "float32", "activation": "relu"}, "name": "activation_66", "inbound_nodes": [[["conv2d_159", 0, 0, {}]]]}, {"class_name": "Activation", "config": {"name": "activation_70", "trainable": true, "dtype": "float32", "activation": "relu"}, "name": "activation_70", "inbound_nodes": [[["conv2d_164", 0, 0, {}]]]}, {"class_name": "Activation", "config": {"name": "activation_74", "trainable": true, "dtype": "float32", "activation": "relu"}, "name": "activation_74", "inbound_nodes": [[["conv2d_169", 0, 0, {}]]]}, {"class_name": "Activation", "config": {"name": "activation_78", "trainable": true, "dtype": "float32", "activation": "relu"}, "name": "activation_78", "inbound_nodes": [[["conv2d_174", 0, 0, {}]]]}, {"class_name": "Conv2D", "config": {"name": "conv2d_145", "trainable": true, "dtype": "float32", "filters": 32, "kernel_size": [3, 3], "strides": [1, 1], "padding": "same", "data_format": "channels_last", "dilation_rate": [1, 1], "groups": 1, "activation": "linear", "use_bias": true, "kernel_initializer": {"class_name": "GlorotUniform", "config": {"seed": null}}, "bias_initializer": {"class_name": "Zeros", "config": {}}, "kernel_regularizer": null, "bias_regularizer": null, "activity_regularizer": null, "kernel_constraint": null, "bias_constraint": null}, "name": "conv2d_145", "inbound_nodes": [[["dropout_74", 0, 0, {}]]]}, {"class_name": "Conv2D", "config": {"name": "conv2d_152", "trainable": true, "dtype": "float32", "filters": 512, "kernel_size": [3, 3], "strides": [1, 1], "padding": "same", "data_format": "channels_last", "dilation_rate": [1, 1], "groups": 1, "activation": "relu", "use_bias": true, "kernel_initializer": {"class_name": "GlorotUniform", "config": {"seed": null}}, "bias_initializer": {"class_name": "Zeros", "config": {}}, "kernel_regularizer": null, "bias_regularizer": null, "activity_regularizer": null, "kernel_constraint": null, "bias_constraint": null}, "name": "conv2d_152", "inbound_nodes": [[["conv2d_151", 0, 0, {}]]]}, {"class_name": "BatchNormalization", "config": {"name": "batch_normalization_66", "trainable": true, "dtype": "float32", "axis": [3], "momentum": 0.99, "epsilon": 0.001, "center": true, "scale": true, "beta_initializer": {"class_name": "Zeros", "config": {}}, "gamma_initializer": {"class_name": "Ones", "config": {}}, "moving_mean_initializer": {"class_name": "Zeros", "config": {}}, "moving_variance_initializer": {"class_name": "Ones", "config": {}}, "beta_regularizer": null, "gamma_regularizer": null, "beta_constraint": null, "gamma_constraint": null}, "name": "batch_normalization_66", "inbound_nodes": [[["activation_66", 0, 0, {}]]]}, {"class_name": "BatchNormalization", "config": {"name": "batch_normalization_70", "trainable": true, "dtype": "float32", "axis": [3], "momentum": 0.99, "epsilon": 0.001, "center": true, "scale": true, "beta_initializer": {"class_name": "Zeros", "config": {}}, "gamma_initializer": {"class_name": "Ones", "config": {}}, "moving_mean_initializer": {"class_name": "Zeros", "config": {}}, "moving_variance_initializer": {"class_name": "Ones", "config": {}}, "beta_regularizer": null, "gamma_regularizer": null, "beta_constraint": null, "gamma_constraint": null}, "name": "batch_normalization_70", "inbound_nodes": [[["activation_70", 0, 0, {}]]]}, {"class_name": "BatchNormalization", "config": {"name": "batch_normalization_74", "trainable": true, "dtype": "float32", "axis": [3], "momentum": 0.99, "epsilon": 0.001, "center": true, "scale": true, "beta_initializer": {"class_name": "Zeros", "config": {}}, "gamma_initializer": {"class_name": "Ones", "config": {}}, "moving_mean_initializer": {"class_name": "Zeros", "config": {}}, "moving_variance_initializer": {"class_name": "Ones", "config": {}}, "beta_regularizer": null, "gamma_regularizer": null, "beta_constraint": null, "gamma_constraint": null}, "name": "batch_normalization_74", "inbound_nodes": [[["activation_74", 0, 0, {}]]]}, {"class_name": "BatchNormalization", "config": {"name": "batch_normalization_78", "trainable": true, "dtype": "float32", "axis": [3], "momentum": 0.99, "epsilon": 0.001, "center": true, "scale": true, "beta_initializer": {"class_name": "Zeros", "config": {}}, "gamma_initializer": {"class_name": "Ones", "config": {}}, "moving_mean_initializer": {"class_name": "Zeros", "config": {}}, "moving_variance_initializer": {"class_name": "Ones", "config": {}}, "beta_regularizer": null, "gamma_regularizer": null, "beta_constraint": null, "gamma_constraint": null}, "name": "batch_normalization_78", "inbound_nodes": [[["activation_78", 0, 0, {}]]]}, {"class_name": "Activation", "config": {"name": "activation_57", "trainable": true, "dtype": "float32", "activation": "relu"}, "name": "activation_57", "inbound_nodes": [[["conv2d_145", 0, 0, {}]]]}, {"class_name": "MaxPooling2D", "config": {"name": "max_pooling2d_97", "trainable": true, "dtype": "float32", "pool_size": [2, 2], "padding": "valid", "strides": [2, 2], "data_format": "channels_last"}, "name": "max_pooling2d_97", "inbound_nodes": [[["conv2d_152", 0, 0, {}]]]}, {"class_name": "MaxPooling2D", "config": {"name": "max_pooling2d_101", "trainable": true, "dtype": "float32", "pool_size": [3, 3], "padding": "valid", "strides": [3, 3], "data_format": "channels_last"}, "name": "max_pooling2d_101", "inbound_nodes": [[["batch_normalization_66", 0, 0, {}]]]}, {"class_name": "MaxPooling2D", "config": {"name": "max_pooling2d_105", "trainable": true, "dtype": "float32", "pool_size": [3, 3], "padding": "valid", "strides": [3, 3], "data_format": "channels_last"}, "name": "max_pooling2d_105", "inbound_nodes": [[["batch_normalization_70", 0, 0, {}]]]}, {"class_name": "MaxPooling2D", "config": {"name": "max_pooling2d_109", "trainable": true, "dtype": "float32", "pool_size": [3, 3], "padding": "valid", "strides": [3, 3], "data_format": "channels_last"}, "name": "max_pooling2d_109", "inbound_nodes": [[["batch_normalization_74", 0, 0, {}]]]}, {"class_name": "MaxPooling2D", "config": {"name": "max_pooling2d_113", "trainable": true, "dtype": "float32", "pool_size": [3, 3], "padding": "valid", "strides": [3, 3], "data_format": "channels_last"}, "name": "max_pooling2d_113", "inbound_nodes": [[["batch_normalization_78", 0, 0, {}]]]}, {"class_name": "BatchNormalization", "config": {"name": "batch_normalization_57", "trainable": true, "dtype": "float32", "axis": [3], "momentum": 0.99, "epsilon": 0.001, "center": true, "scale": true, "beta_initializer": {"class_name": "Zeros", "config": {}}, "gamma_initializer": {"class_name": "Ones", "config": {}}, "moving_mean_initializer": {"class_name": "Zeros", "config": {}}, "moving_variance_initializer": {"class_name": "Ones", "config": {}}, "beta_regularizer": null, "gamma_regularizer": null, "beta_constraint": null, "gamma_constraint": null}, "name": "batch_normalization_57", "inbound_nodes": [[["activation_57", 0, 0, {}]]]}, {"class_name": "Conv2D", "config": {"name": "conv2d_153", "trainable": true, "dtype": "float32", "filters": 512, "kernel_size": [3, 3], "strides": [1, 1], "padding": "same", "data_format": "channels_last", "dilation_rate": [1, 1], "groups": 1, "activation": "relu", "use_bias": true, "kernel_initializer": {"class_name": "GlorotUniform", "config": {"seed": null}}, "bias_initializer": {"class_name": "Zeros", "config": {}}, "kernel_regularizer": null, "bias_regularizer": null, "activity_regularizer": null, "kernel_constraint": null, "bias_constraint": null}, "name": "conv2d_153", "inbound_nodes": [[["max_pooling2d_97", 0, 0, {}]]]}, {"class_name": "Dropout", "config": {"name": "dropout_87", "trainable": true, "dtype": "float32", "rate": 0.25, "noise_shape": null, "seed": null}, "name": "dropout_87", "inbound_nodes": [[["max_pooling2d_101", 0, 0, {}]]]}, {"class_name": "Dropout", "config": {"name": "dropout_92", "trainable": true, "dtype": "float32", "rate": 0.25, "noise_shape": null, "seed": null}, "name": "dropout_92", "inbound_nodes": [[["max_pooling2d_105", 0, 0, {}]]]}, {"class_name": "Dropout", "config": {"name": "dropout_97", "trainable": true, "dtype": "float32", "rate": 0.25, "noise_shape": null, "seed": null}, "name": "dropout_97", "inbound_nodes": [[["max_pooling2d_109", 0, 0, {}]]]}, {"class_name": "Dropout", "config": {"name": "dropout_102", "trainable": true, "dtype": "float32", "rate": 0.25, "noise_shape": null, "seed": null}, "name": "dropout_102", "inbound_nodes": [[["max_pooling2d_113", 0, 0, {}]]]}, {"class_name": "MaxPooling2D", "config": {"name": "max_pooling2d_91", "trainable": true, "dtype": "float32", "pool_size": [2, 2], "padding": "valid", "strides": [2, 2], "data_format": "channels_last"}, "name": "max_pooling2d_91", "inbound_nodes": [[["batch_normalization_57", 0, 0, {}]]]}, {"class_name": "Conv2D", "config": {"name": "conv2d_154", "trainable": true, "dtype": "float32", "filters": 512, "kernel_size": [3, 3], "strides": [1, 1], "padding": "same", "data_format": "channels_last", "dilation_rate": [1, 1], "groups": 1, "activation": "relu", "use_bias": true, "kernel_initializer": {"class_name": "GlorotUniform", "config": {"seed": null}}, "bias_initializer": {"class_name": "Zeros", "config": {}}, "kernel_regularizer": null, "bias_regularizer": null, "activity_regularizer": null, "kernel_constraint": null, "bias_constraint": null}, "name": "conv2d_154", "inbound_nodes": [[["conv2d_153", 0, 0, {}]]]}, {"class_name": "Conv2D", "config": {"name": "conv2d_160", "trainable": true, "dtype": "float32", "filters": 32, "kernel_size": [3, 3], "strides": [1, 1], "padding": "same", "data_format": "channels_last", "dilation_rate": [1, 1], "groups": 1, "activation": "linear", "use_bias": true, "kernel_initializer": {"class_name": "GlorotUniform", "config": {"seed": null}}, "bias_initializer": {"class_name": "Zeros", "config": {}}, "kernel_regularizer": null, "bias_regularizer": null, "activity_regularizer": null, "kernel_constraint": null, "bias_constraint": null}, "name": "conv2d_160", "inbound_nodes": [[["dropout_87", 0, 0, {}]]]}, {"class_name": "Conv2D", "config": {"name": "conv2d_165", "trainable": true, "dtype": "float32", "filters": 32, "kernel_size": [3, 3], "strides": [1, 1], "padding": "same", "data_format": "channels_last", "dilation_rate": [1, 1], "groups": 1, "activation": "linear", "use_bias": true, "kernel_initializer": {"class_name": "GlorotUniform", "config": {"seed": null}}, "bias_initializer": {"class_name": "Zeros", "config": {}}, "kernel_regularizer": null, "bias_regularizer": null, "activity_regularizer": null, "kernel_constraint": null, "bias_constraint": null}, "name": "conv2d_165", "inbound_nodes": [[["dropout_92", 0, 0, {}]]]}, {"class_name": "Conv2D", "config": {"name": "conv2d_170", "trainable": true, "dtype": "float32", "filters": 32, "kernel_size": [3, 3], "strides": [1, 1], "padding": "same", "data_format": "channels_last", "dilation_rate": [1, 1], "groups": 1, "activation": "linear", "use_bias": true, "kernel_initializer": {"class_name": "GlorotUniform", "config": {"seed": null}}, "bias_initializer": {"class_name": "Zeros", "config": {}}, "kernel_regularizer": null, "bias_regularizer": null, "activity_regularizer": null, "kernel_constraint": null, "bias_constraint": null}, "name": "conv2d_170", "inbound_nodes": [[["dropout_97", 0, 0, {}]]]}, {"class_name": "Conv2D", "config": {"name": "conv2d_175", "trainable": true, "dtype": "float32", "filters": 32, "kernel_size": [3, 3], "strides": [1, 1], "padding": "same", "data_format": "channels_last", "dilation_rate": [1, 1], "groups": 1, "activation": "linear", "use_bias": true, "kernel_initializer": {"class_name": "GlorotUniform", "config": {"seed": null}}, "bias_initializer": {"class_name": "Zeros", "config": {}}, "kernel_regularizer": null, "bias_regularizer": null, "activity_regularizer": null, "kernel_constraint": null, "bias_constraint": null}, "name": "conv2d_175", "inbound_nodes": [[["dropout_102", 0, 0, {}]]]}, {"class_name": "Dropout", "config": {"name": "dropout_75", "trainable": true, "dtype": "float32", "rate": 0.25, "noise_shape": null, "seed": null}, "name": "dropout_75", "inbound_nodes": [[["max_pooling2d_91", 0, 0, {}]]]}, {"class_name": "MaxPooling2D", "config": {"name": "max_pooling2d_98", "trainable": true, "dtype": "float32", "pool_size": [2, 2], "padding": "valid", "strides": [2, 2], "data_format": "channels_last"}, "name": "max_pooling2d_98", "inbound_nodes": [[["conv2d_154", 0, 0, {}]]]}, {"class_name": "Activation", "config": {"name": "activation_67", "trainable": true, "dtype": "float32", "activation": "relu"}, "name": "activation_67", "inbound_nodes": [[["conv2d_160", 0, 0, {}]]]}, {"class_name": "Activation", "config": {"name": "activation_71", "trainable": true, "dtype": "float32", "activation": "relu"}, "name": "activation_71", "inbound_nodes": [[["conv2d_165", 0, 0, {}]]]}, {"class_name": "Activation", "config": {"name": "activation_75", "trainable": true, "dtype": "float32", "activation": "relu"}, "name": "activation_75", "inbound_nodes": [[["conv2d_170", 0, 0, {}]]]}, {"class_name": "Activation", "config": {"name": "activation_79", "trainable": true, "dtype": "float32", "activation": "relu"}, "name": "activation_79", "inbound_nodes": [[["conv2d_175", 0, 0, {}]]]}, {"class_name": "Conv2D", "config": {"name": "conv2d_146", "trainable": true, "dtype": "float32", "filters": 32, "kernel_size": [3, 3], "strides": [1, 1], "padding": "same", "data_format": "channels_last", "dilation_rate": [1, 1], "groups": 1, "activation": "linear", "use_bias": true, "kernel_initializer": {"class_name": "GlorotUniform", "config": {"seed": null}}, "bias_initializer": {"class_name": "Zeros", "config": {}}, "kernel_regularizer": null, "bias_regularizer": null, "activity_regularizer": null, "kernel_constraint": null, "bias_constraint": null}, "name": "conv2d_146", "inbound_nodes": [[["dropout_75", 0, 0, {}]]]}, {"class_name": "Dropout", "config": {"name": "dropout_83", "trainable": true, "dtype": "float32", "rate": 0.2, "noise_shape": null, "seed": null}, "name": "dropout_83", "inbound_nodes": [[["max_pooling2d_98", 0, 0, {}]]]}, {"class_name": "BatchNormalization", "config": {"name": "batch_normalization_67", "trainable": true, "dtype": "float32", "axis": [3], "momentum": 0.99, "epsilon": 0.001, "center": true, "scale": true, "beta_initializer": {"class_name": "Zeros", "config": {}}, "gamma_initializer": {"class_name": "Ones", "config": {}}, "moving_mean_initializer": {"class_name": "Zeros", "config": {}}, "moving_variance_initializer": {"class_name": "Ones", "config": {}}, "beta_regularizer": null, "gamma_regularizer": null, "beta_constraint": null, "gamma_constraint": null}, "name": "batch_normalization_67", "inbound_nodes": [[["activation_67", 0, 0, {}]]]}, {"class_name": "BatchNormalization", "config": {"name": "batch_normalization_71", "trainable": true, "dtype": "float32", "axis": [3], "momentum": 0.99, "epsilon": 0.001, "center": true, "scale": true, "beta_initializer": {"class_name": "Zeros", "config": {}}, "gamma_initializer": {"class_name": "Ones", "config": {}}, "moving_mean_initializer": {"class_name": "Zeros", "config": {}}, "moving_variance_initializer": {"class_name": "Ones", "config": {}}, "beta_regularizer": null, "gamma_regularizer": null, "beta_constraint": null, "gamma_constraint": null}, "name": "batch_normalization_71", "inbound_nodes": [[["activation_71", 0, 0, {}]]]}, {"class_name": "BatchNormalization", "config": {"name": "batch_normalization_75", "trainable": true, "dtype": "float32", "axis": [3], "momentum": 0.99, "epsilon": 0.001, "center": true, "scale": true, "beta_initializer": {"class_name": "Zeros", "config": {}}, "gamma_initializer": {"class_name": "Ones", "config": {}}, "moving_mean_initializer": {"class_name": "Zeros", "config": {}}, "moving_variance_initializer": {"class_name": "Ones", "config": {}}, "beta_regularizer": null, "gamma_regularizer": null, "beta_constraint": null, "gamma_constraint": null}, "name": "batch_normalization_75", "inbound_nodes": [[["activation_75", 0, 0, {}]]]}, {"class_name": "BatchNormalization", "config": {"name": "batch_normalization_79", "trainable": true, "dtype": "float32", "axis": [3], "momentum": 0.99, "epsilon": 0.001, "center": true, "scale": true, "beta_initializer": {"class_name": "Zeros", "config": {}}, "gamma_initializer": {"class_name": "Ones", "config": {}}, "moving_mean_initializer": {"class_name": "Zeros", "config": {}}, "moving_variance_initializer": {"class_name": "Ones", "config": {}}, "beta_regularizer": null, "gamma_regularizer": null, "beta_constraint": null, "gamma_constraint": null}, "name": "batch_normalization_79", "inbound_nodes": [[["activation_79", 0, 0, {}]]]}, {"class_name": "Activation", "config": {"name": "activation_58", "trainable": true, "dtype": "float32", "activation": "relu"}, "name": "activation_58", "inbound_nodes": [[["conv2d_146", 0, 0, {}]]]}, {"class_name": "Conv2D", "config": {"name": "conv2d_155", "trainable": true, "dtype": "float32", "filters": 512, "kernel_size": [3, 3], "strides": [1, 1], "padding": "same", "data_format": "channels_last", "dilation_rate": [1, 1], "groups": 1, "activation": "relu", "use_bias": true, "kernel_initializer": {"class_name": "GlorotUniform", "config": {"seed": null}}, "bias_initializer": {"class_name": "Zeros", "config": {}}, "kernel_regularizer": null, "bias_regularizer": null, "activity_regularizer": null, "kernel_constraint": null, "bias_constraint": null}, "name": "conv2d_155", "inbound_nodes": [[["dropout_83", 0, 0, {}]]]}, {"class_name": "MaxPooling2D", "config": {"name": "max_pooling2d_102", "trainable": true, "dtype": "float32", "pool_size": [2, 2], "padding": "valid", "strides": [2, 2], "data_format": "channels_last"}, "name": "max_pooling2d_102", "inbound_nodes": [[["batch_normalization_67", 0, 0, {}]]]}, {"class_name": "MaxPooling2D", "config": {"name": "max_pooling2d_106", "trainable": true, "dtype": "float32", "pool_size": [2, 2], "padding": "valid", "strides": [2, 2], "data_format": "channels_last"}, "name": "max_pooling2d_106", "inbound_nodes": [[["batch_normalization_71", 0, 0, {}]]]}, {"class_name": "MaxPooling2D", "config": {"name": "max_pooling2d_110", "trainable": true, "dtype": "float32", "pool_size": [2, 2], "padding": "valid", "strides": [2, 2], "data_format": "channels_last"}, "name": "max_pooling2d_110", "inbound_nodes": [[["batch_normalization_75", 0, 0, {}]]]}, {"class_name": "MaxPooling2D", "config": {"name": "max_pooling2d_114", "trainable": true, "dtype": "float32", "pool_size": [2, 2], "padding": "valid", "strides": [2, 2], "data_format": "channels_last"}, "name": "max_pooling2d_114", "inbound_nodes": [[["batch_normalization_79", 0, 0, {}]]]}, {"class_name": "BatchNormalization", "config": {"name": "batch_normalization_58", "trainable": true, "dtype": "float32", "axis": [3], "momentum": 0.99, "epsilon": 0.001, "center": true, "scale": true, "beta_initializer": {"class_name": "Zeros", "config": {}}, "gamma_initializer": {"class_name": "Ones", "config": {}}, "moving_mean_initializer": {"class_name": "Zeros", "config": {}}, "moving_variance_initializer": {"class_name": "Ones", "config": {}}, "beta_regularizer": null, "gamma_regularizer": null, "beta_constraint": null, "gamma_constraint": null}, "name": "batch_normalization_58", "inbound_nodes": [[["activation_58", 0, 0, {}]]]}, {"class_name": "Conv2D", "config": {"name": "conv2d_156", "trainable": true, "dtype": "float32", "filters": 512, "kernel_size": [3, 3], "strides": [1, 1], "padding": "same", "data_format": "channels_last", "dilation_rate": [1, 1], "groups": 1, "activation": "relu", "use_bias": true, "kernel_initializer": {"class_name": "GlorotUniform", "config": {"seed": null}}, "bias_initializer": {"class_name": "Zeros", "config": {}}, "kernel_regularizer": null, "bias_regularizer": null, "activity_regularizer": null, "kernel_constraint": null, "bias_constraint": null}, "name": "conv2d_156", "inbound_nodes": [[["conv2d_155", 0, 0, {}]]]}, {"class_name": "Dropout", "config": {"name": "dropout_88", "trainable": true, "dtype": "float32", "rate": 0.25, "noise_shape": null, "seed": null}, "name": "dropout_88", "inbound_nodes": [[["max_pooling2d_102", 0, 0, {}]]]}, {"class_name": "Dropout", "config": {"name": "dropout_93", "trainable": true, "dtype": "float32", "rate": 0.25, "noise_shape": null, "seed": null}, "name": "dropout_93", "inbound_nodes": [[["max_pooling2d_106", 0, 0, {}]]]}, {"class_name": "Dropout", "config": {"name": "dropout_98", "trainable": true, "dtype": "float32", "rate": 0.25, "noise_shape": null, "seed": null}, "name": "dropout_98", "inbound_nodes": [[["max_pooling2d_110", 0, 0, {}]]]}, {"class_name": "Dropout", "config": {"name": "dropout_103", "trainable": true, "dtype": "float32", "rate": 0.25, "noise_shape": null, "seed": null}, "name": "dropout_103", "inbound_nodes": [[["max_pooling2d_114", 0, 0, {}]]]}, {"class_name": "MaxPooling2D", "config": {"name": "max_pooling2d_92", "trainable": true, "dtype": "float32", "pool_size": [2, 2], "padding": "valid", "strides": [2, 2], "data_format": "channels_last"}, "name": "max_pooling2d_92", "inbound_nodes": [[["batch_normalization_58", 0, 0, {}]]]}, {"class_name": "MaxPooling2D", "config": {"name": "max_pooling2d_99", "trainable": true, "dtype": "float32", "pool_size": [2, 2], "padding": "valid", "strides": [2, 2], "data_format": "channels_last"}, "name": "max_pooling2d_99", "inbound_nodes": [[["conv2d_156", 0, 0, {}]]]}, {"class_name": "Conv2D", "config": {"name": "conv2d_161", "trainable": true, "dtype": "float32", "filters": 32, "kernel_size": [3, 3], "strides": [1, 1], "padding": "same", "data_format": "channels_last", "dilation_rate": [1, 1], "groups": 1, "activation": "linear", "use_bias": true, "kernel_initializer": {"class_name": "GlorotUniform", "config": {"seed": null}}, "bias_initializer": {"class_name": "Zeros", "config": {}}, "kernel_regularizer": null, "bias_regularizer": null, "activity_regularizer": null, "kernel_constraint": null, "bias_constraint": null}, "name": "conv2d_161", "inbound_nodes": [[["dropout_88", 0, 0, {}]]]}, {"class_name": "Conv2D", "config": {"name": "conv2d_166", "trainable": true, "dtype": "float32", "filters": 32, "kernel_size": [3, 3], "strides": [1, 1], "padding": "same", "data_format": "channels_last", "dilation_rate": [1, 1], "groups": 1, "activation": "linear", "use_bias": true, "kernel_initializer": {"class_name": "GlorotUniform", "config": {"seed": null}}, "bias_initializer": {"class_name": "Zeros", "config": {}}, "kernel_regularizer": null, "bias_regularizer": null, "activity_regularizer": null, "kernel_constraint": null, "bias_constraint": null}, "name": "conv2d_166", "inbound_nodes": [[["dropout_93", 0, 0, {}]]]}, {"class_name": "Conv2D", "config": {"name": "conv2d_171", "trainable": true, "dtype": "float32", "filters": 32, "kernel_size": [3, 3], "strides": [1, 1], "padding": "same", "data_format": "channels_last", "dilation_rate": [1, 1], "groups": 1, "activation": "linear", "use_bias": true, "kernel_initializer": {"class_name": "GlorotUniform", "config": {"seed": null}}, "bias_initializer": {"class_name": "Zeros", "config": {}}, "kernel_regularizer": null, "bias_regularizer": null, "activity_regularizer": null, "kernel_constraint": null, "bias_constraint": null}, "name": "conv2d_171", "inbound_nodes": [[["dropout_98", 0, 0, {}]]]}, {"class_name": "Conv2D", "config": {"name": "conv2d_176", "trainable": true, "dtype": "float32", "filters": 32, "kernel_size": [3, 3], "strides": [1, 1], "padding": "same", "data_format": "channels_last", "dilation_rate": [1, 1], "groups": 1, "activation": "linear", "use_bias": true, "kernel_initializer": {"class_name": "GlorotUniform", "config": {"seed": null}}, "bias_initializer": {"class_name": "Zeros", "config": {}}, "kernel_regularizer": null, "bias_regularizer": null, "activity_regularizer": null, "kernel_constraint": null, "bias_constraint": null}, "name": "conv2d_176", "inbound_nodes": [[["dropout_103", 0, 0, {}]]]}, {"class_name": "Dropout", "config": {"name": "dropout_76", "trainable": true, "dtype": "float32", "rate": 0.25, "noise_shape": null, "seed": null}, "name": "dropout_76", "inbound_nodes": [[["max_pooling2d_92", 0, 0, {}]]]}, {"class_name": "Conv2D", "config": {"name": "conv2d_157", "trainable": true, "dtype": "float32", "filters": 512, "kernel_size": [3, 3], "strides": [1, 1], "padding": "same", "data_format": "channels_last", "dilation_rate": [1, 1], "groups": 1, "activation": "relu", "use_bias": true, "kernel_initializer": {"class_name": "GlorotUniform", "config": {"seed": null}}, "bias_initializer": {"class_name": "Zeros", "config": {}}, "kernel_regularizer": null, "bias_regularizer": null, "activity_regularizer": null, "kernel_constraint": null, "bias_constraint": null}, "name": "conv2d_157", "inbound_nodes": [[["max_pooling2d_99", 0, 0, {}]]]}, {"class_name": "Activation", "config": {"name": "activation_68", "trainable": true, "dtype": "float32", "activation": "relu"}, "name": "activation_68", "inbound_nodes": [[["conv2d_161", 0, 0, {}]]]}, {"class_name": "Activation", "config": {"name": "activation_72", "trainable": true, "dtype": "float32", "activation": "relu"}, "name": "activation_72", "inbound_nodes": [[["conv2d_166", 0, 0, {}]]]}, {"class_name": "Activation", "config": {"name": "activation_76", "trainable": true, "dtype": "float32", "activation": "relu"}, "name": "activation_76", "inbound_nodes": [[["conv2d_171", 0, 0, {}]]]}, {"class_name": "Activation", "config": {"name": "activation_80", "trainable": true, "dtype": "float32", "activation": "relu"}, "name": "activation_80", "inbound_nodes": [[["conv2d_176", 0, 0, {}]]]}, {"class_name": "Conv2D", "config": {"name": "conv2d_147", "trainable": true, "dtype": "float32", "filters": 512, "kernel_size": [3, 3], "strides": [1, 1], "padding": "same", "data_format": "channels_last", "dilation_rate": [1, 1], "groups": 1, "activation": "relu", "use_bias": true, "kernel_initializer": {"class_name": "GlorotUniform", "config": {"seed": null}}, "bias_initializer": {"class_name": "Zeros", "config": {}}, "kernel_regularizer": null, "bias_regularizer": null, "activity_regularizer": null, "kernel_constraint": null, "bias_constraint": null}, "name": "conv2d_147", "inbound_nodes": [[["dropout_76", 0, 0, {}]]]}, {"class_name": "Conv2D", "config": {"name": "conv2d_158", "trainable": true, "dtype": "float32", "filters": 512, "kernel_size": [3, 3], "strides": [1, 1], "padding": "same", "data_format": "channels_last", "dilation_rate": [1, 1], "groups": 1, "activation": "relu", "use_bias": true, "kernel_initializer": {"class_name": "GlorotUniform", "config": {"seed": null}}, "bias_initializer": {"class_name": "Zeros", "config": {}}, "kernel_regularizer": null, "bias_regularizer": null, "activity_regularizer": null, "kernel_constraint": null, "bias_constraint": null}, "name": "conv2d_158", "inbound_nodes": [[["conv2d_157", 0, 0, {}]]]}, {"class_name": "BatchNormalization", "config": {"name": "batch_normalization_68", "trainable": true, "dtype": "float32", "axis": [3], "momentum": 0.99, "epsilon": 0.001, "center": true, "scale": true, "beta_initializer": {"class_name": "Zeros", "config": {}}, "gamma_initializer": {"class_name": "Ones", "config": {}}, "moving_mean_initializer": {"class_name": "Zeros", "config": {}}, "moving_variance_initializer": {"class_name": "Ones", "config": {}}, "beta_regularizer": null, "gamma_regularizer": null, "beta_constraint": null, "gamma_constraint": null}, "name": "batch_normalization_68", "inbound_nodes": [[["activation_68", 0, 0, {}]]]}, {"class_name": "BatchNormalization", "config": {"name": "batch_normalization_72", "trainable": true, "dtype": "float32", "axis": [3], "momentum": 0.99, "epsilon": 0.001, "center": true, "scale": true, "beta_initializer": {"class_name": "Zeros", "config": {}}, "gamma_initializer": {"class_name": "Ones", "config": {}}, "moving_mean_initializer": {"class_name": "Zeros", "config": {}}, "moving_variance_initializer": {"class_name": "Ones", "config": {}}, "beta_regularizer": null, "gamma_regularizer": null, "beta_constraint": null, "gamma_constraint": null}, "name": "batch_normalization_72", "inbound_nodes": [[["activation_72", 0, 0, {}]]]}, {"class_name": "BatchNormalization", "config": {"name": "batch_normalization_76", "trainable": true, "dtype": "float32", "axis": [3], "momentum": 0.99, "epsilon": 0.001, "center": true, "scale": true, "beta_initializer": {"class_name": "Zeros", "config": {}}, "gamma_initializer": {"class_name": "Ones", "config": {}}, "moving_mean_initializer": {"class_name": "Zeros", "config": {}}, "moving_variance_initializer": {"class_name": "Ones", "config": {}}, "beta_regularizer": null, "gamma_regularizer": null, "beta_constraint": null, "gamma_constraint": null}, "name": "batch_normalization_76", "inbound_nodes": [[["activation_76", 0, 0, {}]]]}, {"class_name": "BatchNormalization", "config": {"name": "batch_normalization_80", "trainable": true, "dtype": "float32", "axis": [3], "momentum": 0.99, "epsilon": 0.001, "center": true, "scale": true, "beta_initializer": {"class_name": "Zeros", "config": {}}, "gamma_initializer": {"class_name": "Ones", "config": {}}, "moving_mean_initializer": {"class_name": "Zeros", "config": {}}, "moving_variance_initializer": {"class_name": "Ones", "config": {}}, "beta_regularizer": null, "gamma_regularizer": null, "beta_constraint": null, "gamma_constraint": null}, "name": "batch_normalization_80", "inbound_nodes": [[["activation_80", 0, 0, {}]]]}, {"class_name": "MaxPooling2D", "config": {"name": "max_pooling2d_93", "trainable": true, "dtype": "float32", "pool_size": [2, 2], "padding": "valid", "strides": [2, 2], "data_format": "channels_last"}, "name": "max_pooling2d_93", "inbound_nodes": [[["conv2d_147", 0, 0, {}]]]}, {"class_name": "MaxPooling2D", "config": {"name": "max_pooling2d_100", "trainable": true, "dtype": "float32", "pool_size": [2, 2], "padding": "valid", "strides": [2, 2], "data_format": "channels_last"}, "name": "max_pooling2d_100", "inbound_nodes": [[["conv2d_158", 0, 0, {}]]]}, {"class_name": "MaxPooling2D", "config": {"name": "max_pooling2d_103", "trainable": true, "dtype": "float32", "pool_size": [2, 2], "padding": "valid", "strides": [2, 2], "data_format": "channels_last"}, "name": "max_pooling2d_103", "inbound_nodes": [[["batch_normalization_68", 0, 0, {}]]]}, {"class_name": "MaxPooling2D", "config": {"name": "max_pooling2d_107", "trainable": true, "dtype": "float32", "pool_size": [2, 2], "padding": "valid", "strides": [2, 2], "data_format": "channels_last"}, "name": "max_pooling2d_107", "inbound_nodes": [[["batch_normalization_72", 0, 0, {}]]]}, {"class_name": "MaxPooling2D", "config": {"name": "max_pooling2d_111", "trainable": true, "dtype": "float32", "pool_size": [2, 2], "padding": "valid", "strides": [2, 2], "data_format": "channels_last"}, "name": "max_pooling2d_111", "inbound_nodes": [[["batch_normalization_76", 0, 0, {}]]]}, {"class_name": "MaxPooling2D", "config": {"name": "max_pooling2d_115", "trainable": true, "dtype": "float32", "pool_size": [2, 2], "padding": "valid", "strides": [2, 2], "data_format": "channels_last"}, "name": "max_pooling2d_115", "inbound_nodes": [[["batch_normalization_80", 0, 0, {}]]]}, {"class_name": "Dropout", "config": {"name": "dropout_77", "trainable": true, "dtype": "float32", "rate": 0.2, "noise_shape": null, "seed": null}, "name": "dropout_77", "inbound_nodes": [[["max_pooling2d_93", 0, 0, {}]]]}, {"class_name": "Dropout", "config": {"name": "dropout_84", "trainable": true, "dtype": "float32", "rate": 0.2, "noise_shape": null, "seed": null}, "name": "dropout_84", "inbound_nodes": [[["max_pooling2d_100", 0, 0, {}]]]}, {"class_name": "Dropout", "config": {"name": "dropout_89", "trainable": true, "dtype": "float32", "rate": 0.25, "noise_shape": null, "seed": null}, "name": "dropout_89", "inbound_nodes": [[["max_pooling2d_103", 0, 0, {}]]]}, {"class_name": "Dropout", "config": {"name": "dropout_94", "trainable": true, "dtype": "float32", "rate": 0.25, "noise_shape": null, "seed": null}, "name": "dropout_94", "inbound_nodes": [[["max_pooling2d_107", 0, 0, {}]]]}, {"class_name": "Dropout", "config": {"name": "dropout_99", "trainable": true, "dtype": "float32", "rate": 0.25, "noise_shape": null, "seed": null}, "name": "dropout_99", "inbound_nodes": [[["max_pooling2d_111", 0, 0, {}]]]}, {"class_name": "Dropout", "config": {"name": "dropout_104", "trainable": true, "dtype": "float32", "rate": 0.25, "noise_shape": null, "seed": null}, "name": "dropout_104", "inbound_nodes": [[["max_pooling2d_115", 0, 0, {}]]]}, {"class_name": "Flatten", "config": {"name": "flatten_25", "trainable": true, "dtype": "float32", "data_format": "channels_last"}, "name": "flatten_25", "inbound_nodes": [[["dropout_77", 0, 0, {}]]]}, {"class_name": "Flatten", "config": {"name": "flatten_26", "trainable": true, "dtype": "float32", "data_format": "channels_last"}, "name": "flatten_26", "inbound_nodes": [[["dropout_84", 0, 0, {}]]]}, {"class_name": "Conv2D", "config": {"name": "conv2d_162", "trainable": true, "dtype": "float32", "filters": 512, "kernel_size": [3, 3], "strides": [1, 1], "padding": "same", "data_format": "channels_last", "dilation_rate": [1, 1], "groups": 1, "activation": "relu", "use_bias": true, "kernel_initializer": {"class_name": "GlorotUniform", "config": {"seed": null}}, "bias_initializer": {"class_name": "Zeros", "config": {}}, "kernel_regularizer": null, "bias_regularizer": null, "activity_regularizer": null, "kernel_constraint": null, "bias_constraint": null}, "name": "conv2d_162", "inbound_nodes": [[["dropout_89", 0, 0, {}]]]}, {"class_name": "Conv2D", "config": {"name": "conv2d_167", "trainable": true, "dtype": "float32", "filters": 512, "kernel_size": [3, 3], "strides": [1, 1], "padding": "same", "data_format": "channels_last", "dilation_rate": [1, 1], "groups": 1, "activation": "relu", "use_bias": true, "kernel_initializer": {"class_name": "GlorotUniform", "config": {"seed": null}}, "bias_initializer": {"class_name": "Zeros", "config": {}}, "kernel_regularizer": null, "bias_regularizer": null, "activity_regularizer": null, "kernel_constraint": null, "bias_constraint": null}, "name": "conv2d_167", "inbound_nodes": [[["dropout_94", 0, 0, {}]]]}, {"class_name": "Conv2D", "config": {"name": "conv2d_172", "trainable": true, "dtype": "float32", "filters": 128, "kernel_size": [3, 3], "strides": [1, 1], "padding": "same", "data_format": "channels_last", "dilation_rate": [1, 1], "groups": 1, "activation": "relu", "use_bias": true, "kernel_initializer": {"class_name": "GlorotUniform", "config": {"seed": null}}, "bias_initializer": {"class_name": "Zeros", "config": {}}, "kernel_regularizer": null, "bias_regularizer": null, "activity_regularizer": null, "kernel_constraint": null, "bias_constraint": null}, "name": "conv2d_172", "inbound_nodes": [[["dropout_99", 0, 0, {}]]]}, {"class_name": "Conv2D", "config": {"name": "conv2d_177", "trainable": true, "dtype": "float32", "filters": 512, "kernel_size": [3, 3], "strides": [1, 1], "padding": "same", "data_format": "channels_last", "dilation_rate": [1, 1], "groups": 1, "activation": "relu", "use_bias": true, "kernel_initializer": {"class_name": "GlorotUniform", "config": {"seed": null}}, "bias_initializer": {"class_name": "Zeros", "config": {}}, "kernel_regularizer": null, "bias_regularizer": null, "activity_regularizer": null, "kernel_constraint": null, "bias_constraint": null}, "name": "conv2d_177", "inbound_nodes": [[["dropout_104", 0, 0, {}]]]}, {"class_name": "Dense", "config": {"name": "dense_70", "trainable": true, "dtype": "float32", "units": 128, "activation": "linear", "use_bias": true, "kernel_initializer": {"class_name": "GlorotUniform", "config": {"seed": null}}, "bias_initializer": {"class_name": "Zeros", "config": {}}, "kernel_regularizer": null, "bias_regularizer": null, "activity_regularizer": null, "kernel_constraint": null, "bias_constraint": null}, "name": "dense_70", "inbound_nodes": [[["flatten_25", 0, 0, {}]]]}, {"class_name": "Dense", "config": {"name": "dense_73", "trainable": true, "dtype": "float32", "units": 512, "activation": "linear", "use_bias": true, "kernel_initializer": {"class_name": "GlorotUniform", "config": {"seed": null}}, "bias_initializer": {"class_name": "Zeros", "config": {}}, "kernel_regularizer": null, "bias_regularizer": null, "activity_regularizer": null, "kernel_constraint": null, "bias_constraint": null}, "name": "dense_73", "inbound_nodes": [[["flatten_26", 0, 0, {}]]]}, {"class_name": "Conv2D", "config": {"name": "conv2d_163", "trainable": true, "dtype": "float32", "filters": 512, "kernel_size": [3, 3], "strides": [1, 1], "padding": "same", "data_format": "channels_last", "dilation_rate": [1, 1], "groups": 1, "activation": "relu", "use_bias": true, "kernel_initializer": {"class_name": "GlorotUniform", "config": {"seed": null}}, "bias_initializer": {"class_name": "Zeros", "config": {}}, "kernel_regularizer": null, "bias_regularizer": null, "activity_regularizer": null, "kernel_constraint": null, "bias_constraint": null}, "name": "conv2d_163", "inbound_nodes": [[["conv2d_162", 0, 0, {}]]]}, {"class_name": "Conv2D", "config": {"name": "conv2d_168", "trainable": true, "dtype": "float32", "filters": 512, "kernel_size": [3, 3], "strides": [1, 1], "padding": "same", "data_format": "channels_last", "dilation_rate": [1, 1], "groups": 1, "activation": "relu", "use_bias": true, "kernel_initializer": {"class_name": "GlorotUniform", "config": {"seed": null}}, "bias_initializer": {"class_name": "Zeros", "config": {}}, "kernel_regularizer": null, "bias_regularizer": null, "activity_regularizer": null, "kernel_constraint": null, "bias_constraint": null}, "name": "conv2d_168", "inbound_nodes": [[["conv2d_167", 0, 0, {}]]]}, {"class_name": "Conv2D", "config": {"name": "conv2d_173", "trainable": true, "dtype": "float32", "filters": 128, "kernel_size": [3, 3], "strides": [1, 1], "padding": "same", "data_format": "channels_last", "dilation_rate": [1, 1], "groups": 1, "activation": "relu", "use_bias": true, "kernel_initializer": {"class_name": "GlorotUniform", "config": {"seed": null}}, "bias_initializer": {"class_name": "Zeros", "config": {}}, "kernel_regularizer": null, "bias_regularizer": null, "activity_regularizer": null, "kernel_constraint": null, "bias_constraint": null}, "name": "conv2d_173", "inbound_nodes": [[["conv2d_172", 0, 0, {}]]]}, {"class_name": "Conv2D", "config": {"name": "conv2d_178", "trainable": true, "dtype": "float32", "filters": 512, "kernel_size": [3, 3], "strides": [1, 1], "padding": "same", "data_format": "channels_last", "dilation_rate": [1, 1], "groups": 1, "activation": "relu", "use_bias": true, "kernel_initializer": {"class_name": "GlorotUniform", "config": {"seed": null}}, "bias_initializer": {"class_name": "Zeros", "config": {}}, "kernel_regularizer": null, "bias_regularizer": null, "activity_regularizer": null, "kernel_constraint": null, "bias_constraint": null}, "name": "conv2d_178", "inbound_nodes": [[["conv2d_177", 0, 0, {}]]]}, {"class_name": "BatchNormalization", "config": {"name": "batch_normalization_59", "trainable": true, "dtype": "float32", "axis": [1], "momentum": 0.99, "epsilon": 0.001, "center": true, "scale": true, "beta_initializer": {"class_name": "Zeros", "config": {}}, "gamma_initializer": {"class_name": "Ones", "config": {}}, "moving_mean_initializer": {"class_name": "Zeros", "config": {}}, "moving_variance_initializer": {"class_name": "Ones", "config": {}}, "beta_regularizer": null, "gamma_regularizer": null, "beta_constraint": null, "gamma_constraint": null}, "name": "batch_normalization_59", "inbound_nodes": [[["dense_70", 0, 0, {}]]]}, {"class_name": "BatchNormalization", "config": {"name": "batch_normalization_64", "trainable": true, "dtype": "float32", "axis": [1], "momentum": 0.99, "epsilon": 0.001, "center": true, "scale": true, "beta_initializer": {"class_name": "Zeros", "config": {}}, "gamma_initializer": {"class_name": "Ones", "config": {}}, "moving_mean_initializer": {"class_name": "Zeros", "config": {}}, "moving_variance_initializer": {"class_name": "Ones", "config": {}}, "beta_regularizer": null, "gamma_regularizer": null, "beta_constraint": null, "gamma_constraint": null}, "name": "batch_normalization_64", "inbound_nodes": [[["dense_73", 0, 0, {}]]]}, {"class_name": "MaxPooling2D", "config": {"name": "max_pooling2d_104", "trainable": true, "dtype": "float32", "pool_size": [2, 2], "padding": "valid", "strides": [2, 2], "data_format": "channels_last"}, "name": "max_pooling2d_104", "inbound_nodes": [[["conv2d_163", 0, 0, {}]]]}, {"class_name": "MaxPooling2D", "config": {"name": "max_pooling2d_108", "trainable": true, "dtype": "float32", "pool_size": [2, 2], "padding": "valid", "strides": [2, 2], "data_format": "channels_last"}, "name": "max_pooling2d_108", "inbound_nodes": [[["conv2d_168", 0, 0, {}]]]}, {"class_name": "MaxPooling2D", "config": {"name": "max_pooling2d_112", "trainable": true, "dtype": "float32", "pool_size": [2, 2], "padding": "valid", "strides": [2, 2], "data_format": "channels_last"}, "name": "max_pooling2d_112", "inbound_nodes": [[["conv2d_173", 0, 0, {}]]]}, {"class_name": "MaxPooling2D", "config": {"name": "max_pooling2d_116", "trainable": true, "dtype": "float32", "pool_size": [2, 2], "padding": "valid", "strides": [2, 2], "data_format": "channels_last"}, "name": "max_pooling2d_116", "inbound_nodes": [[["conv2d_178", 0, 0, {}]]]}, {"class_name": "Activation", "config": {"name": "activation_59", "trainable": true, "dtype": "float32", "activation": "relu"}, "name": "activation_59", "inbound_nodes": [[["batch_normalization_59", 0, 0, {}]]]}, {"class_name": "Activation", "config": {"name": "activation_64", "trainable": true, "dtype": "float32", "activation": "relu"}, "name": "activation_64", "inbound_nodes": [[["batch_normalization_64", 0, 0, {}]]]}, {"class_name": "Dropout", "config": {"name": "dropout_90", "trainable": true, "dtype": "float32", "rate": 0.5, "noise_shape": null, "seed": null}, "name": "dropout_90", "inbound_nodes": [[["max_pooling2d_104", 0, 0, {}]]]}, {"class_name": "Dropout", "config": {"name": "dropout_95", "trainable": true, "dtype": "float32", "rate": 0.5, "noise_shape": null, "seed": null}, "name": "dropout_95", "inbound_nodes": [[["max_pooling2d_108", 0, 0, {}]]]}, {"class_name": "Dropout", "config": {"name": "dropout_100", "trainable": true, "dtype": "float32", "rate": 0.5, "noise_shape": null, "seed": null}, "name": "dropout_100", "inbound_nodes": [[["max_pooling2d_112", 0, 0, {}]]]}, {"class_name": "Dropout", "config": {"name": "dropout_105", "trainable": true, "dtype": "float32", "rate": 0.5, "noise_shape": null, "seed": null}, "name": "dropout_105", "inbound_nodes": [[["max_pooling2d_116", 0, 0, {}]]]}, {"class_name": "Dropout", "config": {"name": "dropout_78", "trainable": true, "dtype": "float32", "rate": 0.2, "noise_shape": null, "seed": null}, "name": "dropout_78", "inbound_nodes": [[["activation_59", 0, 0, {}]]]}, {"class_name": "Dropout", "config": {"name": "dropout_85", "trainable": true, "dtype": "float32", "rate": 0.2, "noise_shape": null, "seed": null}, "name": "dropout_85", "inbound_nodes": [[["activation_64", 0, 0, {}]]]}, {"class_name": "Flatten", "config": {"name": "flatten_27", "trainable": true, "dtype": "float32", "data_format": "channels_last"}, "name": "flatten_27", "inbound_nodes": [[["dropout_90", 0, 0, {}]]]}, {"class_name": "Flatten", "config": {"name": "flatten_28", "trainable": true, "dtype": "float32", "data_format": "channels_last"}, "name": "flatten_28", "inbound_nodes": [[["dropout_95", 0, 0, {}]]]}, {"class_name": "Flatten", "config": {"name": "flatten_29", "trainable": true, "dtype": "float32", "data_format": "channels_last"}, "name": "flatten_29", "inbound_nodes": [[["dropout_100", 0, 0, {}]]]}, {"class_name": "Flatten", "config": {"name": "flatten_30", "trainable": true, "dtype": "float32", "data_format": "channels_last"}, "name": "flatten_30", "inbound_nodes": [[["dropout_105", 0, 0, {}]]]}, {"class_name": "Dense", "config": {"name": "dense_71", "trainable": true, "dtype": "float32", "units": 64, "activation": "linear", "use_bias": true, "kernel_initializer": {"class_name": "GlorotUniform", "config": {"seed": null}}, "bias_initializer": {"class_name": "Zeros", "config": {}}, "kernel_regularizer": {"class_name": "L1L2", "config": {"L1L2": 0.009999999776482582}}, "bias_regularizer": null, "activity_regularizer": null, "kernel_constraint": null, "bias_constraint": null}, "name": "dense_71", "inbound_nodes": [[["dropout_78", 0, 0, {}]]]}, {"class_name": "Dense", "config": {"name": "dense_74", "trainable": true, "dtype": "float32", "units": 512, "activation": "linear", "use_bias": true, "kernel_initializer": {"class_name": "GlorotUniform", "config": {"seed": null}}, "bias_initializer": {"class_name": "Zeros", "config": {}}, "kernel_regularizer": {"class_name": "L1L2", "config": {"L1L2": 0.009999999776482582}}, "bias_regularizer": null, "activity_regularizer": null, "kernel_constraint": null, "bias_constraint": null}, "name": "dense_74", "inbound_nodes": [[["dropout_85", 0, 0, {}]]]}, {"class_name": "Dense", "config": {"name": "dense_76", "trainable": true, "dtype": "float32", "units": 512, "activation": "linear", "use_bias": true, "kernel_initializer": {"class_name": "GlorotUniform", "config": {"seed": null}}, "bias_initializer": {"class_name": "Zeros", "config": {}}, "kernel_regularizer": null, "bias_regularizer": null, "activity_regularizer": null, "kernel_constraint": null, "bias_constraint": null}, "name": "dense_76", "inbound_nodes": [[["flatten_27", 0, 0, {}]]]}, {"class_name": "Dense", "config": {"name": "dense_78", "trainable": true, "dtype": "float32", "units": 512, "activation": "linear", "use_bias": true, "kernel_initializer": {"class_name": "GlorotUniform", "config": {"seed": null}}, "bias_initializer": {"class_name": "Zeros", "config": {}}, "kernel_regularizer": {"class_name": "L1L2", "config": {"L1L2": 0.009999999776482582}}, "bias_regularizer": null, "activity_regularizer": null, "kernel_constraint": null, "bias_constraint": null}, "name": "dense_78", "inbound_nodes": [[["flatten_28", 0, 0, {}]]]}, {"class_name": "Dense", "config": {"name": "dense_80", "trainable": true, "dtype": "float32", "units": 256, "activation": "linear", "use_bias": true, "kernel_initializer": {"class_name": "GlorotUniform", "config": {"seed": null}}, "bias_initializer": {"class_name": "Zeros", "config": {}}, "kernel_regularizer": null, "bias_regularizer": null, "activity_regularizer": null, "kernel_constraint": null, "bias_constraint": null}, "name": "dense_80", "inbound_nodes": [[["flatten_29", 0, 0, {}]]]}, {"class_name": "Dense", "config": {"name": "dense_82", "trainable": true, "dtype": "float32", "units": 512, "activation": "linear", "use_bias": true, "kernel_initializer": {"class_name": "GlorotUniform", "config": {"seed": null}}, "bias_initializer": {"class_name": "Zeros", "config": {}}, "kernel_regularizer": null, "bias_regularizer": null, "activity_regularizer": null, "kernel_constraint": null, "bias_constraint": null}, "name": "dense_82", "inbound_nodes": [[["flatten_30", 0, 0, {}]]]}, {"class_name": "BatchNormalization", "config": {"name": "batch_normalization_60", "trainable": true, "dtype": "float32", "axis": [1], "momentum": 0.99, "epsilon": 0.001, "center": true, "scale": true, "beta_initializer": {"class_name": "Zeros", "config": {}}, "gamma_initializer": {"class_name": "Ones", "config": {}}, "moving_mean_initializer": {"class_name": "Zeros", "config": {}}, "moving_variance_initializer": {"class_name": "Ones", "config": {}}, "beta_regularizer": null, "gamma_regularizer": null, "beta_constraint": null, "gamma_constraint": null}, "name": "batch_normalization_60", "inbound_nodes": [[["dense_71", 0, 0, {}]]]}, {"class_name": "BatchNormalization", "config": {"name": "batch_normalization_65", "trainable": true, "dtype": "float32", "axis": [1], "momentum": 0.99, "epsilon": 0.001, "center": true, "scale": true, "beta_initializer": {"class_name": "Zeros", "config": {}}, "gamma_initializer": {"class_name": "Ones", "config": {}}, "moving_mean_initializer": {"class_name": "Zeros", "config": {}}, "moving_variance_initializer": {"class_name": "Ones", "config": {}}, "beta_regularizer": null, "gamma_regularizer": null, "beta_constraint": null, "gamma_constraint": null}, "name": "batch_normalization_65", "inbound_nodes": [[["dense_74", 0, 0, {}]]]}, {"class_name": "BatchNormalization", "config": {"name": "batch_normalization_69", "trainable": true, "dtype": "float32", "axis": [1], "momentum": 0.99, "epsilon": 0.001, "center": true, "scale": true, "beta_initializer": {"class_name": "Zeros", "config": {}}, "gamma_initializer": {"class_name": "Ones", "config": {}}, "moving_mean_initializer": {"class_name": "Zeros", "config": {}}, "moving_variance_initializer": {"class_name": "Ones", "config": {}}, "beta_regularizer": null, "gamma_regularizer": null, "beta_constraint": null, "gamma_constraint": null}, "name": "batch_normalization_69", "inbound_nodes": [[["dense_76", 0, 0, {}]]]}, {"class_name": "BatchNormalization", "config": {"name": "batch_normalization_73", "trainable": true, "dtype": "float32", "axis": [1], "momentum": 0.99, "epsilon": 0.001, "center": true, "scale": true, "beta_initializer": {"class_name": "Zeros", "config": {}}, "gamma_initializer": {"class_name": "Ones", "config": {}}, "moving_mean_initializer": {"class_name": "Zeros", "config": {}}, "moving_variance_initializer": {"class_name": "Ones", "config": {}}, "beta_regularizer": null, "gamma_regularizer": null, "beta_constraint": null, "gamma_constraint": null}, "name": "batch_normalization_73", "inbound_nodes": [[["dense_78", 0, 0, {}]]]}, {"class_name": "BatchNormalization", "config": {"name": "batch_normalization_77", "trainable": true, "dtype": "float32", "axis": [1], "momentum": 0.99, "epsilon": 0.001, "center": true, "scale": true, "beta_initializer": {"class_name": "Zeros", "config": {}}, "gamma_initializer": {"class_name": "Ones", "config": {}}, "moving_mean_initializer": {"class_name": "Zeros", "config": {}}, "moving_variance_initializer": {"class_name": "Ones", "config": {}}, "beta_regularizer": null, "gamma_regularizer": null, "beta_constraint": null, "gamma_constraint": null}, "name": "batch_normalization_77", "inbound_nodes": [[["dense_80", 0, 0, {}]]]}, {"class_name": "BatchNormalization", "config": {"name": "batch_normalization_81", "trainable": true, "dtype": "float32", "axis": [1], "momentum": 0.99, "epsilon": 0.001, "center": true, "scale": true, "beta_initializer": {"class_name": "Zeros", "config": {}}, "gamma_initializer": {"class_name": "Ones", "config": {}}, "moving_mean_initializer": {"class_name": "Zeros", "config": {}}, "moving_variance_initializer": {"class_name": "Ones", "config": {}}, "beta_regularizer": null, "gamma_regularizer": null, "beta_constraint": null, "gamma_constraint": null}, "name": "batch_normalization_81", "inbound_nodes": [[["dense_82", 0, 0, {}]]]}, {"class_name": "Activation", "config": {"name": "activation_60", "trainable": true, "dtype": "float32", "activation": "relu"}, "name": "activation_60", "inbound_nodes": [[["batch_normalization_60", 0, 0, {}]]]}, {"class_name": "Activation", "config": {"name": "activation_65", "trainable": true, "dtype": "float32", "activation": "relu"}, "name": "activation_65", "inbound_nodes": [[["batch_normalization_65", 0, 0, {}]]]}, {"class_name": "Activation", "config": {"name": "activation_69", "trainable": true, "dtype": "float32", "activation": "relu"}, "name": "activation_69", "inbound_nodes": [[["batch_normalization_69", 0, 0, {}]]]}, {"class_name": "Activation", "config": {"name": "activation_73", "trainable": true, "dtype": "float32", "activation": "relu"}, "name": "activation_73", "inbound_nodes": [[["batch_normalization_73", 0, 0, {}]]]}, {"class_name": "Activation", "config": {"name": "activation_77", "trainable": true, "dtype": "float32", "activation": "relu"}, "name": "activation_77", "inbound_nodes": [[["batch_normalization_77", 0, 0, {}]]]}, {"class_name": "Activation", "config": {"name": "activation_81", "trainable": true, "dtype": "float32", "activation": "relu"}, "name": "activation_81", "inbound_nodes": [[["batch_normalization_81", 0, 0, {}]]]}, {"class_name": "Dropout", "config": {"name": "dropout_79", "trainable": true, "dtype": "float32", "rate": 0.25, "noise_shape": null, "seed": null}, "name": "dropout_79", "inbound_nodes": [[["activation_60", 0, 0, {}]]]}, {"class_name": "Dropout", "config": {"name": "dropout_86", "trainable": true, "dtype": "float32", "rate": 0.25, "noise_shape": null, "seed": null}, "name": "dropout_86", "inbound_nodes": [[["activation_65", 0, 0, {}]]]}, {"class_name": "Dropout", "config": {"name": "dropout_91", "trainable": true, "dtype": "float32", "rate": 0.5, "noise_shape": null, "seed": null}, "name": "dropout_91", "inbound_nodes": [[["activation_69", 0, 0, {}]]]}, {"class_name": "Dropout", "config": {"name": "dropout_96", "trainable": true, "dtype": "float32", "rate": 0.5, "noise_shape": null, "seed": null}, "name": "dropout_96", "inbound_nodes": [[["activation_73", 0, 0, {}]]]}, {"class_name": "Dropout", "config": {"name": "dropout_101", "trainable": true, "dtype": "float32", "rate": 0.5, "noise_shape": null, "seed": null}, "name": "dropout_101", "inbound_nodes": [[["activation_77", 0, 0, {}]]]}, {"class_name": "Dropout", "config": {"name": "dropout_106", "trainable": true, "dtype": "float32", "rate": 0.5, "noise_shape": null, "seed": null}, "name": "dropout_106", "inbound_nodes": [[["activation_81", 0, 0, {}]]]}, {"class_name": "Dense", "config": {"name": "dense_72", "trainable": true, "dtype": "float32", "units": 7, "activation": "linear", "use_bias": true, "kernel_initializer": {"class_name": "GlorotUniform", "config": {"seed": null}}, "bias_initializer": {"class_name": "Zeros", "config": {}}, "kernel_regularizer": null, "bias_regularizer": null, "activity_regularizer": null, "kernel_constraint": null, "bias_constraint": null}, "name": "dense_72", "inbound_nodes": [[["dropout_79", 0, 0, {}]]]}, {"class_name": "Dense", "config": {"name": "dense_75", "trainable": true, "dtype": "float32", "units": 5, "activation": "linear", "use_bias": true, "kernel_initializer": {"class_name": "GlorotUniform", "config": {"seed": null}}, "bias_initializer": {"class_name": "Zeros", "config": {}}, "kernel_regularizer": null, "bias_regularizer": null, "activity_regularizer": null, "kernel_constraint": null, "bias_constraint": null}, "name": "dense_75", "inbound_nodes": [[["dropout_86", 0, 0, {}]]]}, {"class_name": "Dense", "config": {"name": "dense_77", "trainable": true, "dtype": "float32", "units": 2, "activation": "linear", "use_bias": true, "kernel_initializer": {"class_name": "GlorotUniform", "config": {"seed": null}}, "bias_initializer": {"class_name": "Zeros", "config": {}}, "kernel_regularizer": null, "bias_regularizer": null, "activity_regularizer": null, "kernel_constraint": null, "bias_constraint": null}, "name": "dense_77", "inbound_nodes": [[["dropout_91", 0, 0, {}]]]}, {"class_name": "Dense", "config": {"name": "dense_79", "trainable": true, "dtype": "float32", "units": 4, "activation": "linear", "use_bias": true, "kernel_initializer": {"class_name": "GlorotUniform", "config": {"seed": null}}, "bias_initializer": {"class_name": "Zeros", "config": {}}, "kernel_regularizer": null, "bias_regularizer": null, "activity_regularizer": null, "kernel_constraint": null, "bias_constraint": null}, "name": "dense_79", "inbound_nodes": [[["dropout_96", 0, 0, {}]]]}, {"class_name": "Dense", "config": {"name": "dense_81", "trainable": true, "dtype": "float32", "units": 2, "activation": "linear", "use_bias": true, "kernel_initializer": {"class_name": "GlorotUniform", "config": {"seed": null}}, "bias_initializer": {"class_name": "Zeros", "config": {}}, "kernel_regularizer": null, "bias_regularizer": null, "activity_regularizer": null, "kernel_constraint": null, "bias_constraint": null}, "name": "dense_81", "inbound_nodes": [[["dropout_101", 0, 0, {}]]]}, {"class_name": "Dense", "config": {"name": "dense_83", "trainable": true, "dtype": "float32", "units": 2, "activation": "linear", "use_bias": true, "kernel_initializer": {"class_name": "GlorotUniform", "config": {"seed": null}}, "bias_initializer": {"class_name": "Zeros", "config": {}}, "kernel_regularizer": null, "bias_regularizer": null, "activity_regularizer": null, "kernel_constraint": null, "bias_constraint": null}, "name": "dense_83", "inbound_nodes": [[["dropout_106", 0, 0, {}]]]}, {"class_name": "Activation", "config": {"name": "age_output", "trainable": true, "dtype": "float32", "activation": "softmax"}, "name": "age_output", "inbound_nodes": [[["dense_72", 0, 0, {}]]]}, {"class_name": "Activation", "config": {"name": "expression_output", "trainable": true, "dtype": "float32", "activation": "softmax"}, "name": "expression_output", "inbound_nodes": [[["dense_75", 0, 0, {}]]]}, {"class_name": "Activation", "config": {"name": "gender_output", "trainable": true, "dtype": "float32", "activation": "sigmoid"}, "name": "gender_output", "inbound_nodes": [[["dense_77", 0, 0, {}]]]}, {"class_name": "Activation", "config": {"name": "hair_output", "trainable": true, "dtype": "float32", "activation": "softmax"}, "name": "hair_output", "inbound_nodes": [[["dense_79", 0, 0, {}]]]}, {"class_name": "Activation", "config": {"name": "bald_output", "trainable": true, "dtype": "float32", "activation": "sigmoid"}, "name": "bald_output", "inbound_nodes": [[["dense_81", 0, 0, {}]]]}, {"class_name": "Activation", "config": {"name": "eyeglasses_output", "trainable": true, "dtype": "float32", "activation": "sigmoid"}, "name": "eyeglasses_output", "inbound_nodes": [[["dense_83", 0, 0, {}]]]}], "input_layers": [["input_19", 0, 0]], "output_layers": [["age_output", 0, 0], ["expression_output", 0, 0], ["gender_output", 0, 0], ["hair_output", 0, 0], ["bald_output", 0, 0], ["eyeglasses_output", 0, 0]]}}, "training_config": {"loss": {"age_output": "categorical_crossentropy", "expression_output": "categorical_crossentropy", "gender_output": "binary_crossentropy", "hair_output": "categorical_crossentropy", "eyeglasses_output": "binary_crossentropy", "bald_output": "binary_crossentropy"}, "metrics": [[{"class_name": "MeanMetricWrapper", "config": {"name": "age_output_accuracy", "dtype": "float32", "fn": "categorical_accuracy"}}], [{"class_name": "MeanMetricWrapper", "config": {"name": "expression_output_accuracy", "dtype": "float32", "fn": "categorical_accuracy"}}], [{"class_name": "MeanMetricWrapper", "config": {"name": "gender_output_accuracy", "dtype": "float32", "fn": "categorical_accuracy"}}], [{"class_name": "MeanMetricWrapper", "config": {"name": "hair_output_accuracy", "dtype": "float32", "fn": "categorical_accuracy"}}], [{"class_name": "MeanMetricWrapper", "config": {"name": "bald_output_accuracy", "dtype": "float32", "fn": "categorical_accuracy"}}], [{"class_name": "MeanMetricWrapper", "config": {"name": "eyeglasses_output_accuracy", "dtype": "float32", "fn": "categorical_accuracy"}}]], "weighted_metrics": null, "loss_weights": {"age_output": 1, "expression_output": 1.5, "gender_output": 0.5, "hair_output": 1, "eyeglasses_output": 1, "bald_output": 1.5}, "optimizer_config": {"class_name": "Adam", "config": {"name": "Adam", "learning_rate": 9.999999747378752e-05, "decay": 1e-06, "beta_1": 0.8999999761581421, "beta_2": 0.9990000128746033, "epsilon": 1e-07, "amsgrad": false}}}}, "weightsManifest": [{"paths": ["group1-shard1of24.bin", "group1-shard2of24.bin", "group1-shard3of24.bin", "group1-shard4of24.bin", "group1-shard5of24.bin", "group1-shard6of24.bin", "group1-shard7of24.bin", "group1-shard8of24.bin", "group1-shard9of24.bin", "group1-shard10of24.bin", "group1-shard11of24.bin", "group1-shard12of24.bin", "group1-shard13of24.bin", "group1-shard14of24.bin", "group1-shard15of24.bin", "group1-shard16of24.bin", "group1-shard17of24.bin", "group1-shard18of24.bin", "group1-shard19of24.bin", "group1-shard20of24.bin", "group1-shard21of24.bin", "group1-shard22of24.bin", "group1-shard23of24.bin", "group1-shard24of24.bin"], "weights": [{"name": "batch_normalization_56/gamma", "shape": [16], "dtype": "float32", "quantization": {"dtype": "uint8", "min": 0.9350519776344299, "scale": 0.0004974269399455949, "original_dtype": "float32"}}, {"name": "batch_normalization_56/beta", "shape": [16], "dtype": "float32", "quantization": {"dtype": "uint8", "min": -0.053730662897521375, "scale": 0.00032174049639234356, "original_dtype": "float32"}}, {"name": "batch_normalization_56/moving_mean", "shape": [16], "dtype": "float32", "quantization": {"dtype": "uint8", "min": 1.1543209438968915e-05, "scale": 0.407748427656838, "original_dtype": "float32"}}, {"name": "batch_normalization_56/moving_variance", "shape": [16], "dtype": "float32", "quantization": {"dtype": "uint8", "min": 6.7804253376380075e-06, "scale": 13.653618041731175, "original_dtype": "float32"}}, {"name": "batch_normalization_57/gamma", "shape": [32], "dtype": "float32", "quantization": {"dtype": "uint8", "min": 0.9688593149185181, "scale": 0.0002284522150077072, "original_dtype": "float32"}}, {"name": "batch_normalization_57/beta", "shape": [32], "dtype": "float32", "quantization": {"dtype": "uint8", "min": -0.08786888292022779, "scale": 0.00044603493868135936, "original_dtype": "float32"}}, {"name": "batch_normalization_57/moving_mean", "shape": [32], "dtype": "float32", "quantization": {"dtype": "uint8", "min": 0.2473408430814743, "scale": 0.0026930339780508305, "original_dtype": "float32"}}, {"name": "batch_normalization_57/moving_variance", "shape": [32], "dtype": "float32", "quantization": {"dtype": "uint8", "min": 0.15565401315689087, "scale": 0.007032076283997181, "original_dtype": "float32"}}, {"name": "batch_normalization_58/gamma", "shape": [32], "dtype": "float32", "quantization": {"dtype": "uint8", "min": 0.9604282379150391, "scale": 0.0003245975456985773, "original_dtype": "float32"}}, {"name": "batch_normalization_58/beta", "shape": [32], "dtype": "float32", "quantization": {"dtype": "uint8", "min": -0.1096675863452986, "scale": 0.0006854224146581163, "original_dtype": "float32"}}, {"name": "batch_normalization_58/moving_mean", "shape": [32], "dtype": "float32", "quantization": {"dtype": "uint8", "min": 0.28908392786979675, "scale": 0.003047996993158378, "original_dtype": "float32"}}, {"name": "batch_normalization_58/moving_variance", "shape": [32], "dtype": "float32", "quantization": {"dtype": "uint8", "min": 0.44356778264045715, "scale": 0.00853293912083495, "original_dtype": "float32"}}, {"name": "batch_normalization_59/gamma", "shape": [128], "dtype": "float32", "quantization": {"dtype": "uint8", "min": 0.9409560561180115, "scale": 0.0003807944409987506, "original_dtype": "float32"}}, {"name": "batch_normalization_59/beta", "shape": [128], "dtype": "float32", "quantization": {"dtype": "uint8", "min": -0.12720048427581787, "scale": 0.0004246926994300356, "original_dtype": "float32"}}, {"name": "batch_normalization_59/moving_mean", "shape": [128], "dtype": "float32", "quantization": {"dtype": "uint8", "min": -5.296120452880859, "scale": 0.05192274953804764, "original_dtype": "float32"}}, {"name": "batch_normalization_59/moving_variance", "shape": [128], "dtype": "float32", "quantization": {"dtype": "uint8", "min": 3.5572903156280518, "scale": 0.014361851823096182, "original_dtype": "float32"}}, {"name": "batch_normalization_60/gamma", "shape": [64], "dtype": "float32", "quantization": {"dtype": "uint8", "min": 0.9740239977836609, "scale": 0.0012979589256585814, "original_dtype": "float32"}}, {"name": "batch_normalization_60/beta", "shape": [64], "dtype": "float32", "quantization": {"dtype": "uint8", "min": -0.08744890777503743, "scale": 0.001433588652049794, "original_dtype": "float32"}}, {"name": "batch_normalization_60/moving_mean", "shape": [64], "dtype": "float32", "quantization": {"dtype": "uint8", "min": -0.3157918135325114, "scale": 0.002321998628915525, "original_dtype": "float32"}}, {"name": "batch_normalization_60/moving_variance", "shape": [64], "dtype": "float32", "quantization": {"dtype": "uint8", "min": 0.019025525078177452, "scale": 0.0007655644314546211, "original_dtype": "float32"}}, {"name": "batch_normalization_61/gamma", "shape": [16], "dtype": "float32", "quantization": {"dtype": "uint8", "min": 0.9396489858627319, "scale": 0.00048640569051106773, "original_dtype": "float32"}}, {"name": "batch_normalization_61/beta", "shape": [16], "dtype": "float32", "quantization": {"dtype": "uint8", "min": -0.06977462667752715, "scale": 0.0003143001201690412, "original_dtype": "float32"}}, {"name": "batch_normalization_61/moving_mean", "shape": [16], "dtype": "float32", "quantization": {"dtype": "uint8", "min": 0.001586791593581438, "scale": 0.5180072265640632, "original_dtype": "float32"}}, {"name": "batch_normalization_61/moving_variance", "shape": [16], "dtype": "float32", "quantization": {"dtype": "uint8", "min": 0.01755913719534874, "scale": 16.31704587715806, "original_dtype": "float32"}}, {"name": "batch_normalization_62/gamma", "shape": [32], "dtype": "float32", "quantization": {"dtype": "uint8", "min": 0.9587420225143433, "scale": 0.00024982480441822723, "original_dtype": "float32"}}, {"name": "batch_normalization_62/beta", "shape": [32], "dtype": "float32", "quantization": {"dtype": "uint8", "min": -0.0555559129253322, "scale": 0.0004177136310175353, "original_dtype": "float32"}}, {"name": "batch_normalization_62/moving_mean", "shape": [32], "dtype": "float32", "quantization": {"dtype": "uint8", "min": 0.21280410885810852, "scale": 0.0029864008520163743, "original_dtype": "float32"}}, {"name": "batch_normalization_62/moving_variance", "shape": [32], "dtype": "float32", "quantization": {"dtype": "uint8", "min": 0.2164003849029541, "scale": 0.004397732603783701, "original_dtype": "float32"}}, {"name": "batch_normalization_63/gamma", "shape": [32], "dtype": "float32", "quantization": {"dtype": "uint8", "min": 0.9825286269187927, "scale": 0.00018790679819443646, "original_dtype": "float32"}}, {"name": "batch_normalization_63/beta", "shape": [32], "dtype": "float32", "quantization": {"dtype": "uint8", "min": -0.0766443219839358, "scale": 0.00043547910218145336, "original_dtype": "float32"}}, {"name": "batch_normalization_63/moving_mean", "shape": [32], "dtype": "float32", "quantization": {"dtype": "uint8", "min": 0.18929794430732727, "scale": 0.004900310436884562, "original_dtype": "float32"}}, {"name": "batch_normalization_63/moving_variance", "shape": [32], "dtype": "float32", "quantization": {"dtype": "uint8", "min": 0.40136903524398804, "scale": 0.01932279385772406, "original_dtype": "float32"}}, {"name": "batch_normalization_64/gamma", "shape": [512], "dtype": "float32", "quantization": {"dtype": "uint8", "min": 0.9736848473548889, "scale": 0.00019741268718943876, "original_dtype": "float32"}}, {"name": "batch_normalization_64/beta", "shape": [512], "dtype": "float32", "quantization": {"dtype": "uint8", "min": -0.032857236222309225, "scale": 0.0002547072575372808, "original_dtype": "float32"}}, {"name": "batch_normalization_64/moving_mean", "shape": [512], "dtype": "float32", "quantization": {"dtype": "uint8", "min": -0.7400850969202378, "scale": 0.006167375807668648, "original_dtype": "float32"}}, {"name": "batch_normalization_64/moving_variance", "shape": [512], "dtype": "float32", "quantization": {"dtype": "uint8", "min": 0.03678007051348686, "scale": 0.0011655707715773115, "original_dtype": "float32"}}, {"name": "batch_normalization_65/gamma", "shape": [512], "dtype": "float32", "quantization": {"dtype": "uint8", "min": 0.937882125377655, "scale": 0.0002696829683640424, "original_dtype": "float32"}}, {"name": "batch_normalization_65/beta", "shape": [512], "dtype": "float32", "quantization": {"dtype": "uint8", "min": -0.05153424818726147, "scale": 0.00028630137881811927, "original_dtype": "float32"}}, {"name": "batch_normalization_65/moving_mean", "shape": [512], "dtype": "float32", "quantization": {"dtype": "uint8", "min": -0.2878047314344668, "scale": 0.0026897638451819326, "original_dtype": "float32"}}, {"name": "batch_normalization_65/moving_variance", "shape": [512], "dtype": "float32", "quantization": {"dtype": "uint8", "min": 0.011278261430561543, "scale": 0.0004996596415545426, "original_dtype": "float32"}}, {"name": "batch_normalization_66/gamma", "shape": [16], "dtype": "float32", "quantization": {"dtype": "uint8", "min": 0.9294651746749878, "scale": 0.0006450424007340973, "original_dtype": "float32"}}, {"name": "batch_normalization_66/beta", "shape": [16], "dtype": "float32", "quantization": {"dtype": "uint8", "min": -0.05636505591226559, "scale": 0.0004055039993688172, "original_dtype": "float32"}}, {"name": "batch_normalization_66/moving_mean", "shape": [16], "dtype": "float32", "quantization": {"dtype": "uint8", "min": 5.901780605199747e-05, "scale": 0.384944220581597, "original_dtype": "float32"}}, {"name": "batch_normalization_66/moving_variance", "shape": [16], "dtype": "float32", "quantization": {"dtype": "uint8", "min": 5.581017376243835e-06, "scale": 8.849341277133265, "original_dtype": "float32"}}, {"name": "batch_normalization_67/gamma", "shape": [32], "dtype": "float32", "quantization": {"dtype": "uint8", "min": 0.9532646536827087, "scale": 0.0002708633740743001, "original_dtype": "float32"}}, {"name": "batch_normalization_67/beta", "shape": [32], "dtype": "float32", "quantization": {"dtype": "uint8", "min": -0.07158025167151993, "scale": 0.00038074601952936137, "original_dtype": "float32"}}, {"name": "batch_normalization_67/moving_mean", "shape": [32], "dtype": "float32", "quantization": {"dtype": "uint8", "min": 0.1689455360174179, "scale": 0.0016732758751102522, "original_dtype": "float32"}}, {"name": "batch_normalization_67/moving_variance", "shape": [32], "dtype": "float32", "quantization": {"dtype": "uint8", "min": 0.10048729181289673, "scale": 0.004314691178938922, "original_dtype": "float32"}}, {"name": "batch_normalization_68/gamma", "shape": [32], "dtype": "float32", "quantization": {"dtype": "uint8", "min": 0.9807256460189819, "scale": 0.000158385201996448, "original_dtype": "float32"}}, {"name": "batch_normalization_68/beta", "shape": [32], "dtype": "float32", "quantization": {"dtype": "uint8", "min": -0.06966564309071092, "scale": 0.0003448794212411432, "original_dtype": "float32"}}, {"name": "batch_normalization_68/moving_mean", "shape": [32], "dtype": "float32", "quantization": {"dtype": "uint8", "min": 0.3541596829891205, "scale": 0.003128903169257968, "original_dtype": "float32"}}, {"name": "batch_normalization_68/moving_variance", "shape": [32], "dtype": "float32", "quantization": {"dtype": "uint8", "min": 0.4387452006340027, "scale": 0.008923895452536789, "original_dtype": "float32"}}, {"name": "batch_normalization_69/gamma", "shape": [512], "dtype": "float32", "quantization": {"dtype": "uint8", "min": 0.9055209159851074, "scale": 0.0006920239504645852, "original_dtype": "float32"}}, {"name": "batch_normalization_69/beta", "shape": [512], "dtype": "float32", "quantization": {"dtype": "uint8", "min": -0.08767260698711171, "scale": 0.0005097244592273937, "original_dtype": "float32"}}, {"name": "batch_normalization_69/moving_mean", "shape": [512], "dtype": "float32", "quantization": {"dtype": "uint8", "min": -4.595747498904958, "scale": 0.05106386109894397, "original_dtype": "float32"}}, {"name": "batch_normalization_69/moving_variance", "shape": [512], "dtype": "float32", "quantization": {"dtype": "uint8", "min": 3.179657459259033, "scale": 0.0345638256446988, "original_dtype": "float32"}}, {"name": "batch_normalization_70/gamma", "shape": [16], "dtype": "float32", "quantization": {"dtype": "uint8", "min": 0.9335296750068665, "scale": 0.00040807981117098937, "original_dtype": "float32"}}, {"name": "batch_normalization_70/beta", "shape": [16], "dtype": "float32", "quantization": {"dtype": "uint8", "min": -0.04885595532901146, "scale": 0.0005142732139895944, "original_dtype": "float32"}}, {"name": "batch_normalization_70/moving_mean", "shape": [16], "dtype": "float32", "quantization": {"dtype": "uint8", "min": 0.00024599366588518023, "scale": 0.24706906358661204, "original_dtype": "float32"}}, {"name": "batch_normalization_70/moving_variance", "shape": [16], "dtype": "float32", "quantization": {"dtype": "uint8", "min": 0.000461680960142985, "scale": 4.556711099259715, "original_dtype": "float32"}}, {"name": "batch_normalization_71/gamma", "shape": [32], "dtype": "float32", "quantization": {"dtype": "uint8", "min": 0.9665167927742004, "scale": 0.0002197889720692354, "original_dtype": "float32"}}, {"name": "batch_normalization_71/beta", "shape": [32], "dtype": "float32", "quantization": {"dtype": "uint8", "min": -0.045235091425916724, "scale": 0.00028096330078209147, "original_dtype": "float32"}}, {"name": "batch_normalization_71/moving_mean", "shape": [32], "dtype": "float32", "quantization": {"dtype": "uint8", "min": 0.27056679129600525, "scale": 0.0019324960661869423, "original_dtype": "float32"}}, {"name": "batch_normalization_71/moving_variance", "shape": [32], "dtype": "float32", "quantization": {"dtype": "uint8", "min": 0.17078234255313873, "scale": 0.0033134118599050183, "original_dtype": "float32"}}, {"name": "batch_normalization_72/gamma", "shape": [32], "dtype": "float32", "quantization": {"dtype": "uint8", "min": 0.9695360660552979, "scale": 0.00021584033966064452, "original_dtype": "float32"}}, {"name": "batch_normalization_72/beta", "shape": [32], "dtype": "float32", "quantization": {"dtype": "uint8", "min": -0.048300055513048876, "scale": 0.00021466691339132833, "original_dtype": "float32"}}, {"name": "batch_normalization_72/moving_mean", "shape": [32], "dtype": "float32", "quantization": {"dtype": "uint8", "min": 0.3520309627056122, "scale": 0.0030084124967163684, "original_dtype": "float32"}}, {"name": "batch_normalization_72/moving_variance", "shape": [32], "dtype": "float32", "quantization": {"dtype": "uint8", "min": 0.504878044128418, "scale": 0.010644634097230201, "original_dtype": "float32"}}, {"name": "batch_normalization_73/gamma", "shape": [512], "dtype": "float32", "quantization": {"dtype": "uint8", "min": 0.9359921216964722, "scale": 0.00044140909232345284, "original_dtype": "float32"}}, {"name": "batch_normalization_73/beta", "shape": [512], "dtype": "float32", "quantization": {"dtype": "uint8", "min": -0.06216785322655649, "scale": 0.00031880950372593073, "original_dtype": "float32"}}, {"name": "batch_normalization_73/moving_mean", "shape": [512], "dtype": "float32", "quantization": {"dtype": "uint8", "min": -0.3097168505191803, "scale": 0.0032601773738861082, "original_dtype": "float32"}}, {"name": "batch_normalization_73/moving_variance", "shape": [512], "dtype": "float32", "quantization": {"dtype": "uint8", "min": 0.0037060712929815054, "scale": 0.0006570465287522358, "original_dtype": "float32"}}, {"name": "batch_normalization_74/gamma", "shape": [16], "dtype": "float32", "quantization": {"dtype": "uint8", "min": 0.923782229423523, "scale": 0.0006373106264600567, "original_dtype": "float32"}}, {"name": "batch_normalization_74/beta", "shape": [16], "dtype": "float32", "quantization": {"dtype": "uint8", "min": -0.03159539829939604, "scale": 0.00017456021159887314, "original_dtype": "float32"}}, {"name": "batch_normalization_74/moving_mean", "shape": [16], "dtype": "float32", "quantization": {"dtype": "uint8", "min": 0.0002131061046384275, "scale": 0.4526186196647091, "original_dtype": "float32"}}, {"name": "batch_normalization_74/moving_variance", "shape": [16], "dtype": "float32", "quantization": {"dtype": "uint8", "min": 0.002566565992310643, "scale": 14.043791635402972, "original_dtype": "float32"}}, {"name": "batch_normalization_75/gamma", "shape": [32], "dtype": "float32", "quantization": {"dtype": "uint8", "min": 0.9515310525894165, "scale": 0.0003301162345736634, "original_dtype": "float32"}}, {"name": "batch_normalization_75/beta", "shape": [32], "dtype": "float32", "quantization": {"dtype": "uint8", "min": -0.053513299454660976, "scale": 0.0002892610781333026, "original_dtype": "float32"}}, {"name": "batch_normalization_75/moving_mean", "shape": [32], "dtype": "float32", "quantization": {"dtype": "uint8", "min": 0.15377359092235565, "scale": 0.001793651078261581, "original_dtype": "float32"}}, {"name": "batch_normalization_75/moving_variance", "shape": [32], "dtype": "float32", "quantization": {"dtype": "uint8", "min": 0.09293699264526367, "scale": 0.00560757506127451, "original_dtype": "float32"}}, {"name": "batch_normalization_76/gamma", "shape": [32], "dtype": "float32", "quantization": {"dtype": "uint8", "min": 0.972783625125885, "scale": 0.00027654100866878736, "original_dtype": "float32"}}, {"name": "batch_normalization_76/beta", "shape": [32], "dtype": "float32", "quantization": {"dtype": "uint8", "min": -0.06401186097577653, "scale": 0.0002570757468906688, "original_dtype": "float32"}}, {"name": "batch_normalization_76/moving_mean", "shape": [32], "dtype": "float32", "quantization": {"dtype": "uint8", "min": 0.393805593252182, "scale": 0.003499085879793354, "original_dtype": "float32"}}, {"name": "batch_normalization_76/moving_variance", "shape": [32], "dtype": "float32", "quantization": {"dtype": "uint8", "min": 0.45572778582572937, "scale": 0.014971726665309831, "original_dtype": "float32"}}, {"name": "batch_normalization_77/gamma", "shape": [256], "dtype": "float32", "quantization": {"dtype": "uint8", "min": 0.9197549819946289, "scale": 0.000876320577135273, "original_dtype": "float32"}}, {"name": "batch_normalization_77/beta", "shape": [256], "dtype": "float32", "quantization": {"dtype": "uint8", "min": -0.06678989681543089, "scale": 0.0006815295593411315, "original_dtype": "float32"}}, {"name": "batch_normalization_77/moving_mean", "shape": [256], "dtype": "float32", "quantization": {"dtype": "uint8", "min": -4.641866564283184, "scale": 0.03743440777647729, "original_dtype": "float32"}}, {"name": "batch_normalization_77/moving_variance", "shape": [256], "dtype": "float32", "quantization": {"dtype": "uint8", "min": 1.896043062210083, "scale": 0.017935940798591166, "original_dtype": "float32"}}, {"name": "batch_normalization_78/gamma", "shape": [16], "dtype": "float32", "quantization": {"dtype": "uint8", "min": 0.9412201642990112, "scale": 0.000516499257555195, "original_dtype": "float32"}}, {"name": "batch_normalization_78/beta", "shape": [16], "dtype": "float32", "quantization": {"dtype": "uint8", "min": -0.04468751017223386, "scale": 0.00022569449581936294, "original_dtype": "float32"}}, {"name": "batch_normalization_78/moving_mean", "shape": [16], "dtype": "float32", "quantization": {"dtype": "uint8", "min": 8.614260150352493e-05, "scale": 0.5356817121054537, "original_dtype": "float32"}}, {"name": "batch_normalization_78/moving_variance", "shape": [16], "dtype": "float32", "quantization": {"dtype": "uint8", "min": 0.00036651742993853986, "scale": 19.310823087799296, "original_dtype": "float32"}}, {"name": "batch_normalization_79/gamma", "shape": [32], "dtype": "float32", "quantization": {"dtype": "uint8", "min": 0.9573110342025757, "scale": 0.00037801218967811734, "original_dtype": "float32"}}, {"name": "batch_normalization_79/beta", "shape": [32], "dtype": "float32", "quantization": {"dtype": "uint8", "min": -0.049922960832276764, "scale": 0.00023438009780411628, "original_dtype": "float32"}}, {"name": "batch_normalization_79/moving_mean", "shape": [32], "dtype": "float32", "quantization": {"dtype": "uint8", "min": 0.14444662630558014, "scale": 0.0022602714159909417, "original_dtype": "float32"}}, {"name": "batch_normalization_79/moving_variance", "shape": [32], "dtype": "float32", "quantization": {"dtype": "uint8", "min": 0.10615091770887375, "scale": 0.004013790131783953, "original_dtype": "float32"}}, {"name": "batch_normalization_80/gamma", "shape": [32], "dtype": "float32", "quantization": {"dtype": "uint8", "min": 0.9644814729690552, "scale": 0.0002405101177739162, "original_dtype": "float32"}}, {"name": "batch_normalization_80/beta", "shape": [32], "dtype": "float32", "quantization": {"dtype": "uint8", "min": -0.0614082386698939, "scale": 0.0002569382371125268, "original_dtype": "float32"}}, {"name": "batch_normalization_80/moving_mean", "shape": [32], "dtype": "float32", "quantization": {"dtype": "uint8", "min": 0.3290327787399292, "scale": 0.0030375069262934666, "original_dtype": "float32"}}, {"name": "batch_normalization_80/moving_variance", "shape": [32], "dtype": "float32", "quantization": {"dtype": "uint8", "min": 0.38971149921417236, "scale": 0.012567311174729291, "original_dtype": "float32"}}, {"name": "batch_normalization_81/gamma", "shape": [512], "dtype": "float32", "quantization": {"dtype": "uint8", "min": 0.9395536780357361, "scale": 0.0006305369676328173, "original_dtype": "float32"}}, {"name": "batch_normalization_81/beta", "shape": [512], "dtype": "float32", "quantization": {"dtype": "uint8", "min": -0.06425044495685428, "scale": 0.0005444952962445278, "original_dtype": "float32"}}, {"name": "batch_normalization_81/moving_mean", "shape": [512], "dtype": "float32", "quantization": {"dtype": "uint8", "min": -9.878368108412799, "scale": 0.08665235182818244, "original_dtype": "float32"}}, {"name": "batch_normalization_81/moving_variance", "shape": [512], "dtype": "float32", "quantization": {"dtype": "uint8", "min": 4.075239658355713, "scale": 0.04474876441207586, "original_dtype": "float32"}}, {"name": "conv2d_144/kernel", "shape": [3, 3, 3, 16], "dtype": "float32", "quantization": {"dtype": "uint8", "min": -0.20846603769882052, "scale": 0.0015557166992449293, "original_dtype": "float32"}}, {"name": "conv2d_144/bias", "shape": [16], "dtype": "float32", "quantization": {"dtype": "uint8", "min": -0.029795014215450662, "scale": 0.0003385797069937575, "original_dtype": "float32"}}, {"name": "conv2d_145/kernel", "shape": [3, 3, 16, 32], "dtype": "float32", "quantization": {"dtype": "uint8", "min": -0.18476255191307442, "scale": 0.0014104011596417895, "original_dtype": "float32"}}, {"name": "conv2d_145/bias", "shape": [32], "dtype": "float32", "quantization": {"dtype": "uint8", "min": -0.02751766139385747, "scale": 0.0003620744920244404, "original_dtype": "float32"}}, {"name": "conv2d_146/kernel", "shape": [3, 3, 32, 32], "dtype": "float32", "quantization": {"dtype": "uint8", "min": -0.15495085190324223, "scale": 0.0011477840881721647, "original_dtype": "float32"}}, {"name": "conv2d_146/bias", "shape": [32], "dtype": "float32", "quantization": {"dtype": "uint8", "min": -0.05341682758401422, "scale": 0.0005087316912763259, "original_dtype": "float32"}}, {"name": "conv2d_147/kernel", "shape": [3, 3, 32, 512], "dtype": "float32", "quantization": {"dtype": "uint8", "min": -0.08805919710327596, "scale": 0.0006031451856388765, "original_dtype": "float32"}}, {"name": "conv2d_147/bias", "shape": [512], "dtype": "float32", "quantization": {"dtype": "uint8", "min": -0.05313756290604087, "scale": 0.0003019179710570504, "original_dtype": "float32"}}, {"name": "conv2d_148/kernel", "shape": [3, 3, 3, 16], "dtype": "float32", "quantization": {"dtype": "uint8", "min": -0.1956131000729168, "scale": 0.001540260630495408, "original_dtype": "float32"}}, {"name": "conv2d_148/bias", "shape": [16], "dtype": "float32", "quantization": {"dtype": "uint8", "min": -0.05382895348410981, "scale": 0.0005549376647846372, "original_dtype": "float32"}}, {"name": "conv2d_149/kernel", "shape": [3, 3, 16, 32], "dtype": "float32", "quantization": {"dtype": "uint8", "min": -0.15940529727468306, "scale": 0.0013508923497854495, "original_dtype": "float32"}}, {"name": "conv2d_149/bias", "shape": [32], "dtype": "float32", "quantization": {"dtype": "uint8", "min": -0.05916762658778359, "scale": 0.00039445084391855723, "original_dtype": "float32"}}, {"name": "conv2d_150/kernel", "shape": [3, 3, 32, 32], "dtype": "float32", "quantization": {"dtype": "uint8", "min": -0.14300866670468276, "scale": 0.001181889807476717, "original_dtype": "float32"}}, {"name": "conv2d_150/bias", "shape": [32], "dtype": "float32", "quantization": {"dtype": "uint8", "min": -0.05299127499262492, "scale": 0.0003896417278869479, "original_dtype": "float32"}}, {"name": "conv2d_151/kernel", "shape": [3, 3, 32, 512], "dtype": "float32", "quantization": {"dtype": "uint8", "min": -0.09299663614993002, "scale": 0.0006549058883797889, "original_dtype": "float32"}}, {"name": "conv2d_151/bias", "shape": [512], "dtype": "float32", "quantization": {"dtype": "uint8", "min": -0.05339812173270712, "scale": 0.00034011542504908994, "original_dtype": "float32"}}, {"name": "conv2d_152/kernel", "shape": [3, 3, 512, 512], "dtype": "float32", "quantization": {"dtype": "uint8", "min": -0.09623673610827503, "scale": 0.0006973676529585147, "original_dtype": "float32"}}, {"name": "conv2d_152/bias", "shape": [512], "dtype": "float32", "quantization": {"dtype": "uint8", "min": -0.017470429998402502, "scale": 0.0001588220908945682, "original_dtype": "float32"}}, {"name": "conv2d_153/kernel", "shape": [3, 3, 512, 512], "dtype": "float32", "quantization": {"dtype": "uint8", "min": -0.10225001272617602, "scale": 0.0007150350540292029, "original_dtype": "float32"}}, {"name": "conv2d_153/bias", "shape": [512], "dtype": "float32", "quantization": {"dtype": "uint8", "min": -0.02113796897670802, "scale": 0.00016386022462564357, "original_dtype": "float32"}}, {"name": "conv2d_154/kernel", "shape": [3, 3, 512, 512], "dtype": "float32", "quantization": {"dtype": "uint8", "min": -0.0849861485116622, "scale": 0.0006487492252798641, "original_dtype": "float32"}}, {"name": "conv2d_154/bias", "shape": [512], "dtype": "float32", "quantization": {"dtype": "uint8", "min": -0.01965560262255809, "scale": 0.00013016955379177542, "original_dtype": "float32"}}, {"name": "conv2d_155/kernel", "shape": [3, 3, 512, 512], "dtype": "float32", "quantization": {"dtype": "uint8", "min": -0.09222063071587507, "scale": 0.0006540470263537238, "original_dtype": "float32"}}, {"name": "conv2d_155/bias", "shape": [512], "dtype": "float32", "quantization": {"dtype": "uint8", "min": -0.028225898194838974, "scale": 0.00020908072736917758, "original_dtype": "float32"}}, {"name": "conv2d_156/kernel", "shape": [3, 3, 512, 512], "dtype": "float32", "quantization": {"dtype": "uint8", "min": -0.08001255591710409, "scale": 0.00058832761703753, "original_dtype": "float32"}}, {"name": "conv2d_156/bias", "shape": [512], "dtype": "float32", "quantization": {"dtype": "uint8", "min": -0.031530729111503154, "scale": 0.00021896339660766077, "original_dtype": "float32"}}, {"name": "conv2d_157/kernel", "shape": [3, 3, 512, 512], "dtype": "float32", "quantization": {"dtype": "uint8", "min": -0.0727952402012021, "scale": 0.0005870583887193717, "original_dtype": "float32"}}, {"name": "conv2d_157/bias", "shape": [512], "dtype": "float32", "quantization": {"dtype": "uint8", "min": -0.014160425457007745, "scale": 0.00021134963368668277, "original_dtype": "float32"}}, {"name": "conv2d_158/kernel", "shape": [3, 3, 512, 512], "dtype": "float32", "quantization": {"dtype": "uint8", "min": -0.06890614599573847, "scale": 0.000526001114471286, "original_dtype": "float32"}}, {"name": "conv2d_158/bias", "shape": [512], "dtype": "float32", "quantization": {"dtype": "uint8", "min": -0.02260698760841407, "scale": 0.00019488782421046613, "original_dtype": "float32"}}, {"name": "conv2d_159/kernel", "shape": [3, 3, 3, 16], "dtype": "float32", "quantization": {"dtype": "uint8", "min": -0.20430408710358192, "scale": 0.0016344326968286552, "original_dtype": "float32"}}, {"name": "conv2d_159/bias", "shape": [16], "dtype": "float32", "quantization": {"dtype": "uint8", "min": -0.017441215066640984, "scale": 0.00026832638564063053, "original_dtype": "float32"}}, {"name": "conv2d_160/kernel", "shape": [3, 3, 16, 32], "dtype": "float32", "quantization": {"dtype": "uint8", "min": -0.17229305996614344, "scale": 0.001435775499717862, "original_dtype": "float32"}}, {"name": "conv2d_160/bias", "shape": [32], "dtype": "float32", "quantization": {"dtype": "uint8", "min": -0.03012047705843168, "scale": 0.0004126092747730367, "original_dtype": "float32"}}, {"name": "conv2d_161/kernel", "shape": [3, 3, 32, 32], "dtype": "float32", "quantization": {"dtype": "uint8", "min": -0.15651924469891718, "scale": 0.0012039941899916705, "original_dtype": "float32"}}, {"name": "conv2d_161/bias", "shape": [32], "dtype": "float32", "quantization": {"dtype": "uint8", "min": -0.031721652430646556, "scale": 0.00035246280478496176, "original_dtype": "float32"}}, {"name": "conv2d_162/kernel", "shape": [3, 3, 32, 512], "dtype": "float32", "quantization": {"dtype": "uint8", "min": -0.08369614838385114, "scale": 0.000585287750936022, "original_dtype": "float32"}}, {"name": "conv2d_162/bias", "shape": [512], "dtype": "float32", "quantization": {"dtype": "uint8", "min": -0.0417966868947534, "scale": 0.0002679274800945731, "original_dtype": "float32"}}, {"name": "conv2d_163/kernel", "shape": [3, 3, 512, 512], "dtype": "float32", "quantization": {"dtype": "uint8", "min": -0.07212037204527388, "scale": 0.0005505371911852968, "original_dtype": "float32"}}, {"name": "conv2d_163/bias", "shape": [512], "dtype": "float32", "quantization": {"dtype": "uint8", "min": -0.013577482509700691, "scale": 9.767973028561648e-05, "original_dtype": "float32"}}, {"name": "conv2d_164/kernel", "shape": [3, 3, 3, 16], "dtype": "float32", "quantization": {"dtype": "uint8", "min": -0.19979263731077607, "scale": 0.0016112309460546456, "original_dtype": "float32"}}, {"name": "conv2d_164/bias", "shape": [16], "dtype": "float32", "quantization": {"dtype": "uint8", "min": -0.09417693702613607, "scale": 0.0006450475138776443, "original_dtype": "float32"}}, {"name": "conv2d_165/kernel", "shape": [3, 3, 16, 32], "dtype": "float32", "quantization": {"dtype": "uint8", "min": -0.1756434866026336, "scale": 0.0013107722880793553, "original_dtype": "float32"}}, {"name": "conv2d_165/bias", "shape": [32], "dtype": "float32", "quantization": {"dtype": "uint8", "min": -0.0664321040990306, "scale": 0.0005110161853771584, "original_dtype": "float32"}}, {"name": "conv2d_166/kernel", "shape": [3, 3, 32, 32], "dtype": "float32", "quantization": {"dtype": "uint8", "min": -0.15204360572730796, "scale": 0.0011431850054684808, "original_dtype": "float32"}}, {"name": "conv2d_166/bias", "shape": [32], "dtype": "float32", "quantization": {"dtype": "uint8", "min": -0.04888880284247445, "scale": 0.00031139364867818124, "original_dtype": "float32"}}, {"name": "conv2d_167/kernel", "shape": [3, 3, 32, 512], "dtype": "float32", "quantization": {"dtype": "uint8", "min": -0.09422163682825424, "scale": 0.0006198791896595674, "original_dtype": "float32"}}, {"name": "conv2d_167/bias", "shape": [512], "dtype": "float32", "quantization": {"dtype": "uint8", "min": -0.037640206325872276, "scale": 0.00021757344697035996, "original_dtype": "float32"}}, {"name": "conv2d_168/kernel", "shape": [3, 3, 512, 512], "dtype": "float32", "quantization": {"dtype": "uint8", "min": -0.07365968122201808, "scale": 0.0005580278880455915, "original_dtype": "float32"}}, {"name": "conv2d_168/bias", "shape": [512], "dtype": "float32", "quantization": {"dtype": "uint8", "min": -0.014727917952718687, "scale": 0.00010595624426416322, "original_dtype": "float32"}}, {"name": "conv2d_169/kernel", "shape": [3, 3, 3, 16], "dtype": "float32", "quantization": {"dtype": "uint8", "min": -0.1975510786561405, "scale": 0.0015678657036201627, "original_dtype": "float32"}}, {"name": "conv2d_169/bias", "shape": [16], "dtype": "float32", "quantization": {"dtype": "uint8", "min": -0.043836246781489424, "scale": 0.00044279037153019624, "original_dtype": "float32"}}, {"name": "conv2d_170/kernel", "shape": [3, 3, 16, 32], "dtype": "float32", "quantization": {"dtype": "uint8", "min": -0.16144809138541127, "scale": 0.0013233450113558302, "original_dtype": "float32"}}, {"name": "conv2d_170/bias", "shape": [32], "dtype": "float32", "quantization": {"dtype": "uint8", "min": -0.06359581932717678, "scale": 0.00045752388005163155, "original_dtype": "float32"}}, {"name": "conv2d_171/kernel", "shape": [3, 3, 32, 32], "dtype": "float32", "quantization": {"dtype": "uint8", "min": -0.14144362427440343, "scale": 0.0011137293249953027, "original_dtype": "float32"}}, {"name": "conv2d_171/bias", "shape": [32], "dtype": "float32", "quantization": {"dtype": "uint8", "min": -0.023682406464335965, "scale": 0.0002660944546554603, "original_dtype": "float32"}}, {"name": "conv2d_172/kernel", "shape": [3, 3, 32, 128], "dtype": "float32", "quantization": {"dtype": "uint8", "min": -0.1112100313691532, "scale": 0.0008299256072324865, "original_dtype": "float32"}}, {"name": "conv2d_172/bias", "shape": [128], "dtype": "float32", "quantization": {"dtype": "uint8", "min": -0.04513936697268019, "scale": 0.00035265130447406396, "original_dtype": "float32"}}, {"name": "conv2d_173/kernel", "shape": [3, 3, 128, 128], "dtype": "float32", "quantization": {"dtype": "uint8", "min": -0.1013689093730029, "scale": 0.0007240636383785921, "original_dtype": "float32"}}, {"name": "conv2d_173/bias", "shape": [128], "dtype": "float32", "quantization": {"dtype": "uint8", "min": -0.018917942952875997, "scale": 0.00015256405607158062, "original_dtype": "float32"}}, {"name": "conv2d_174/kernel", "shape": [3, 3, 3, 16], "dtype": "float32", "quantization": {"dtype": "uint8", "min": -0.20066894947313796, "scale": 0.001644827454697852, "original_dtype": "float32"}}, {"name": "conv2d_174/bias", "shape": [16], "dtype": "float32", "quantization": {"dtype": "uint8", "min": -0.03495454133725634, "scale": 0.00033610135901208016, "original_dtype": "float32"}}, {"name": "conv2d_175/kernel", "shape": [3, 3, 16, 32], "dtype": "float32", "quantization": {"dtype": "uint8", "min": -0.1481482897903405, "scale": 0.001288245998176874, "original_dtype": "float32"}}, {"name": "conv2d_175/bias", "shape": [32], "dtype": "float32", "quantization": {"dtype": "uint8", "min": -0.05192241651170394, "scale": 0.0003328360032801535, "original_dtype": "float32"}}, {"name": "conv2d_176/kernel", "shape": [3, 3, 32, 32], "dtype": "float32", "quantization": {"dtype": "uint8", "min": -0.13582194207930096, "scale": 0.0010694641108606375, "original_dtype": "float32"}}, {"name": "conv2d_176/bias", "shape": [32], "dtype": "float32", "quantization": {"dtype": "uint8", "min": -0.017832891117123998, "scale": 0.00023464330417268417, "original_dtype": "float32"}}, {"name": "conv2d_177/kernel", "shape": [3, 3, 32, 512], "dtype": "float32", "quantization": {"dtype": "uint8", "min": -0.07694228864183612, "scale": 0.0005616225448309206, "original_dtype": "float32"}}, {"name": "conv2d_177/bias", "shape": [512], "dtype": "float32", "quantization": {"dtype": "uint8", "min": -0.03905067470143823, "scale": 0.00024560172768200143, "original_dtype": "float32"}}, {"name": "conv2d_178/kernel", "shape": [3, 3, 512, 512], "dtype": "float32", "quantization": {"dtype": "uint8", "min": -0.0662879791914248, "scale": 0.0004946864118763045, "original_dtype": "float32"}}, {"name": "conv2d_178/bias", "shape": [512], "dtype": "float32", "quantization": {"dtype": "uint8", "min": -0.012539579982266708, "scale": 0.00010809982743333368, "original_dtype": "float32"}}, {"name": "dense_70/kernel", "shape": [41472, 128], "dtype": "float32", "quantization": {"dtype": "uint8", "min": -0.0637293014456244, "scale": 0.0005400788258103763, "original_dtype": "float32"}}, {"name": "dense_70/bias", "shape": [128], "dtype": "float32", "quantization": {"dtype": "uint8", "min": -0.0003491275704137105, "scale": 2.3912847288610305e-06, "original_dtype": "float32"}}, {"name": "dense_71/kernel", "shape": [128, 64], "dtype": "float32", "quantization": {"dtype": "uint8", "min": -0.07697440596187817, "scale": 0.0006414533830156514, "original_dtype": "float32"}}, {"name": "dense_71/bias", "shape": [64], "dtype": "float32", "quantization": {"dtype": "uint8", "min": -0.0008111821199931642, "scale": 6.437953333279081e-06, "original_dtype": "float32"}}, {"name": "dense_72/kernel", "shape": [64, 7], "dtype": "float32", "quantization": {"dtype": "uint8", "min": -0.5199553492022495, "scale": 0.003636051393022724, "original_dtype": "float32"}}, {"name": "dense_72/bias", "shape": [7], "dtype": "float32", "quantization": {"dtype": "uint8", "min": -0.21711610140753726, "scale": 0.0014571550430036058, "original_dtype": "float32"}}, {"name": "dense_73/kernel", "shape": [512, 512], "dtype": "float32", "quantization": {"dtype": "uint8", "min": -0.11489123097237419, "scale": 0.0008770322974990396, "original_dtype": "float32"}}, {"name": "dense_73/bias", "shape": [512], "dtype": "float32", "quantization": {"dtype": "uint8", "min": -0.0001762805859256974, "scale": 1.444922835456536e-06, "original_dtype": "float32"}}, {"name": "dense_74/kernel", "shape": [512, 512], "dtype": "float32", "quantization": {"dtype": "uint8", "min": -0.022377683602127375, "scale": 0.00017482565314162011, "original_dtype": "float32"}}, {"name": "dense_74/bias", "shape": [512], "dtype": "float32", "quantization": {"dtype": "uint8", "min": -0.0009307869219257697, "scale": 6.164151800832912e-06, "original_dtype": "float32"}}, {"name": "dense_75/kernel", "shape": [512, 5], "dtype": "float32", "quantization": {"dtype": "uint8", "min": -0.1168449528369249, "scale": 0.0008406111714886684, "original_dtype": "float32"}}, {"name": "dense_75/bias", "shape": [5], "dtype": "float32", "quantization": {"dtype": "uint8", "min": -0.0226430468991691, "scale": 0.000138067359141275, "original_dtype": "float32"}}, {"name": "dense_76/kernel", "shape": [41472, 512], "dtype": "float32", "quantization": {"dtype": "uint8", "min": -0.06046096187304048, "scale": 0.00046868962692279444, "original_dtype": "float32"}}, {"name": "dense_76/bias", "shape": [512], "dtype": "float32", "quantization": {"dtype": "uint8", "min": -2.52944439981708e-05, "scale": 2.581065714099061e-07, "original_dtype": "float32"}}, {"name": "dense_77/kernel", "shape": [512, 2], "dtype": "float32", "quantization": {"dtype": "uint8", "min": -0.16031184862641729, "scale": 0.001242727508731917, "original_dtype": "float32"}}, {"name": "dense_77/bias", "shape": [2], "dtype": "float32", "quantization": {"dtype": "uint8", "min": -0.01110809280299673, "scale": 6.037006958150396e-05, "original_dtype": "float32"}}, {"name": "dense_78/kernel", "shape": [41472, 512], "dtype": "float32", "quantization": {"dtype": "uint8", "min": -0.017396192632469474, "scale": 0.0001391695410597558, "original_dtype": "float32"}}, {"name": "dense_78/bias", "shape": [512], "dtype": "float32", "quantization": {"dtype": "uint8", "min": -0.0002600704990875195, "scale": 2.4080601767362917e-06, "original_dtype": "float32"}}, {"name": "dense_79/kernel", "shape": [512, 4], "dtype": "float32", "quantization": {"dtype": "uint8", "min": -0.14546674761702033, "scale": 0.0010465233641512254, "original_dtype": "float32"}}, {"name": "dense_79/bias", "shape": [4], "dtype": "float32", "quantization": {"dtype": "uint8", "min": -0.007407574004986707, "scale": 5.329189931645113e-05, "original_dtype": "float32"}}, {"name": "dense_80/kernel", "shape": [10368, 256], "dtype": "float32", "quantization": {"dtype": "uint8", "min": -0.06959275839959875, "scale": 0.0005394787472837112, "original_dtype": "float32"}}, {"name": "dense_80/bias", "shape": [256], "dtype": "float32", "quantization": {"dtype": "uint8", "min": -4.651910025060323e-05, "scale": 4.116734535451613e-07, "original_dtype": "float32"}}, {"name": "dense_81/kernel", "shape": [256, 2], "dtype": "float32", "quantization": {"dtype": "uint8", "min": -0.23595125616765492, "scale": 0.0018578839068319284, "original_dtype": "float32"}}, {"name": "dense_81/bias", "shape": [2], "dtype": "float32", "quantization": {"dtype": "uint8", "min": -0.047108210886225986, "scale": 0.000356880385501712, "original_dtype": "float32"}}, {"name": "dense_82/kernel", "shape": [41472, 512], "dtype": "float32", "quantization": {"dtype": "uint8", "min": -0.055096812107983756, "scale": 0.00042382163159987505, "original_dtype": "float32"}}, {"name": "dense_82/bias", "shape": [512], "dtype": "float32", "quantization": {"dtype": "uint8", "min": -4.2788277799035326e-05, "scale": 3.9255300733059935e-07, "original_dtype": "float32"}}, {"name": "dense_83/kernel", "shape": [512, 2], "dtype": "float32", "quantization": {"dtype": "uint8", "min": -0.16923166244637733, "scale": 0.0013325327751683253, "original_dtype": "float32"}}, {"name": "dense_83/bias", "shape": [2], "dtype": "float32", "quantization": {"dtype": "uint8", "min": -0.03510159122593263, "scale": 0.00027001224019948175, "original_dtype": "float32"}}]}]}